TracksterFormation/Mixed/SC/runs/hd128nl3cd128k24/best_model.pt (torch, 488162 bytes, 28 tensors)

lc_encode.0.weight f4 [32, 8]
0	0xbdf2502d	-0.118316986
1	0xbc55fab3	-0.01306026
2	0xbdba51b1	-0.09097613
3	0xbe1805a5	-0.14845903
4	0xbed2b11a	-0.41150743
5	0xbbc80335	-0.006103898
6	0xbe3db3b2	-0.1852558
7	0x3e601bb5	0.2188557
8	0x3b024a3c	0.0019880673
9	0x3c4862b2	0.012230562
10	0xbd08de87	-0.033415344
11	0xbebc029f	-0.3672075
12	0xbf10d2fc	-0.56571937
13	0xbd9e19d5	-0.07719771
14	0xbd4697b2	-0.04848451
15	0xbda43632	-0.080181494
16	0x3c64db1c	0.013968255
17	0xbd192e58	-0.037397712
18	0x3d4fc054	0.050720528
19	0x3e14dbae	0.14536926
20	0x3e99e447	0.30056974
21	0x3db9118a	0.090365484
22	0xbe95eff0	-0.2928462
23	0xbe20f5ee	-0.15718815
24	0x3d5e5cdf	0.054287788
25	0xbd216a59	-0.03940806
26	0x3d464215	0.048402864
27	0x3d984e69	0.074368306
28	0xbe8009d8	-0.2500751
29	0xbdc42f0a	-0.095792845
30	0xbe637797	-0.22213589
31	0xbf400f53	-0.7502338
32	0x3da60757	0.08106869
33	0x3df642c8	0.12024456
34	0x3db5663d	0.08857391
35	0x3e99bcdc	0.300269
36	0xbedf7e4a	-0.43651038
37	0x3e463450	0.19355893
38	0x3daa01dd	0.08301137
39	0x3dff2796	0.12458722
40	0x3a863595	0.0010239357
41	0xbdf6e840	-0.12056017
42	0x3d826581	0.063670166
43	0xbe8b3b34	-0.27193606
44	0xbea3040b	-0.31839022
45	0xbd1d0fde	-0.03834521
46	0x3d25708a	0.04039053
47	0x3f047541	0.51741415
48	0xbde931cb	-0.113864504
49	0xbdd7d4cc	-0.10538635
50	0x3d8b8ee6	0.06814365
51	0x3f433867	0.7625794
52	0xbe4cf3ea	-0.20014921
53	0x3e0eedb8	0.1395787
54	0xbecbe4dc	-0.39823043
55	0xbb729790	-0.0037016608
56	0xbd1f5787	-0.038901832
57	0x3e78d21b	0.24298899
58	0xbe05cb2d	-0.13065787
59	0xbe932317	-0.2873771
60	0xbe51c273	-0.20484333
61	0xbe74b406	-0.23896798
62	0xbe5087fb	-0.20364372
63	0x3e5f33f1	0.21797158
64	0xbc91ab19	-0.017781781
65	0x3cd43c35	0.025907615
66	0x3cb0715c	0.021538429
67	0xbd830b08	-0.063985884
68	0xbdfab7ae	-0.12242065
69	0xbd9d56e9	-0.076825924
70	0xbeb22395	-0.34792772
71	0xbe919b01	-0.2843857
72	0xbac42a51	-0.0014966225
73	0x3dec3266	0.1153305
74	0x3bc185b0	0.0059058294
75	0x3c4da9b8	0.012552671
76	0x3ac486ec	0.0014993823
77	0xbcac2437	-0.021013362
78	0xbe2f3e36	-0.17113575
79	0xbf4752ee	-0.77860916
80	0x3e33e44c	0.17567557
81	0xbd8e6064	-0.06951979
82	0x3dc51681	0.09623433
83	0x3d54c67c	0.051947102
84	0xbe0e9bb9	-0.13926591
85	0xbe4f518e	-0.20245954
86	0x3ded362c	0.11582598
87	0x3effafab	0.49938712
88	0xbd875ece	-0.066098794
89	0xbaf6e701	-0.0018837155
90	0xbd8bcae1	-0.068258055
91	0xbd1ce7ac	-0.038306877
92	0xbe84a31c	-0.25905693
93	0xbe9fabe7	-0.3118584
94	0xbddfe6ca	-0.109326914
95	0x3d8d0af0	0.06886852
96	0x3e3c0224	0.18360192
97	0xbdf83f5e	-0.12121461
98	0xbc40ce9e	-0.011768011
99	0xbc2fa01b	-0.010719324
100	0x3b5e18df	0.0033889336
101	0x3b74bf9d	0.0037345656
102	0x3c98aec2	0.018638019
103	0xbea37473	-0.3192478
104	0xbe367a14	-0.17820007
105	0xbd3b4cc1	-0.045727495
106	0xbdda2ef0	-0.10653484
107	0xbebb5e60	-0.3659544
108	0xbe6e17c5	-0.23251255
109	0xbec4952c	-0.3839506
110	0x3d11c0c6	0.035584234
111	0xbe152016	-0.14563021
112	0x3e083f9d	0.13305517
113	0xbc1ab762	-0.009443136
114	0x3d6c0a7e	0.057627194
115	0x3d8764b0	0.066110015
116	0xbd82af54	-0.063810974
117	0x3e495fcb	0.19665448
118	0xbdb77c7f	-0.089592926
119	0xbf335330	-0.7004881
120	0x3cb90e31	0.022589775
121	0x3dea50f4	0.11441222
122	0x3d73a526	0.05948367
123	0x3ef174ec	0.47159517
124	0xbebd619e	-0.36988539
125	0xbd69f8e0	-0.05712211
126	0xbdc218cc	-0.09477386
127	0xbf13297d	-0.5748518
128	0x3dc193a2	0.09451987
129	0xbd957a2d	-0.07298694
130	0xbdaffeba	-0.08593507
131	0xbc631ac6	-0.013861364
132	0x3de85f89	0.11346347
133	0xbd77a817	-0.060463037
134	0x3c9ea5e4	0.019366212
135	0xbe051035	-0.12994464
136	0xbe8ec95a	-0.27887994
137	0xbe97e691	-0.29668096
138	0xbe408daf	-0.18804048
139	0xbb417b20	-0.002952285
140	0xbe11e37e	-0.14246938
141	0xbd05c3bc	-0.03265737
142	0x3e08059c	0.1328339
143	0x3bd9d249	0.0066473824
144	0x3bba3ce5	0.0056835287
145	0x3db654d4	0.089028984
146	0x3d14bd17	0.036313143
147	0xbd8eabbc	-0.069663495
148	0x3e3fe5a3	0.18739943
149	0xbd34a8ef	-0.04410642
150	0xbee2c103	-0.4428788
151	0x3f802034	1.0009828
152	0xbc28b7c9	-0.010297724
153	0x3c8be145	0.01707519
154	0x3c9dc0ee	0.019257035
155	0xbed4e3e6	-0.41580123
156	0xbd963107	-0.0733357
157	0x3e19048b	0.1494314
158	0xbe921fdb	-0.2853993
159	0xbea40079	-0.3203161
160	0xbdbe5bef	-0.09294879
161	0xbdd06132	-0.101747885
162	0x3d9254f0	0.07145107
163	0xbe592dbb	-0.21208851
164	0xbebab838	-0.36468673
165	0xbd607ba5	-0.054805417
166	0xbc168799	-0.009187602
167	0x3ed68ab9	0.41902712
168	0xbec23407	-0.3793032
169	0xbc5e2741	-0.013559164
170	0xbf005554	-0.501302
171	0xbdc983ae	-0.09839569
172	0x3e4a7b82	0.19773677
173	0x3e2dab11	0.16959788
174	0x3e8a8d8e	0.27061123
175	0xbe80a604	-0.2512666
176	0xbcf72e9a	-0.030173589
177	0x3d5f7173	0.054551553
178	0x3d0972b9	0.033556674
179	0xbe57caf2	-0.21073511
180	0xbe353ec6	-0.17699727
181	0xbc842347	-0.016130103
182	0xbea7d1af	-0.32777163
183	0xbed5df91	-0.4177213
184	0x3ef4b3a3	0.47793302
185	0xbcd364c4	-0.025804885
186	0xbca4bb3c	-0.020108812
187	0xbaae0361	-0.0013276153
188	0x3cb1cd71	0.021704407
189	0x3acaa536	0.0015460614
190	0x3e650d2d	0.22368307
191	0x3e741630	0.23836589
192	0xbe839a62	-0.25703722
193	0x3df56cea	0.11983664
194	0xbeabaf41	-0.33532146
195	0x3b772fb5	0.0037717645
196	0xbe8b0607	-0.27153036
197	0x3e8815b9	0.26579073
198	0x3e466b77	0.19376932
199	0xbe23ee3e	-0.16008851
200	0xbd5a1837	-0.05324575
201	0xbd5595d5	-0.052144844
202	0x3d293102	0.041306503
203	0x3f2a4d30	0.6652403
204	0xbe7ebb07	-0.24876033
205	0x3e57871f	0.21047638
206	0xbf07ff3d	-0.5312384
207	0x3f157fa6	0.583979
208	0x3ddc8bb7	0.10768836
209	0x3a965280	0.0011468679
210	0xbd9d212a	-0.07672341
211	0xbe837305	-0.2567369
212	0xbe49d730	-0.19710994
213	0xbe1237dc	-0.14279121
214	0xbdff2447	-0.12458091
215	0x3eabd610	0.33561754
216	0xbe947097	-0.2899215
217	0x3e3ad5ba	0.18245593
218	0x3ae1d6a4	0.0017230106
219	0xba9def13	-0.0012049399
220	0x3a608db7	0.0008566039
221	0x3c01a545	0.0079129385
222	0x3ce27a6c	0.027646266
223	0xbf22369e	-0.6336459
224	0x3e1445c1	0.14479734
225	0xbe900dd6	-0.28135556
226	0xbc866165	-0.016403863
227	0x3b39bbb6	0.0028340644
228	0x3c3b72d5	0.011440952
229	0x3ba135af	0.0049197297
230	0x3d766db7	0.060163226
231	0x3d879cd8	0.066217124
232	0xbd95ed83	-0.073206924
233	0x3cf7cc5d	0.030248815
234	0x3d0aad2c	0.033856556
235	0xbdf3387b	-0.11876007
236	0x3ddd4400	0.108039856
237	0xbd787ea3	-0.060667645
238	0xbc9107a1	-0.017703833
239	0xbed1d9ee	-0.4098658
240	0x3dc1a134	0.09454575
241	0xbe43e39b	-0.19129793
242	0x3b78bc51	0.0037954042
243	0xbb1682f1	-0.002296623
244	0xbba32ee5	-0.0049799555
245	0xbab9bb16	-0.0014170136
246	0x3db37dde	0.08764242
247	0xbdc80ce8	-0.09768087
248	0x3e89446b	0.2681001
249	0x3eb2dc60	0.34933758
250	0x3c5fa9f5	0.013651361
251	0xbba254bc	-0.004953949
252	0xbcafae51	-0.021445425
253	0x3aedb6f5	0.001813619
254	0xbdf7763a	-0.12083097
255	0x3d551763	0.052024256

lc_encode.0.bias f4 [32]
0	0xbe8f5492	-0.2799421
1	0xbed95b7d	-0.42452613
2	0xbebed984	-0.37275326
3	0x3dd95555	0.10611979
4	0xbec37347	-0.38173887
5	0x3e5588e8	0.20853007
6	0xbdb74b15	-0.08949868
7	0xbe2fae1b	-0.1715626
8	0xbdf578af	-0.11985909
9	0xbda8fa2e	-0.08250843
10	0xbeca784d	-0.39544907
11	0x3b4272ae	0.0029670405
12	0xbe90d799	-0.28289488
13	0xbefe3c9f	-0.49655625
14	0xbe9bc060	-0.30420208
15	0xbd1024af	-0.035191234
16	0x3dc98fe1	0.09841896
17	0xbebe6d8b	-0.3719295
18	0xbbe5ff97	-0.007018994
19	0xbde72fb8	-0.112883985
20	0xbe04d3b1	-0.12971379
21	0xbe625c53	-0.22105531
22	0x3dbf69f5	0.093463816
23	0x3d878f5e	0.06619142
24	0xbe94bb9c	-0.29049385
25	0xbdedff79	-0.11620993
26	0x3c46aa5c	0.012125578
27	0x3eac517c	0.33655918
28	0x3bb2cc4a	0.005456482
29	0xbeec1cb4	-0.4611565
30	0xbe590c91	-0.211962
31	0xbd6e7f97	-0.058227148

lc_encode.2.weight f4 [128, 32]
0	0x3dbd800f	0.09252941
1	0x3dd08d05	0.10183147
2	0x3e3639a7	0.1779543
3	0xbd894378	-0.06702322
4	0xbdf06918	-0.11738795
5	0xbe6f7c76	-0.23387322
6	0x3e113b98	0.1418289
7	0xbc4e09f8	-0.012575619
8	0xbe1d8a20	-0.15384722
9	0x3e5974bb	0.21235935
10	0xbd9171aa	-0.07101758
11	0x3e74b30e	0.23896429
12	0xba2dc5a0	-0.00066288747
13	0x3d82e5bc	0.063914746
14	0x3cdd82ec	0.027039967
15	0xbe6ea004	-0.23303229
16	0xbd7a11b5	-0.061052043
17	0x3e32922f	0.17438577
18	0xbb9a288e	-0.0047045415
19	0xbd698151	-0.05700809
20	0xbd860525	-0.0654395
21	0xbccf66aa	-0.025317509
22	0xbe289386	-0.16462526
23	0x3d8a4453	0.06751313
24	0x3dccdbea	0.10002883
25	0xbd6a7fa1	-0.057250623
26	0x3ded216c	0.1157864
27	0x3d84d8d3	0.064866684
28	0xbd3fabde	-0.046794765
29	0x3d507945	0.0508969
30	0x3e207b29	0.15671982
31	0x3e0b9b0b	0.13633363
32	0x3ec40e19	0.38292006
33	0x3e2f6334	0.17127687
34	0xbe453de6	-0.19261894
35	0xbe19ebae	-0.15031311
36	0x3cc9deef	0.024642436
37	0x3dd31570	0.10306823
38	0x3d911558	0.07084149
39	0x3ef2d7d3	0.47430286
40	0x3dd340b0	0.103150725
41	0xbd3d2d28	-0.046185642
42	0x3ddbd715	0.10734383
43	0x3e35bc89	0.17747702
44	0xbd09d0f1	-0.033646528
45	0x3dbbd9f9	0.09172434
46	0x3dbc2fb4	0.09188786
47	0x3d50b7d4	0.050956562
48	0x3dea2863	0.114334844
49	0x3dfbfb8b	0.123038374
50	0x3d0c96c0	0.034323454
51	0x3dcf831d	0.1013243
52	0x3ddba267	0.10724335
53	0x3df73276	0.120701715
54	0x3b69289b	0.0035577181
55	0xbd6324ba	-0.055454947
56	0x3cb82cbf	0.022482274
57	0xbdc10a94	-0.09425846
58	0x3e828d79	0.2549856
59	0x3d6912d0	0.056902707
60	0x3ba0d8cd	0.004908657
61	0xbe3b9900	-0.18320084
62	0xbd98c84e	-0.0746008
63	0x3c1dd90d	0.0096342685
64	0xbd149c69	-0.036281977
65	0x3ba12da7	0.0049187723
66	0xbe09429f	-0.1340432
67	0xbe452a3c	-0.19254392
68	0x3e08eb2e	0.13370964
69	0xbe0a22c1	-0.1348982
70	0xbe07dded	-0.13268252
71	0x3e1b7e21	0.15184833
72	0x3d93f620	0.07224679
73	0xbc9c02f5	-0.019044379
74	0xbd6a6794	-0.057227686
75	0xbdab0bbf	-0.0835185
76	0x3e333946	0.17502317
77	0xbdd570b8	-0.1042189
78	0xbd896f3e	-0.06710671
79	0x3e1febcf	0.15617298
80	0x3dcab0ef	0.09897029
81	0xbe44c61a	-0.19216195
82	0x3deae132	0.11468734
83	0xbc82989f	-0.015941916
84	0x3b94f23b	0.0045454777
85	0x3c905f5c	0.017623596
86	0xbda2f729	-0.07957298
87	0x3e5bb586	0.21455964
88	0xbe19d1dd	-0.15021463
89	0xbc50bc0f	-0.012740149
90	0xbdbbad8d	-0.091639616
91	0x3dd51c72	0.10405816
92	0xbe046e7e	-0.12932774
93	0xba7b16c6	-0.00095782836
94	0xbc6172e7	-0.013760305
95	0x3d79e683	0.06101085
96	0xbc4c76bb	-0.012479479
97	0x3e26e261	0.16297294
98	0x3d956218	0.072941005
99	0xbd870598	-0.06592864
100	0x3c1719ef	0.009222492
101	0xbe3b0bbc	-0.18266195
102	0xbe288fc4	-0.16461092
103	0x3e5e8fc7	0.21734534
104	0x3ae72844	0.0017635901
105	0xbe1b68da	-0.15176716
106	0xbdc6e604	-0.09711841
107	0x3e525e1c	0.20543712
108	0x3dc648ae	0.09681831
109	0xbca6b4cf	-0.020349888
110	0xbe2487fb	-0.16067497
111	0xbceee2f3	-0.029160952
112	0xbe17365a	-0.14766827
113	0x3a291321	0.0006449689
114	0x3cc48281	0.02398801
115	0xbdcbddc1	-0.099544056
116	0x3cedb782	0.029018167
117	0xbd7f88ec	-0.06238644
118	0x3d9c82d0	0.07642138
119	0x3e012423	0.12611441
120	0xbc135d30	-0.008994386
121	0x3e16c25e	0.14722583
122	0xbd8c82fd	-0.068609215
123	0x3d9abd34	0.07555619
124	0xbbd96f5a	-0.0066355886
125	0x3d961662	0.07328488
126	0xbd0dc5b2	-0.034612365
127	0xbd3e6730	-0.046485126
128	0x3dac85ac	0.084239334
129	0xbe0d7fad	-0.13818236
130	0xbe11d045	-0.14239605
131	0xbe25f669	-0.1620728
132	0x3d4685ed	0.048467565
133	0xbd250d8e	-0.04029613
134	0xbdb5e598	-0.08881682
135	0x3da8961b	0.08231755
136	0xbe30cca9	-0.17265572
137	0xbdfd15e0	-0.12357688
138	0xbc81e26a	-0.015855033
139	0xbd9e6f4c	-0.07736072
140	0x3de07d20	0.10961366
141	0xbd7b7a36	-0.061395846
142	0xbe0deb3e	-0.13859269
143	0xbe4ddd64	-0.20103985
144	0x3d33c8af	0.04389256
145	0xbe262087	-0.16223346
146	0x3d0733a6	0.03300824
147	0xbdd0cb23	-0.10194995
148	0xbd8b99f3	-0.06816473
149	0xbd3c16b5	-0.045920093
150	0xbe17d619	-0.14827766
151	0xbe057e75	-0.13036521
152	0xbdb17a29	-0.08665878
153	0xbdecc37a	-0.11560722
154	0x3d4440eb	0.047913473
155	0xbc4e5490	-0.012593403
156	0xbe0d2dd3	-0.13787012
157	0x3dcaad35	0.09896318
158	0xbe1e8980	-0.1548214
159	0x3daa19ef	0.08305728
160	0xbd8a154e	-0.06742345
161	0xbe3d073c	-0.18459791
162	0x3da7fccf	0.08202516
163	0x3d2179a1	0.039422635
164	0x3de81c63	0.11333539
165	0x3bbf3fcf	0.005836464
166	0x3dcb0f63	0.09915044
167	0x3dad15bb	0.084514104
168	0xbdbf4cfe	-0.09340857
169	0xbd302735	-0.04300614
170	0x3ccc5d9a	0.024946976
171	0x3d848206	0.064701125
172	0x3e286dec	0.16448182
173	0xbc5a31bb	-0.013317521
174	0xbdc45357	-0.09586208
175	0x3e1dd8af	0.1541469
176	0x3e08ec27	0.13371335
177	0xbc83870e	-0.01605561
178	0x3d746df7	0.059675183
179	0xbe263b5e	-0.16233584
180	0xbd41406c	-0.047180578
181	0x3dbf2cfd	0.09334753
182	0xbd6b1b47	-0.05739906
183	0xbdd8447f	-0.105599396
184	0x3e3cbe1a	0.18431893
185	0xbcbc6f34	-0.023002245
186	0x3e184b6d	0.14872523
187	0xbe00a7d8	-0.12564027
188	0xbe41d859	-0.18930186
189	0xbc65e115	-0.0140307145
190	0xbc1ccd3e	-0.009570418
191	0xbdbd6201	-0.092472084
192	0x3de3aa2e	0.111164436
193	0xbe08f2b5	-0.13373835
194	0x3d314c99	0.04328594
195	0x3df3c1e5	0.11902217
196	0xbd2fa030	-0.042877376
197	0xbdd7ef10	-0.105436444
198	0x3dd585fc	0.10425946
199	0xbd4142d0	-0.047182858
200	0x3d9f18aa	0.07768376
201	0x3df01758	0.117232025
202	0xbdf30416	-0.11866014
203	0xbd76c182	-0.060243137
204	0x3c984761	0.018588724
205	0x3d603262	0.05473555
206	0x3d7ba274	0.061434224
207	0x3d446f9d	0.047958005
208	0x3c5bb294	0.013409276
209	0xbde6c870	-0.11268699
210	0xbb959646	-0.004565033
211	0xbc9bf52d	-0.019037807
212	0x3c4746dd	0.012162891
213	0x3d566661	0.05234373
214	0x3e038ae3	0.1284595
215	0xbe68cdfb	-0.22734825
216	0xbce409a0	-0.02783662
217	0xbe2556db	-0.16146414
218	0xbe00d2c6	-0.12580404
219	0x3cb3a7e0	0.021930635
220	0xbe2e21e5	-0.17005117
221	0xbdb52da3	-0.08846595
222	0xbf028b73	-0.5099403
223	0x3c50c085	0.012741213
224	0x3dedd7af	0.11613404
225	0xbd907ae4	-0.070546895
226	0xbcae77b2	-0.02129731
227	0xbe5205e9	-0.20510067
228	0xbdf2502e	-0.11831699
229	0xbe089e44	-0.13341624
230	0x3df5ed50	0.120081544
231	0xbd939d79	-0.0720777
232	0x3e0d724c	0.13813132
233	0xbddf0057	-0.10888737
234	0xbe00fa73	-0.12595539
235	0xbd86a3c4	-0.065742046
236	0x3e02f27e	0.12787816
237	0xbcd2f8d4	-0.025753416
238	0xbe82bedd	-0.25536242
239	0xbe27b3b1	-0.1637714
240	0xbe0fa610	-0.14028192
241	0xbd697851	-0.05699951
242	0xbd3dbc10	-0.04632193
243	0x3e0f3533	0.13985138
244	0xbdb0db9a	-0.08635636
245	0xbdabaa49	-0.08382089
246	0xbd816f85	-0.06320099
247	0xbd46dc28	-0.0485498
248	0xbd172a71	-0.03690571
249	0xbe44381e	-0.19162032
250	0x3d9deff3	0.07711782
251	0xbcebb8fd	-0.028774733
252	0x3d760f46	0.06007316
253	0xbc4734cd	-0.012158585
254	0xbe0360bc	-0.1282987
255	0x3de2cdb3	0.1107439

lc_encode.2.bias f4 [128]
0	0xbe2a7ec5	-0.16649921
1	0xbee7703e	-0.45202821
2	0x3e40acfc	0.18815988
3	0xbe00d865	-0.12582548
4	0x3db49e01	0.08819199
5	0x3e3f8c16	0.18705782
6	0x3d6cbf30	0.057799518
7	0xbcdf64ba	-0.02726971
8	0xbdd4d4ae	-0.10392128
9	0x3b1cbf6e	0.0023917812
10	0xbd302593	-0.043004584
11	0xbd5c49e5	-0.05378141
12	0xbd02e5fd	-0.031957615
13	0xbe8dce3d	-0.2769641
14	0x3c4cd92a	0.012502948
15	0x3ddd1659	0.10795278
16	0xbdeafb71	-0.1147374
17	0xbe375fc9	-0.17907633
18	0x3dc842da	0.09778376
19	0xbdd903f6	-0.105964586
20	0x3e7c19ec	0.24619263
21	0xbe102c2f	-0.14079355
22	0x3c48581b	0.012228037
23	0xbdca93ad	-0.09891448
24	0xbd7a9c86	-0.06118443
25	0x3cf32fa5	0.029685805
26	0xbdbc585c	-0.09196541
27	0x3e01644f	0.12635921
28	0xbe20ba16	-0.15695986
29	0x3d81a1f9	0.06329722
30	0x3c912cad	0.017721498
31	0xbe3787a5	-0.17922838
32	0xbe329255	-0.17438634
33	0xbc7bed71	-0.015376435
34	0xbd442579	-0.0478873
35	0xbdc72429	-0.09723694
36	0xbdc28462	-0.09497906
37	0x3e28f4b4	0.16499597
38	0x3e1c9c20	0.15293932
39	0xbe087d1c	-0.13328975
40	0x3dc9e3e7	0.09857922
41	0xbe94e4d7	-0.2908084
42	0xbe40ca15	-0.18827088
43	0x3c26df11	0.010185019
44	0x3dbd7635	0.09251062
45	0x3b310c34	0.002701533
46	0xbeaa2421	-0.3323069
47	0x3d65ce5f	0.056105014
48	0xbe062aa4	-0.13102204
49	0xbc57e367	-0.013176776
50	0x3e0a02a3	0.13477568
51	0x3d8f2204	0.0698891
52	0xbdd2dbd3	-0.102958344
53	0x3d1816fb	0.03713129
54	0x3d70701e	0.058700673
55	0x3db36dcc	0.087611765
56	0x3e243a91	0.16037966
57	0x3dc67e99	0.09692115
58	0xbe1925ec	-0.14955872
59	0x3dc6d127	0.097078614
60	0xbe160048	-0.14648545
61	0x3cdceaab	0.026967367
62	0x3e292295	0.16517098
63	0x3d04da9b	0.03243504
64	0x3d18f580	0.037343502
65	0xbdbdb7f5	-0.09263603
66	0xbda35b5e	-0.07976411
67	0xbd350024	-0.044189587
68	0x3de223be	0.110419735
69	0xbcd23814	-0.025661506
70	0x3d3954f0	0.04524702
71	0xbe776543	-0.24159722
72	0x3d87b04c	0.06625423
73	0x3ce171f3	0.027520156
74	0xbd08c69e	-0.03339254
75	0x3deab591	0.11460412
76	0x3d8bbbba	0.068229154
77	0x3dce1f81	0.10064603
78	0xbd108d8f	-0.03529125
79	0x3d75b5cf	0.05998784
80	0x3e0d5b4d	0.1380436
81	0x3d8a9051	0.067658074
82	0xbea35dec	-0.31907594
83	0x3dc93012	0.09823622
84	0xbe2f9db4	-0.17150003
85	0xbd231650	-0.0398162
86	0xbe134236	-0.14380726
87	0x3ce5ac4a	0.028036255
88	0xbe01fa0d	-0.12693043
89	0x3c91f0c8	0.017815009
90	0xbe2cd4da	-0.16878071
91	0xbd18a8dc	-0.03727041
92	0xbeb56c0a	-0.3543399
93	0x3dd03b44	0.10167554
94	0xbda599e8	-0.08085996
95	0xbc58c104	-0.013229612
96	0xbd22bdb8	-0.03973171
97	0x3d98fd03	0.07470133
98	0xbda78905	-0.08180431
99	0xbd73d6d9	-0.059531067
100	0xbe35a306	-0.1773797
101	0x3d7c3313	0.061572146
102	0x3c9cf4de	0.01915973
103	0xbe12f7e3	-0.14352374
104	0x3e03e8e8	0.12881815
105	0x3d68f89c	0.056877717
106	0x3d7c148b	0.06154303
107	0x3e5216a1	0.20516445
108	0xbe3fe332	-0.18739012
109	0xbdfd5e6c	-0.12371525
110	0xbe0d3253	-0.13788728
111	0x3dd4c52f	0.10389172
112	0xbe7006f1	-0.23440148
113	0x3d74b616	0.059743963
114	0xbeb1592b	-0.34638342
115	0xbdb8a44d	-0.09015713
116	0xbe69debb	-0.22838871
117	0xbdaafa64	-0.083485395
118	0x3e513db6	0.20433697
119	0xbe1681f2	-0.14698008
120	0x3e6028cc	0.21890563
121	0xbe5befa8	-0.2147814
122	0xbe0b19a6	-0.13584003
123	0xbd9441d3	-0.072391175
124	0xbf1a8811	-0.6036387
125	0x3c8a27f0	0.016864747
126	0xbe1f9e89	-0.1558782
127	0xbdd21d48	-0.10259491

convs.0.nn.0.weight f4 [128, 256]
0	0x3d05690e	0.03257089
1	0xbd884573	-0.066538714
2	0x3c101cee	0.00879596
3	0x3c708a58	0.014681421
4	0xbe097f26	-0.1342741
5	0x3badbf62	0.0053023556
6	0x3cfd02d2	0.030885134
7	0xbdd53bb8	-0.10411781
8	0xbda36fa2	-0.07980277
9	0xbdbe6f25	-0.09298543
10	0x3bd12dbd	0.0063836263
11	0xbe0d75b4	-0.13814431
12	0x3da9d20f	0.082920186
13	0xbd20f2fc	-0.039294228
14	0xbcaff741	-0.021480205
15	0xbdee7a82	-0.1164446
16	0x3e604463	0.21901087
17	0xbd814f31	-0.06313933
18	0xbde48448	-0.11158043
19	0xbd5c1906	-0.0537348
20	0x3d2c4e0d	0.042066623
21	0xbdc315ea	-0.09525664
22	0xbd7337b9	-0.059379313
23	0x3b97f799	0.0046376702
24	0xbd70cbaa	-0.05878798
25	0xbe0e4e92	-0.1389716
26	0x3c878158	0.016541168
27	0xbdabf578	-0.08396429
28	0xbd59c1fb	-0.05316351
29	0x3e24e706	0.16103753
30	0xbd9fa15d	-0.077944495
31	0xbd04d438	-0.03242895
32	0xbd9a10be	-0.075227246
33	0x3d070f05	0.032973308
34	0xbdb03d05	-0.086053886
35	0x3c9691c8	0.01838006
36	0x3cbcb33a	0.02303468
37	0x3c40254f	0.011727645
38	0x3cde592b	0.027142128
39	0xbd93bab7	-0.072133474
40	0xbe0c4e37	-0.13701712
41	0xbd5e1909	-0.054223094
42	0xbe3401f6	-0.17578873
43	0x3c4018b2	0.011724638
44	0xbdb8b304	-0.090185195
45	0x3d053568	0.032521635
46	0xbc8561f7	-0.016282065
47	0x3d2aa102	0.041657455
48	0xbd1aa6fc	-0.037756905
49	0xbe0a4dd6	-0.13506255
50	0xbe040976	-0.12894234
51	0xbd8ccb47	-0.068747096
52	0x3e36f4a7	0.17866765
53	0x3d2d6dab	0.042340916
54	0xbd63539e	-0.055499665
55	0xbc27404b	-0.0102082
56	0x3ec8ccb8	0.39218688
57	0x3cea8ccf	0.028631596
58	0xbd8eae44	-0.06966832
59	0xbe2baf2b	-0.1676604
60	0x3bfe8891	0.007767745
61	0xbddf6573	-0.10908022
62	0x3d3fb932	0.046807475
63	0xbc10d18a	-0.0088390205
64	0x3b61eecb	0.0034474607
65	0xbe0efd9f	-0.13963936
66	0x3d270305	0.040774364
67	0xbd1279a2	-0.03576053
68	0x3d7b5fdd	0.06137072
69	0xbd92a410	-0.07160199
70	0xbd9bd84c	-0.07609615
71	0x3d274464	0.040836707
72	0xbd585959	-0.052819584
73	0xbc98e941	-0.018665912
74	0x3a676db3	0.0008828297
75	0xbcb6f9f8	-0.022335991
76	0xbcf5c547	-0.030001296
77	0x3c704869	0.014665701
78	0xbebb7da6	-0.366193
79	0xbddc1a22	-0.10747172
80	0x3cef6bc3	0.02922619
81	0x3cb78721	0.022403302
82	0xbd34888e	-0.04407554
83	0x3bc7faa5	0.006102877
84	0xbe253c05	-0.16136177
85	0xbe0e4eb7	-0.13897215
86	0xbdc4ea50	-0.09615004
87	0x3c4d600d	0.012535107
88	0xbe177c3e	-0.14793488
89	0xbce2ce82	-0.027686361
90	0x3d7d036f	0.061770853
91	0xbcdb7c3e	-0.026792642
92	0xbdd36a67	-0.10323029
93	0x3e7bf4fd	0.24605174
94	0x3dac3475	0.08408443
95	0xbe8633b9	-0.26211336
96	0xbd8fc8f3	-0.0702075
97	0xbdf628b2	-0.12019481
98	0xbdcace21	-0.09902597
99	0xbdd8a6b0	-0.10578668
100	0xbd9270db	-0.07150432
101	0xbccfc7d7	-0.025363846
102	0xbd0959f3	-0.033533048
103	0x3e422456	0.18959174
104	0xbcff94d9	-0.031198906
105	0xbccbe042	-0.024887208
106	0xbcf44af6	-0.0298209
107	0x3c4d90d1	0.012546734
108	0xba18d4f1	-0.00058300706
109	0xbe044bc6	-0.1291953
110	0xbd3f1c32	-0.04665775
111	0xbcfcdcfd	-0.030867094
112	0xbd6556fc	-0.055991158
113	0xbd96c457	-0.073616676
114	0xbbb9e60d	-0.005673176
115	0xbd43053e	-0.04761242
116	0x3c2447e6	0.010026908
117	0xbc1736da	-0.009229386
118	0x3d6b3744	0.057425752
119	0xbddc0370	-0.10742843
120	0x3d331d05	0.043728847
121	0xbe2a35ec	-0.16622132
122	0xbb1b739e	-0.0023720036
123	0xbdcc3e86	-0.09972863
124	0xbc74912c	-0.01492719
125	0x3d4ebcbe	0.050472967
126	0xbd9c681e	-0.07637046
127	0xbb88081f	-0.0041513587
128	0x3db70906	0.08937268
129	0xbf1dd580	-0.616539
130	0x3e0a9379	0.13532819
131	0x3e6230cd	0.22088929
132	0x3b93239b	0.0044903285
133	0x3dec020d	0.11523829
134	0xbdf09188	-0.11746508
135	0xbd53ca85	-0.05170681
136	0xbca367db	-0.019946983
137	0xbd73a0ff	-0.05947971
138	0x3bc10b82	0.0058912644
139	0xbd0f4260	-0.03497541
140	0x3e179e0a	0.14806381
141	0xbd0c7280	-0.034288883
142	0x3e8da878	0.27667594
143	0x3c9a2f82	0.018821482
144	0x3ea4c8d4	0.3218447
145	0xbea966ae	-0.3308615
146	0xbe9ab94a	-0.3021949
147	0xbd28bc97	-0.04119548
148	0x3dd01705	0.101606406
149	0x3d05893f	0.03260159
150	0x3cbf9d72	0.023390505
151	0xbd89db37	-0.06731265
152	0xbcd74ad6	-0.026280802
153	0x3cb4d29e	0.022073086
154	0x3e19c204	0.15015417
155	0x3d4f6c2b	0.050640266
156	0xbe1372b5	-0.14399226
157	0xbd9bbcf1	-0.07604397
158	0x3d476fee	0.04869073
159	0x3e40f0de	0.18841884
160	0x3eb863b7	0.36013576
161	0xbe8eff0a	-0.27928954
162	0x3d86ec87	0.06588083
163	0xbdd61067	-0.10452347
164	0x3d3e9f2e	0.046538524
165	0x3e49e363	0.19715647
166	0xbd19598b	-0.03743891
167	0xbd91cff0	-0.07119739
168	0x3cc4cc7d	0.024023289
169	0xbd1d5499	-0.038410757
170	0xbd84ebd6	-0.06490295
171	0x3ea0c7d2	0.3140245
172	0x3ddadd80	0.10686779
173	0x3ed0976b	0.40740523
174	0x3d646426	0.05575957
175	0x3db16f15	0.08663765
176	0x3e3cf89b	0.1845421
177	0xbd11edbb	-0.035627108
178	0x3d4b58dc	0.04964529
179	0xbcda4142	-0.026642445
180	0xbc15e965	-0.009149884
181	0x3e1885d4	0.14894801
182	0xbd7cc2c9	-0.0617092
183	0x3d181b3c	0.037135348
184	0x3e8b971e	0.2726373
185	0x3d388889	0.045052085
186	0x3c000efe	0.007816074
187	0x3df8f834	0.12156716
188	0xbe6a725a	-0.22895184
189	0xbeb4b14d	-0.3529152
190	0x3cf1cf6b	0.02951785
191	0x3bb239c4	0.005439015
192	0x3e41dcd4	0.18931895
193	0xbd41b061	-0.04728735
194	0x3dd3253b	0.103098355
195	0x3c89b466	0.016809653
196	0x3e889f00	0.26683807
197	0xbc47a9ac	-0.012186449
198	0xbe8b91dc	-0.2725972
199	0x3d32cf08	0.04365447
200	0xbc449e55	-0.01200064
201	0x3d29a3ba	0.041415907
202	0xbd86a3a9	-0.065741844
203	0xbe2d6e72	-0.16936663
204	0x3c29a8f5	0.010355224
205	0x3e5280b0	0.20556903
206	0xbda0c10a	-0.07849319
207	0x3e42b075	0.19012626
208	0x3e7d8d28	0.24760878
209	0x3e179566	0.14803085
210	0x3de3e9ec	0.111286014
211	0x3d823bda	0.06359072
212	0x3d1d64d9	0.038426254
213	0x3d2e10ae	0.042496376
214	0x3d874af5	0.06606094
215	0x3b7f99b1	0.003900152
216	0x3d3bc705	0.045844097
217	0x3ea60ca5	0.32431522
218	0x3e249170	0.16071105
219	0x3e021b76	0.12705788
220	0xbf28d1a8	-0.6594491
221	0x3e4313a1	0.19050457
222	0x3dc54f66	0.09634285
223	0xbee2325a	-0.4417904
224	0xbd12966a	-0.035787977
225	0x3d498224	0.049196377
226	0xbe8054bb	-0.25064644
227	0xbd5df5fc	-0.054189667
228	0x3ca120d8	0.019668981
229	0xbd104eb6	-0.035231315
230	0xbd16a8db	-0.036782127
231	0x3d948141	0.07251216
232	0x3d4a6d08	0.049420387
233	0x3cec7b67	0.028867437
234	0x3d67537a	0.056476094
235	0x3e53329c	0.20624775
236	0x3e3e3718	0.18575704
237	0xbda49469	-0.080361195
238	0xbd50d2de	-0.05098235
239	0xbb917c86	-0.004439893
240	0xbe2f4df4	-0.1711958
241	0x3e20be8f	0.15697692
242	0xbde41b33	-0.11138
243	0x3e6ed51a	0.2332348
244	0x3e46c541	0.19411184
245	0x3db35fc6	0.08758502
246	0x3e4c50c8	0.1995269
247	0x3d380e37	0.04493543
248	0x3dc188ca	0.094499186
249	0x3cd7858b	0.026308795
250	0x3d5b5dba	0.05355618
251	0xbd2c97d7	-0.042136993
252	0x3dae20bb	0.085023366
253	0xbe8cbd1c	-0.2748803
254	0x3c320607	0.010865695
255	0x3d3d1cf2	0.046170183

convs.0.nn.0.bias f4 [128]
0	0x3dd05c50	0.10173857
1	0x3e7070fd	0.23480602
2	0xbccab55a	-0.024744678
3	0xbd6e74cf	-0.058216866
4	0x3de8be90	0.11364472
5	0xbe38d8ce	-0.18051454
6	0xbdd32458	-0.103096664
7	0xbe0169d4	-0.12638026
8	0xbdeb974f	-0.11503469
9	0xbd9346d3	-0.07191243
10	0x3e9dbf2a	0.3080991
11	0x3caf762f	0.021418659
12	0xbe35c2ec	-0.17750138
13	0x3e764e90	0.24053407
14	0xbdff8efc	-0.12478444
15	0xbc335498	-0.010945462
16	0x3e3db4c4	0.18525988
17	0xbd96b67c	-0.07359025
18	0x3ea0189c	0.31268775
19	0x3e93b10d	0.28846017
20	0x3e55bce3	0.20872836
21	0x3c19b143	0.009380641
22	0xbe1295fa	-0.14315024
23	0x3e93ce2e	0.2886824
24	0xbbb9ee18	-0.005674135
25	0x3cf938fb	0.030422678
26	0xbe09b162	-0.13446572
27	0x3ccea135	0.025223354
28	0x3e9f1b9f	0.3107576
29	0x3e0e4dc2	0.1389685
30	0xbe038290	-0.12842774
31	0x3e715145	0.23566158
32	0xbb9ae092	-0.004726478
33	0x3ea22aab	0.31673178
34	0xbe2ba34a	-0.16761509
35	0xbe0a1d4a	-0.13487735
36	0xbe1184d0	-0.1421082
37	0xbe14144e	-0.1446087
38	0xbe1ff9dc	-0.15622658
39	0x3d08fbef	0.033443388
40	0xbdac7a54	-0.0842177
41	0xbcefc074	-0.029266573
42	0xbdf4d25d	-0.11954186
43	0xbd5b85eb	-0.05359451
44	0x3e34d820	0.1766057
45	0xbdba6bc3	-0.09102585
46	0xbe09e5a1	-0.13466503
47	0x3e93ca68	0.2886536
48	0xbe045ba5	-0.12925585
49	0x3d91c2f2	0.07117261
50	0x3da70698	0.081555545
51	0xbdcac1f3	-0.09900274
52	0xbe0f2953	-0.13980608
53	0x3ec3131e	0.38100523
54	0x3cfc95e5	0.030833194
55	0x3e2ec48b	0.17067163
56	0x3d6a2f3b	0.05717395
57	0x3eb47707	0.3524706
58	0x3ea95817	0.3307502
59	0x3d33d535	0.043904502
60	0xbd4ea368	-0.050448805
61	0xbda310eb	-0.07962211
62	0x3d11da7a	0.035608746
63	0xbca50d9d	-0.020148093
64	0xbd99c6fc	-0.075086564
65	0x3ea89900	0.3292923
66	0x3e83278d	0.25616112
67	0x3e9ab4af	0.30215976
68	0xbdda64de	-0.1066377
69	0x3ca13623	0.019679135
70	0xbd66807d	-0.05627488
71	0xbd4642af	-0.04840344
72	0x3f0432de	0.5164012
73	0x3d0be1a8	0.03415075
74	0xbdd7bb68	-0.10533792
75	0xbcd3197b	-0.025768986
76	0xbc691f61	-0.014228673
77	0x3da4e553	0.080515526
78	0xbddd2bc0	-0.1079936
79	0x3cbcd48b	0.023050567
80	0x3d51e9da	0.05124841
81	0x3cc56fa7	0.024101092
82	0x3def31f0	0.11679447
83	0x3cca92d2	0.024728213
84	0xbe30f4a1	-0.17280819
85	0x3e88f116	0.26746434
86	0x3d8e5fb3	0.06951847
87	0x3cccff43	0.025024062
88	0xbe440f43	-0.19146447
89	0x3ddf9623	0.10917308
90	0xbe24f47f	-0.16108893
91	0xbdf2fd6a	-0.11864741
92	0x3db466ac	0.088086456
93	0x3c94ddc4	0.018172152
94	0xbe046735	-0.12929995
95	0x3eaabe7f	0.33348462
96	0xbdaf0860	-0.08546519
97	0x3d75738c	0.059924647
98	0x3d48efe8	0.049056917
99	0xbcabb42c	-0.020959936
100	0x3e57da84	0.21079451
101	0xbdd37896	-0.10325734
102	0xbd2c7ad4	-0.042109326
103	0x3eb1f8a5	0.34760013
104	0xbd5cdf9d	-0.05392419
105	0x3e053125	0.13007028
106	0xbd5a026b	-0.053224962
107	0x3f0e0196	0.5547117
108	0xbe16cf56	-0.1472753
109	0x3cddf934	0.027096368
110	0x3e6b0fd7	0.22955261
111	0x3e86de8c	0.26341665
112	0x3d5b12f5	0.053484876
113	0xbdb251b3	-0.08706989
114	0xbdc5d0f5	-0.09658996
115	0xbd8537b7	-0.065047674
116	0xbdab177b	-0.08354088
117	0xbcef0503	-0.029177194
118	0x3db32ae2	0.087484136
119	0x3c9c1e83	0.019057518
120	0xbd9139cf	-0.07091104
121	0xbd95b412	-0.07309736
122	0xbce4798f	-0.027889995
123	0xbe159301	-0.14606859
124	0xbde0684a	-0.109573916
125	0x3e9eeace	0.31038517
126	0xbaf72b46	-0.0018857501
127	0xbd9a722e	-0.07541309

convs.0.nn.2.weight f4 [128]
0	0x3eb24c0a	0.34823638
1	0x3ea67ef0	0.3251872
2	0x3f488bd3	0.78338355
3	0x3ef1a112	0.471932
4	0x3f06b209	0.5261541
5	0x3f566629	0.83749634
6	0x3eaa56a9	0.3326924
7	0x3ea972a0	0.33095264
8	0x3f174c96	0.59101236
9	0x3f921ac1	1.1414415
10	0x3ef581b8	0.4795053
11	0x3ec16d70	0.37778807
12	0x3efedc0d	0.4977726
13	0x3ee643b0	0.44973516
14	0x3f54bcdb	0.8310067
15	0x3f07dea4	0.530741
16	0x3ecfa4d8	0.40555453
17	0x3f465e3c	0.7748754
18	0x3efeca03	0.49763498
19	0x3f0f6785	0.56017333
20	0x3ecf684c	0.4050926
21	0x3ef37f49	0.47558048
22	0x3f29fe37	0.66403526
23	0x3dfb689b	0.12275811
24	0x3f22e055	0.63623554
25	0x3eb557ed	0.35418645
26	0x3f820ed3	1.0160774
27	0x3f5f2652	0.8716785
28	0x3eec88d9	0.46198156
29	0x3ec1ac79	0.378269
30	0x3f142c07	0.5787968
31	0x3ef4b551	0.47794583
32	0x3eb01cee	0.34397072
33	0x3e92db2b	0.28682837
34	0x3f38aeb0	0.7214155
35	0x3f4c46a3	0.79795283
36	0x3f176a2c	0.5914638
37	0x3f846fe9	1.0346652
38	0x3f21bd54	0.63179517
39	0x3eaa9e09	0.33323696
40	0x3eae4e99	0.3404434
41	0x3f4ddc0c	0.8041389
42	0x3e912b0d	0.28353158
43	0x3f68f3a9	0.90996796
44	0x3eb05ee2	0.3444739
45	0x3f4b8f3f	0.7951545
46	0x3f673fa2	0.9033147
47	0x3e81a69a	0.2532242
48	0x3f2373a6	0.6384834
49	0x3eb85a83	0.36006555
50	0x3ea9e229	0.3318036
51	0x3f9fc862	1.2483027
52	0x3f5a9ba5	0.85393745
53	0x3ec77ce7	0.3896248
54	0x3ea33ba2	0.31881434
55	0x3eb064bc	0.34451854
56	0x3f12c741	0.5733529
57	0x3efe543a	0.49673635
58	0x3f027ea8	0.5097451
59	0x3e8f7e9a	0.28026277
60	0x3ec9e8c0	0.39435387
61	0x3f47bc11	0.7802134
62	0x3eed9124	0.46399796
63	0x3fc393bf	1.5279464
64	0x3f481abe	0.78165805
65	0x3f097120	0.5368824
66	0x3ef382a2	0.47560602
67	0x3ed08db7	0.4073312
68	0x3f8dc08a	1.1074383
69	0x3ecf086f	0.40436122
70	0x3f5ebd5c	0.8700769
71	0x3f2f9afe	0.68595874
72	0x3f10fc98	0.5663543
73	0x3eade929	0.3396695
74	0x3f51846c	0.81842685
75	0x3ec2b3fd	0.38027945
76	0x3ece4381	0.40285876
77	0x3f02be54	0.5107167
78	0x3f14236d	0.57866555
79	0x3f997a54	1.1990457
80	0x3ed4a46e	0.415317
81	0x3f58fbdb	0.847593
82	0x3ee0a4dd	0.4387578
83	0x3f6584cc	0.89655757
84	0x3f60f0a7	0.87867206
85	0x3edac068	0.4272492
86	0x3e6b2591	0.22963549
87	0x3f3ae377	0.73003334
88	0x3fc09582	1.5045626
89	0x3e981660	0.2970457
90	0x3f5fd87c	0.87439704
91	0x3f02fadc	0.5116403
92	0x3ea787de	0.32720846
93	0x3ef44b0f	0.47713515
94	0x3f4ceb21	0.8004628
95	0x3ee20c26	0.44149894
96	0x3e66dd9f	0.22545479
97	0x3f437581	0.7635117
98	0x3ec3ee9e	0.38267988
99	0x3f4ec86f	0.8077459
100	0x3eca1808	0.3947146
101	0x3f2bddee	0.6713551
102	0x3ec0a02c	0.376222
103	0x3f09ad95	0.5378049
104	0x3fc4c35b	1.5372118
105	0x3e9c2502	0.30496985
106	0x3f31249b	0.6919648
107	0x3e3f48ce	0.18680117
108	0x3ee5cbbf	0.44882008
109	0x3ebb757c	0.3661307
110	0x3ef0e34d	0.47048417
111	0x3e9e663f	0.30937383
112	0x3ece8458	0.40335345
113	0x3f2bd9ae	0.6712903
114	0x3f63ba3a	0.88956034
115	0x3f6be44c	0.9214523
116	0x3f5d346b	0.8640811
117	0x3ec75af6	0.38936585
118	0x3e7511df	0.23932599
119	0x3eb55a66	0.3542053
120	0x3f0fb6e2	0.5613843
121	0x3f586bfe	0.84539783
122	0x3f72247a	0.9458691
123	0x3f465983	0.77480334
124	0x3f526874	0.8219063
125	0x3e7b8e0a	0.24565902
126	0x3f799827	0.9749779
127	0x3f309b89	0.6898733

convs.0.nn.2.bias f4 [128]
0	0x3d1b0530	0.037846744
1	0x3de6b35a	0.11264677
2	0x3eeb1dc9	0.45921162
3	0x3e45521e	0.19269606
4	0xbea2e57f	-0.31815717
5	0x3ec52c99	0.38510588
6	0x3e38da91	0.18052126
7	0x3d5b89e7	0.05359831
8	0x3ecbce4d	0.39805833
9	0x3f19c58c	0.6006706
10	0x3e3f0c9f	0.18657158
11	0x3d913b65	0.07091407
12	0x3e305909	0.17221464
13	0xbd2eebef	-0.042705473
14	0x3bfce2d9	0.007717472
15	0x3ed355f5	0.41276518
16	0xbe67b04b	-0.22625844
17	0x3dc7a527	0.09748297
18	0xbe8e9f5a	-0.2785595
19	0xbd8bbd99	-0.06823272
20	0x3eaac053	0.33349857
21	0x3e6a7ce4	0.22899204
22	0x3ea53e83	0.32274255
23	0xbc842b58	-0.01613395
24	0x3f0a6212	0.54055893
25	0x3e7c2717	0.24624287
26	0x3ecd3904	0.40082562
27	0x3f1c0f20	0.6096058
28	0xbdd65428	-0.1046527
29	0x3ea8573a	0.3287905
30	0x3e796ea9	0.2435862
31	0x3e860ba9	0.2618077
32	0x3e947de4	0.29002297
33	0x3e91d3f5	0.28482023
34	0x3e26970f	0.16268562
35	0x3ded4266	0.1158493
36	0x3e00a228	0.12561858
37	0x3e30a6cc	0.17251128
38	0x3e748a7e	0.23880956
39	0x3f01bfa6	0.5068306
40	0x3d5af577	0.05345675
41	0x3dfec63b	0.12440153
42	0x3e458143	0.1928759
43	0x3d06a122	0.032868512
44	0xbd70f701	-0.05882931
45	0x3cb913bb	0.022592416
46	0x3cb275a0	0.021784604
47	0x3e83cfa3	0.25744352
48	0x3d60d925	0.054894585
49	0x3d2d85fb	0.0423641
50	0x3d803b8e	0.06261359
51	0x3efc086a	0.4922517
52	0x3ef99852	0.48749024
53	0x3d0408de	0.03223502
54	0x3e37b594	0.1794036
55	0xbc475209	-0.012165555
56	0x3e4b412a	0.19849077
57	0xbdf61d8c	-0.12017354
58	0xbdacba9e	-0.08434032
59	0x3e5f7b7a	0.21824446
60	0x3defed91	0.11715234
61	0x3e025775	0.12728675
62	0x3ea73885	0.32660308
63	0x3f66a44d	0.90094453
64	0x3ed1d59f	0.40983292
65	0x3e80c07d	0.25146857
66	0x3ef1374b	0.47112498
67	0x3e80eb6b	0.2517961
68	0x3eace4fa	0.33768445
69	0x3ea19f37	0.31566784
70	0x3eedd675	0.4645268
71	0x3e1ca8fc	0.15298837
72	0x3e92727b	0.28602967
73	0x3e83cfb2	0.25744396
74	0x3ed1986e	0.40936607
75	0x3e8ad64b	0.27116618
76	0x3d4e08fb	0.050301533
77	0x3f149325	0.58037025
78	0x3e50f8e9	0.20407452
79	0x3f264b24	0.64958405
80	0x3e42daae	0.19028732
81	0x3f049c75	0.51801234
82	0x3e06df89	0.1317121
83	0x3f3417bc	0.70348716
84	0x3ed071de	0.40711874
85	0x3dc52423	0.09626033
86	0x3e28fab6	0.16501889
87	0x3f082968	0.5318818
88	0x3f219fee	0.6313466
89	0x3e4bcb40	0.19901752
90	0x3dfc0ad1	0.123067506
91	0x3ea6ac3a	0.32553273
92	0x3ebaca77	0.36482593
93	0x3d58c25d	0.052919734
94	0x3d04a310	0.03238207
95	0xbdf5fa11	-0.12010587
96	0x3d9b5f40	0.07586527
97	0x3f0bd14e	0.5461625
98	0x3d555f17	0.052092638
99	0x3e47db7b	0.19517319
100	0x3e98f88c	0.29877126
101	0x3e8612c2	0.26186186
102	0x3e59344f	0.2121136
103	0x3d66e69f	0.05637228
104	0x3f8a6411	1.0811788
105	0x3eb56c0a	0.3543399
106	0x3c6017c0	0.013677537
107	0x3e20a7da	0.1568903
108	0x3dee1a55	0.11626116
109	0x3e4cad33	0.19987945
110	0xbeb470da	-0.3524235
111	0x3e96c2c5	0.29445472
112	0x3ddac33a	0.10681768
113	0x3db51382	0.088416114
114	0x3edbb6d2	0.42912918
115	0x3d0a6501	0.03378773
116	0x3c1f055d	0.009705869
117	0x3e0b3403	0.1359406
118	0x3e4ec69f	0.20192955
119	0x3e401f7a	0.18762007
120	0x3db9102f	0.0903629
121	0x3e60ef83	0.21966366
122	0x3eeccba2	0.4624911
123	0x3f074205	0.5283511
124	0x3d864ec9	0.06557996
125	0x3b618a04	0.003441454
126	0x3e40867b	0.188013
127	0x3e0120d0	0.12610173

convs.0.nn.2.running_mean f4 [128]
0	0x40634b38	3.551466
1	0x40fa6c3b	7.8257117
2	0x3f0000ba	0.5000111
3	0x416bf445	14.747136
4	0x40d7e57a	6.7467623
5	0xbf7c6f2b	-0.9860713
6	0xbf1d5c31	-0.614688
7	0xbf7e77d3	-0.9940159
8	0xbf5a0f22	-0.8517934
9	0xbee2bf55	-0.442866
10	0x414f98d3	12.974811
11	0xbe6cd7f9	-0.23129262
12	0xbf7e9522	-0.9944631
13	0x40fa4739	7.821194
14	0xbf7fff06	-0.9999851
15	0xbf4faa04	-0.811188
16	0x40d08ab8	6.5169334
17	0xbf7fe127	-0.9995293
18	0x40f5a73f	7.676666
19	0x40f77f70	7.7343063
20	0x40c64b22	6.1966715
21	0xbe5de222	-0.21668294
22	0xbf7ec193	-0.9951412
23	0x40f93707	7.787967
24	0xbcc1e604	-0.02366925
25	0xbf167486	-0.5877155
26	0xbf7a69ba	-0.97817576
27	0x3ece1ac5	0.402548
28	0x4111eef1	9.120835
29	0x3e05f7d9	0.13082828
30	0xbf7ef460	-0.99591637
31	0x413a2d33	11.636035
32	0x40b2742f	5.5766826
33	0x40d8ab4c	6.7709103
34	0xbf7f0106	-0.99610937
35	0xbf7febd9	-0.9996925
36	0xbf7f5d8c	-0.99752116
37	0xbf7fce64	-0.999243
38	0xbf7f705e	-0.99780834
39	0x40feda47	7.964145
40	0xbf7eaf42	-0.9948617
41	0xbf7fc29f	-0.99906343
42	0xbf7becfd	-0.9840849
43	0xbf7ffae6	-0.99992216
44	0x41175451	9.458085
45	0xbf7ff353	-0.9998066
46	0xbf7ffc82	-0.9999467
47	0x40d3033d	6.5941453
48	0xbf7fe226	-0.9995445
49	0xbf1bdcc5	-0.6088374
50	0xbe7346f0	-0.2375753
51	0xbf7a3781	-0.9774094
52	0xbf7db401	-0.9910279
53	0x412917f1	10.568345
54	0x418165f8	16.17479
55	0x411340d4	9.203327
56	0xbf4f9f38	-0.81102324
57	0x41544ba7	13.26847
58	0x41455edc	12.335659
59	0xbf2e2454	-0.6802418
60	0x411582cf	9.344436
61	0xbf7fdbb4	-0.99944615
62	0xbe6e6410	-0.23280358
63	0xbf28afa0	-0.6589298
64	0xbf6e44fd	-0.9307402
65	0x41128733	9.158008
66	0x409e0f5c	4.939375
67	0x4119adaf	9.604903
68	0xbf6db6c9	-0.92857033
69	0x3ea2c94f	0.3179421
70	0xbf3cb3ed	-0.73712045
71	0xbf7fcf4b	-0.9992568
72	0x415f415e	13.953459
73	0x3fc87fe6	1.5664032
74	0xbf7eca8f	-0.9952783
75	0xbe7c1232	-0.24616316
76	0xbf2e2d44	-0.6803782
77	0x3f4aa601	0.7915955
78	0xbf7fcb11	-0.9991923
79	0x3f60cd1f	0.8781299
80	0xbeff7573	-0.49894294
81	0x3d1d6ac9	0.038431916
82	0x407e121b	3.969855
83	0xbe4accd0	-0.19804692
84	0xbf60a8fb	-0.87757844
85	0x411f2fdb	9.949183
86	0xbf1a55e9	-0.6028734
87	0x3f14f2cb	0.5818297
88	0xbf7f0ddf	-0.9963054
89	0xbf5a71aa	-0.8532969
90	0xbf7fc649	-0.99911934
91	0xbf791a52	-0.97305787
92	0x3fae32bd	1.3609234
93	0xbf4abd7f	-0.791954
94	0xbf7ff205	-0.9997867
95	0x414c4b4b	12.768382
96	0xbf7edf8c	-0.99559855
97	0x3f5c41a6	0.8603767
98	0x415b113e	13.6917095
99	0x4130d9f8	11.053215
100	0x40cc4f6c	6.384695
101	0xbf7db441	-0.9910317
102	0xbf224c50	-0.63397694
103	0x415f2e8a	13.948862
104	0xbedb1dce	-0.42796177
105	0x40a0ef05	5.029177
106	0xbf44332e	-0.76640594
107	0x414142c6	12.078802
108	0xbf75a2ae	-0.95951355
109	0x414962e5	12.586644
110	0x412a17e0	10.630829
111	0x40e3a7f9	7.1142545
112	0xbf1e560d	-0.61850053
113	0xbf7fb290	-0.9988184
114	0xbf6db61f	-0.9285602
115	0xbf7ff0b9	-0.9997669
116	0xbf7ffb93	-0.99993247
117	0xbf3f3591	-0.7469111
118	0xbf3a7916	-0.7284101
119	0xbf017232	-0.50564873
120	0xbf7feaf4	-0.99967885
121	0xbf6f493c	-0.9347112
122	0xbe875d0e	-0.26438183
123	0xbf68d0b8	-0.9094348
124	0xbf7fe52a	-0.9995905
125	0x410cf515	8.8098345
126	0x4192d5b9	18.354357
127	0xbf7fd318	-0.9993148

convs.0.nn.2.running_var f4 [128]
0	0x4004a748	2.07271
1	0x3fa80c28	1.312871
2	0x40c4868f	6.1414256
3	0x3fa685d4	1.3009591
4	0x3fa7e435	1.3116518
5	0x3a573f5a	0.0008211039
6	0x3f6026f4	0.8755944
7	0x3abe1fb0	0.0014505293
8	0x3e083969	0.1330315
9	0x3fde4442	1.7364581
10	0x3f6ebc29	0.9325586
11	0x3eeeaf42	0.46618086
12	0x3ad57eac	0.0016288362
13	0x3f4b2bc8	0.7936368
14	0x31a7d0bc	4.88407e-09
15	0x3d74e379	0.059787247
16	0x3f7179da	0.94326556
17	0x353323f9	6.6735043e-07
18	0x3fcf8d32	1.6214964
19	0x400e83d2	2.2267957
20	0x4013767e	2.3041072
21	0x3fcbd8cf	1.592554
22	0x39368476	0.00017406218
23	0x3faf7800	1.3708496
24	0x3fdfcdb9	1.7484657
25	0x3e2c26e8	0.16811717
26	0x3b9a011e	0.00469984
27	0x4010c90a	2.2622705
28	0x3fb3c97e	1.4045866
29	0x3f45036c	0.76958346
30	0x38492eec	4.7965834e-05
31	0x3fb10bb5	1.3831698
32	0x40ca9055	6.3301187
33	0x3ffceeba	1.9760354
34	0x39ba28b7	0.0003550702
35	0x343f136b	1.7795325e-07
36	0x3878f4f8	5.9355953e-05
37	0x37e7e71a	2.7644961e-05
38	0x37bbc3ec	2.238337e-05
39	0x40ec06c2	7.375825
40	0x3b2078b2	0.0024486003
41	0x35b6e353	1.3626217e-06
42	0x3c2d3cd7	0.010573587
43	0x32a494a1	1.9159701e-08
44	0x3f48ae89	0.7839132
45	0x33381233	4.285739e-08
46	0x31f53fae	7.137678e-09
47	0x3f1c675f	0.6109523
48	0x3ddb582a	0.10710175
49	0x3ea9e896	0.3318526
50	0x3f3b0fe5	0.7307113
51	0x3b961ba0	0.00458093
52	0x3a002774	0.00048886915
53	0x3ff00425	1.8751265
54	0x3fd5f4e8	1.6715364
55	0x3fbfc6f0	1.4982586
56	0x3e47ce33	0.19512253
57	0x3f15c561	0.585043
58	0x3f2d6ee7	0.6774735
59	0x3de6c8ff	0.11268806
60	0x401f92ad	2.4933274
61	0x34bc36f4	3.5057712e-07
62	0x3f94caf8	1.1624441
63	0x3efc5dbb	0.4929026
64	0x3c9cd700	0.019145489
65	0x3f2b86e0	0.6700268
66	0x401f66a0	2.4906387
67	0x3f97bc93	1.1854423
68	0x3e0fa2cc	0.14026946
69	0x4031203a	2.767592
70	0x3ea96fc7	0.33093092
71	0x356eb141	8.891985e-07
72	0x3f509e51	0.8149157
73	0x408e1604	4.4401875
74	0x38b4d41a	8.622576e-05
75	0x3f149153	0.5803425
76	0x3f1bc856	0.60852563
77	0x3fe22c75	1.7669817
78	0x35bb205d	1.3942005e-06
79	0x41446b25	12.276158
80	0x3e95ecbe	0.29282182
81	0x402ff067	2.749048
82	0x409ffce3	4.99962
83	0x3f9895ae	1.1920679
84	0x3dc25bad	0.09490142
85	0x4017576c	2.3647108
86	0x3e080ef6	0.13286957
87	0x409e4960	4.946457
88	0x38e25c85	0.00010793753
89	0x3cc01384	0.023446806
90	0x3828eca0	4.0274695e-05
91	0x3b3cf570	0.0028832816
92	0x40009904	2.0093393
93	0x3de57f15	0.112058796
94	0x340bacdc	1.300827e-07
95	0x3f9ac604	1.209168
96	0x3a441067	0.0007479251
97	0x40fde65a	7.934369
98	0x3fb54f5d	1.4164845
99	0x3fad17ba	1.3522866
100	0x3f976b1d	1.1829563
101	0x3b009a9e	0.001962341
102	0x3e3efa59	0.18650188
103	0x3f16ae34	0.5885956
104	0x3f67df18	0.9057479
105	0x4004c43d	2.0744774
106	0x3e95b959	0.29242972
107	0x3fd40d60	1.6566582
108	0x3d058ca4	0.03260483
109	0x3fd29b1e	1.6453588
110	0x401285d8	2.2894192
111	0x3f40f986	0.7538074
112	0x3f01ed5b	0.507528
113	0x3bc559a2	0.006022648
114	0x3d08d010	0.03340155
115	0x3563e54a	8.489775e-07
116	0x326b6709	1.3702228e-08
117	0x3e90fd2a	0.2831815
118	0x3e5cb6e0	0.21554136
119	0x3fa1119a	1.2583497
120	0x34c1d7a1	3.6105942e-07
121	0x3d374fa9	0.044753704
122	0x402d36f4	2.706479
123	0x3d0205b6	0.031743728
124	0x3483c6d0	2.4545307e-07
125	0x3fd4bef5	1.6620775
126	0x4008b6a1	2.1361468
127	0x3e15e263	0.14637141

convs.1.nn.0.weight f4 [128, 256]
0	0xbec1ce8d	-0.37852898
1	0xbcd4bb87	-0.025968326
2	0x3d242389	0.04007295
3	0x3e177281	0.14789774
4	0xbd97664d	-0.07392559
5	0xbc144259	-0.009049022
6	0x3d914c37	0.07094615
7	0x3e407eaf	0.18798326
8	0x3c34aaf8	0.01102709
9	0xbe1781cf	-0.14795612
10	0x3ddd562f	0.10807454
11	0x3d103264	0.035204306
12	0x3be230ec	0.0069028046
13	0xbe89b9f3	-0.2689968
14	0x3c5a2914	0.013315458
15	0x3d0bfc09	0.034175906
16	0x3dcf600f	0.101257436
17	0xbdfb649c	-0.12275049
18	0xbd913413	-0.070900105
19	0xbdf7297b	-0.12068459
20	0xbc408f95	-0.011752983
21	0x3d16a484	0.036777988
22	0x3d10a321	0.03531182
23	0xbc7b5cee	-0.01534198
24	0x3c2e9ae5	0.010657047
25	0xbde4dcd6	-0.111749336
26	0x3d1ca983	0.038247596
27	0xbe495818	-0.19662511
28	0xbe0d06dc	-0.13772148
29	0xba8a2398	-0.0010539172
30	0xbc6e7b20	-0.0145557225
31	0xbd70d33d	-0.058795203
32	0x3d0630fd	0.032761563
33	0xba324530	-0.0006800471
34	0x3d90b628	0.070659935
35	0x3cf7dc62	0.030256454
36	0xbca38c3d	-0.019964332
37	0xbca69f5f	-0.020339666
38	0x3d64857e	0.05579137
39	0x3c6ec1c3	0.014572564
40	0xbd18759a	-0.03722153
41	0x3e41c955	0.18924458
42	0x3d802946	0.06257872
43	0xbd3c92e0	-0.04603851
44	0x3d60c416	0.054874502
45	0xbced36a2	-0.028956715
46	0xbcc12ea2	-0.023581807
47	0x3d97b88e	0.07408248
48	0xbd7c60bf	-0.0616157
49	0xbe1977cb	-0.14987104
50	0xbe2f8028	-0.17138731
51	0x3d87736e	0.06613813
52	0x3d6abecb	0.05731086
53	0x3e209ebc	0.15685552
54	0x3d109790	0.03530079
55	0xbd80d00b	-0.06289681
56	0x3dc75162	0.097323194
57	0xbd92cd6b	-0.071680866
58	0xbe0353c2	-0.1282492
59	0xbe3a7b34	-0.18211061
60	0xbd6561c6	-0.056001447
61	0xbc5149e5	-0.0127739655
62	0x3cf91233	0.030404186
63	0x3c6ef028	0.014583625
64	0x3d410bd6	0.04713043
65	0xbd78b5c0	-0.060720205
66	0x3d17a18e	0.037019305
67	0xbda99d9d	-0.082820155
68	0x3deeb130	0.116548896
69	0xbd845ce0	-0.06463027
70	0x3d751f58	0.059844345
71	0xbc09a8ba	-0.008402044
72	0xbdebe5b6	-0.11518423
73	0x3c785731	0.015157507
74	0x3d9197d0	0.07109034
75	0x3d3e02c8	0.04638937
76	0x3db3bc57	0.08776157
77	0x3b905f27	0.0044058743
78	0xbcf85f0a	-0.030318756
79	0xbc2d87ec	-0.010591488
80	0xbda42190	-0.08014214
81	0xbd7f1848	-0.062279016
82	0xbdd20864	-0.10255507
83	0x3ba51dc9	0.005038951
84	0x3d294233	0.041322898
85	0x3d46e887	0.0485616
86	0xbd8c6baa	-0.06856473
87	0x3db5edc2	0.08883239
88	0x3cce36cb	0.025172612
89	0x3b211a39	0.002458228
90	0x3d1667f4	0.03672023
91	0x3cc7d46d	0.024393285
92	0x3cb46628	0.022021368
93	0xbdb2fcd5	-0.0873963
94	0x3d53d4fe	0.051716797
95	0xbcd658c6	-0.026165377
96	0x3d8db349	0.069189616
97	0xbe295d7d	-0.16539569
98	0x3ab562b4	0.001383862
99	0x3e19f521	0.15034916
100	0x3da50b3e	0.08058785
101	0x3d5276fb	0.051383
102	0xbe20340f	-0.15644859
103	0xbe3d6618	-0.18495977
104	0x3e9f265e	0.3108396
105	0x3d78c145	0.06073119
106	0xbdc25384	-0.094885856
107	0xbca80b7e	-0.020513292
108	0xbd8b82ab	-0.06812032
109	0x3d07e260	0.033174872
110	0xbe4575f9	-0.19283284
111	0x3e339e22	0.17540792
112	0x3d15925b	0.03651653
113	0xbd68df9e	-0.056853883
114	0xbd6a18eb	-0.05715267
115	0x3d2f9fe5	0.042877097
116	0x3d92ba5d	0.07164452
117	0x3bee6253	0.0072749048
118	0x3e0065ea	0.12538877
119	0x3cd5722a	0.026055414
120	0x3d01da46	0.031702302
121	0x3d9c4cf8	0.07631868
122	0xbc032712	-0.008004921
123	0xbd24957d	-0.040181626
124	0xbde49056	-0.111603424
125	0x3d6c7905	0.0577326
126	0xbd527f8e	-0.051391177
127	0x3b00add4	0.001963486
128	0xbcf84b05	-0.03030921
129	0xbddf0995	-0.108904995
130	0xbe6497ee	-0.22323582
131	0x3ded88fd	0.11598394
132	0xbe0df01c	-0.13861126
133	0xbb9ccd31	-0.004785203
134	0xbd89867e	-0.067151055
135	0xbe4fcaba	-0.20292178
136	0xbd2dda62	-0.042444594
137	0xbee3fbcd	-0.44528046
138	0x3dadf940	0.08494806
139	0x3d1e7f62	0.0386957
140	0xbe3019f0	-0.17197394
141	0xbe2e3fd4	-0.17016536
142	0xbcc0bbc3	-0.023527032
143	0xbd757e0f	-0.059934672
144	0x3e0bde2d	0.13658972
145	0x3e281430	0.16413951
146	0xbe57318a	-0.21014991
147	0xbdfcfa04	-0.12352374
148	0xbd3fb7e0	-0.046806216
149	0xbe0aa51f	-0.13539551
150	0xbd779615	-0.060445864
151	0x3e866128	0.26246
152	0xbd3e6517	-0.046483126
153	0xbe20b169	-0.15692677
154	0x3a74a59c	0.0009332539
155	0xbe3c2540	-0.18373585
156	0xbe0d14ba	-0.13777438
157	0x3cac8733	0.021060562
158	0xbdd6b4c0	-0.10483694
159	0xbdc2a708	-0.09504515
160	0x3d89c58a	0.06727131
161	0xbdc396c8	-0.095502436
162	0xbd48e472	-0.049045987
163	0xbdee9099	-0.116486736
164	0xbd987617	-0.07444399
165	0x3d8b175e	0.06791566
166	0xbe0ccab9	-0.13749208
167	0xbe269a86	-0.16269884
168	0x3c7b55b2	0.015340256
169	0xbe7775ec	-0.24166077
170	0xbd89b3b5	-0.067237295
171	0xbe18aa5d	-0.14908738
172	0x3d184e24	0.037183896
173	0xbe158981	-0.14603235
174	0xbded66e2	-0.11591889
175	0xbd8de828	-0.06929046
176	0xbc0cfc67	-0.008605099
177	0xbd913682	-0.07090475
178	0xbdc909a1	-0.0981629
179	0x3ce5f584	0.028071173
180	0xbe324a8b	-0.17411248
181	0xbcb8911a	-0.022530127
182	0xbd149e45	-0.03628375
183	0xbe0615a0	-0.13094187
184	0x3c555bec	0.013022404
185	0xbce34c26	-0.027746271
186	0xbd9d6471	-0.07685173
187	0xbe08c0f4	-0.13354856
188	0xbe3db1ba	-0.18524829
189	0x3e19677a	0.1498088
190	0xbd9e6625	-0.07734326
191	0x3db1c163	0.08679464
192	0xbd28fb6b	-0.041255396
193	0xbb7b6a44	-0.00383629
194	0x3c34d555	0.01103719
195	0x3d3b42d2	0.04571802
196	0x3e0ed7b5	0.13949473
197	0xbe478760	-0.19485235
198	0x3d02568a	0.03182081
199	0xbdf717c5	-0.120650806
200	0xbd4b0ebd	-0.049574602
201	0xbdac8c2d	-0.08425174
202	0x3d4a19fe	0.049341194
203	0xbc8fe809	-0.017566698
204	0x3de66ff5	0.11251823
205	0x3d3ee963	0.046609294
206	0xbc796c27	-0.015223539
207	0x3d7fff35	0.062499244
208	0x3b152b20	0.00227613
209	0xbe38bdcc	-0.18041152
210	0xbe3b7604	-0.18306738
211	0x3ccfb2ef	0.025353877
212	0x3d73582e	0.059410267
213	0xbd04e9fd	-0.03244971
214	0xbe2d2559	-0.16908778
215	0xbeb00399	-0.34377745
216	0x3dc028bd	0.0938277
217	0x3e38193d	0.17978378
218	0xbd1ad7b9	-0.037803385
219	0x3d21b0ed	0.03947537
220	0xbd813e07	-0.06310659
221	0xbd7f7bf6	-0.062374078
222	0xbe15b744	-0.14620692
223	0xbe1736d1	-0.14767005
224	0xbda2c38a	-0.07947452
225	0xbed513ad	-0.41616574
226	0xbc95d8ed	-0.018291915
227	0x3d3dd664	0.046347037
228	0x3d20c180	0.039247036
229	0xbddac991	-0.10682977
230	0xbe0ec25c	-0.1394133
231	0xbc9c6a97	-0.019093795
232	0xbfa84508	-1.3146067
233	0xbe29f5a6	-0.16597614
234	0xbd7be623	-0.061498772
235	0x3d5f7dd1	0.054563347
236	0xbe8c894e	-0.27448505
237	0x3e7c25e7	0.24623834
238	0xbe04169c	-0.1289925
239	0x3e6df9c4	0.2323981
240	0x3e0a6b94	0.135176
241	0x3dbe5102	0.09292795
242	0xbe87b537	-0.26505443
243	0x3cb09ded	0.02155968
244	0xbe817941	-0.25287822
245	0xbda34197	-0.07971495
246	0xbd0c7699	-0.03429279
247	0xbeb28920	-0.34870243
248	0xbd34062c	-0.0439512
249	0x3c12950b	0.008946667
250	0xbde8ca13	-0.113666676
251	0xbf241a67	-0.64102787
252	0x3cfcc816	0.030857127
253	0x3e4e34c8	0.20137322
254	0x3d3f662d	0.0467283
255	0x3b27f23f	0.0025626568
