TracksterFormation/Mixed/NT/runs/hd128nl3cd128k24/best_model.pt (torch, 488162 bytes, 28 tensors)

lc_encode.0.weight f4 [32, 8]
0	0xbc50c2ef	-0.012741788
1	0x3d4c026b	0.049806993
2	0x3ca216b0	0.019786209
3	0xbec4bb0b	-0.38423952
4	0x3e51bf47	0.20483123
5	0x3da927f4	0.082595736
6	0xbf0fac90	-0.56122684
7	0x3d540073	0.05175824
8	0xbd947a7b	-0.07249924
9	0x3d7bf449	0.061512265
10	0x3cb76b2e	0.022389974
11	0x3e90b1c3	0.2826062
12	0x3ec5d20b	0.38636813
13	0x3e1fa8c8	0.15591729
14	0x3dab1083	0.08352759
15	0xbdbc9c55	-0.092095055
16	0xbdb3cf75	-0.08779804
17	0xbe731229	-0.23737396
18	0xbd9cc4ba	-0.0765471
19	0x3cc57b18	0.024106547
20	0x3d956d96	0.072962925
21	0xbba20914	-0.00494493
22	0xbdbf3d94	-0.09337917
23	0x3ebf9cb1	0.37424234
24	0xbd9cc323	-0.07654407
25	0xbd6ef256	-0.05833658
26	0xbe9385c6	-0.28813
27	0xbd1d8c45	-0.03846385
28	0x3e189d19	0.14903678
29	0x3e98d391	0.29848912
30	0x3e07c9fe	0.13260648
31	0x3eb115f2	0.34587055
32	0xbe50f2ac	-0.20405072
33	0x3e7353b4	0.23762399
34	0x3e237660	0.15963125
35	0xbeaaef2e	-0.33385605
36	0xbe7926fd	-0.24331279
37	0xbe72aa3e	-0.23697755
38	0xbe4c5a4f	-0.19956325
39	0x3e027475	0.12739737
40	0xbe85e9cf	-0.26154944
41	0x3eca83ba	0.39553624
42	0x3d0002f9	0.031252835
43	0xbb82d0dc	-0.003992183
44	0xba5794a1	-0.00082237466
45	0xb93b62cb	-0.00017870513
46	0xbe46a8a2	-0.19400266
47	0xbc9c7fa6	-0.019103836
48	0xbdc2f6f2	-0.09519757
49	0x3be47270	0.00697165
50	0x3e0f6ef6	0.14007172
51	0x3ee8f45e	0.45498937
52	0x3d9baf25	0.076017655
53	0x3e558e99	0.20855178
54	0xbe82372a	-0.25432712
55	0x3deef66b	0.11668094
56	0xbe44a111	-0.19202067
57	0x3ecddd00	0.40207672
58	0xbd76e05a	-0.060272552
59	0x3a172479	0.0005765628
60	0x3c93c7a3	0.01803953
61	0xba87d6b0	-0.0010363664
62	0x3bd20300	0.006409049
63	0x3d915cad	0.070977546
64	0xbe47cc57	-0.19511543
65	0xbe90abdd	-0.2825612
66	0xbcd6fcb1	-0.02624354
67	0xb98848fe	-0.00025994325
68	0x3c88fbe8	0.01672168
69	0xbaf87f11	-0.0018958767
70	0x3e849908	0.25898004
71	0x3da89965	0.08232383
72	0xbe5e2108	-0.21692288
73	0x3ebc6b88	0.3680079
74	0xbe54b541	-0.20772268
75	0xbe51b477	-0.20478998
76	0x3ec6e0f3	0.38843498
77	0x3acb35d5	0.0015503714
78	0x3e1e78c8	0.15475762
79	0xbe526d90	-0.20549607
80	0xbe0bd885	-0.13656814
81	0xbe376883	-0.17910962
82	0xbe21803c	-0.15771574
83	0xbeb5d5cf	-0.35514686
84	0xbdafd639	-0.085857816
85	0xbd8be649	-0.06831033
86	0xbe2bbbd2	-0.16770867
87	0x3e398d01	0.18120195
88	0xbe1074dd	-0.1410708
89	0xbd4e6d96	-0.050397478
90	0xbeaaa2ac	-0.33327234
91	0xbe543781	-0.20724298
92	0xbe49d045	-0.19708355
93	0xbea52496	-0.32254475
94	0x3e5dd656	0.21663794
95	0x3ee6ce5c	0.45079315
96	0xbd9bac5d	-0.07601235
97	0xbc990d29	-0.018683033
98	0xbd669f4c	-0.05630426
99	0xbe5ece6e	-0.21758434
100	0xbec5f55e	-0.38663763
101	0xbbf9c385	-0.0076221847
102	0x3e2ab29a	0.16669694
103	0x3cee05cb	0.029055497
104	0x3ba875e2	0.005141006
105	0xbc8cb67d	-0.017176861
106	0x3ac0d98d	0.0014713273
107	0xbefc6d9a	-0.4930237
108	0x3d17fd5c	0.037106857
109	0x3efe5708	0.49675775
110	0x3e854fc5	0.26037422
111	0x3d6e5f8c	0.05819659
112	0xbe829f8f	-0.2551236
113	0x3c7a74d8	0.015286647
114	0x3e08f665	0.13375242
115	0x3c7ef1c3	0.01556057
116	0x3e149be3	0.14512591
117	0xbea5aef2	-0.32360035
118	0x3e64538e	0.22297499
119	0xbc0c9c02	-0.008582117
120	0x3e021849	0.12704577
121	0xbdf99ceb	-0.12188133
122	0xbdb4fcb5	-0.088372625
123	0xbec28479	-0.37991694
124	0xbd8b0379	-0.06787772
125	0xbd8586d3	-0.06519856
126	0xbc39fa5e	-0.011351196
127	0x3df654bb	0.1202788
128	0xbd5ce0e2	-0.053925402
129	0x3e1b588b	0.15170495
130	0x3d89c07c	0.067261666
131	0x3ed9e34d	0.4255623
132	0xbe349157	-0.17633568
133	0x3e340af2	0.175823
134	0xbebe1a91	-0.37129644
135	0xbed30be1	-0.4122
136	0xbe2688dd	-0.16263147
137	0xbde5af2d	-0.11215053
138	0xbe466dc6	-0.19377813
139	0x3e4131b0	0.1886661
140	0xbe0dea1a	-0.13858834
141	0x3d3b4308	0.045718223
142	0x3e7f2d21	0.24919559
143	0x3e2ce905	0.16885765
144	0xbe5c776a	-0.21529928
145	0xbde59fe3	-0.112121366
146	0xbd5984e3	-0.053105246
147	0x3ca6a734	0.0203434
148	0x3bcc43c6	0.006233665
149	0xbb6087ad	-0.0034260557
150	0xbd5e6081	-0.054291252
151	0x3cd3ab78	0.025838599
152	0x3d7bbded	0.061460424
153	0x3e86c170	0.26319456
154	0x3afd4802	0.0019323828
155	0x3bbe8864	0.005814599
156	0x3c0d41f8	0.008621685
157	0xbae95f79	-0.0017804942
158	0x3ddfe6c4	0.10932687
159	0xbdf8b50b	-0.12143906
160	0xbb85b696	-0.004080604
161	0x3cb197f0	0.021678895
162	0xbde7ab8e	-0.11312018
163	0xbf02cb76	-0.51091707
164	0xbf001c7f	-0.5004348
165	0xbe7226b9	-0.23647584
166	0xbc0d2233	-0.008614111
167	0xbe51861e	-0.20461318
168	0xbd565c6a	-0.052334227
169	0x3e78aaa6	0.24283847
170	0xbdf986a4	-0.12183884
171	0x3d7cefeb	0.06175224
172	0xbe9a0925	-0.30085102
173	0x3d0e750c	0.034779593
174	0x3d030fa4	0.031997338
175	0xbdaa864b	-0.083263956
176	0x3e348117	0.17627369
177	0xbd5a7763	-0.053336512
178	0x3dcde84d	0.100540735
179	0xbef7305b	-0.4827908
180	0x3dff362b	0.124615036
181	0xbe1f9efd	-0.15587993
182	0xbe96f263	-0.294818
183	0xbdd53c8b	-0.10411938
184	0x3d4652d5	0.04841884
185	0x3dc651c2	0.09683563
186	0x3d593ab4	0.0530345
187	0x3e46abfb	0.19401543
188	0xbe83a88d	-0.25714532
189	0xbdb0a77b	-0.08625694
190	0x3e456994	0.19278556
191	0xbd78dfe4	-0.060760394
192	0xbdd66199	-0.10467834
193	0xbdaa9a57	-0.08330219
194	0x3dd80c84	0.10549262
195	0x3e6995de	0.22811076
196	0xbe857061	-0.260623
197	0x3c119d29	0.008887568
198	0xbeaa5a7d	-0.33272162
199	0x3e609b51	0.21934249
200	0xbd53222c	-0.05154626
201	0xbd778bec	-0.060436174
202	0x3dc61c14	0.09673324
203	0x3e568bb4	0.2095173
204	0xbcef7559	-0.02923076
205	0xbddb2c8b	-0.10701855
206	0xbf35870a	-0.7090918
207	0x3d66e1b6	0.0563676
208	0xbd84f69c	-0.064923495
209	0xbd079992	-0.03310544
210	0xbe52ea7d	-0.20597263
211	0xbe3ae08d	-0.18249722
212	0xbceef7da	-0.02917092
213	0xbe8dc8d2	-0.27692276
214	0x3dfc178a	0.12309177
215	0x3e53eb4e	0.2069523
216	0x3e1b1a81	0.15146829
217	0xbe0de574	-0.1385706
218	0xbe08d4a8	-0.13362372
219	0xbe8501ae	-0.25977844
220	0xbdd4148c	-0.103554815
221	0xbead0d93	-0.3379942
222	0xbd0cd132	-0.03437919
223	0xbc82f712	-0.015986953
224	0x3cc78f8d	0.024360443
225	0xbe8c0b75	-0.2735249
226	0xbe114ff7	-0.1419066
227	0xbe8e7062	-0.27820116
228	0xbe700df3	-0.23442821
229	0x3e3b6cb7	0.1830319
230	0xbc4c5ef2	-0.012473809
231	0xbe888017	-0.26660225
232	0x3e2c67cb	0.16836469
233	0x3e24808d	0.16064663
234	0x3daa0b27	0.083029084
235	0x3e94afd5	0.290404
236	0x3de93221	0.113865145
237	0x3cc2d98e	0.023785379
238	0x3d000be5	0.031261344
239	0x3e532e82	0.2062321
240	0x3e533a14	0.20627624
241	0xbdf81646	-0.12113623
242	0x3da9c898	0.08290213
243	0x3e9fb872	0.31195408
244	0x3db9292a	0.090410545
245	0xbba1f73e	-0.0049428036
246	0xbf123552	-0.5711261
247	0xbd1d6498	-0.03842601
248	0x3e3b2818	0.18277013
249	0x3eb4ea8b	0.35335192
250	0xbe2e5749	-0.17025484
251	0x3d600308	0.05469039
252	0xbd539ef1	-0.05166525
253	0xbe079798	-0.13241422
254	0xbe9dd072	-0.30823094
255	0xbd497844	-0.04918696

lc_encode.0.bias f4 [32]
0	0xbddeb302	-0.10873987
1	0x3d349441	0.0440867
2	0x3e11907d	0.14215274
3	0xbe10ce6b	-0.14141242
4	0x3c9d45b3	0.019198274
5	0xbe835685	-0.25651947
6	0xbe3d37d8	-0.18478334
7	0x3d85b2bb	0.06528231
8	0x3eb13f5a	0.34618646
9	0x3d698809	0.0570145
10	0xbedd68f5	-0.43244138
11	0xbe5142e3	-0.20435672
12	0xbf037925	-0.51356727
13	0x3de58e48	0.112087786
14	0x3e3c95f7	0.18416582
15	0xbe816707	-0.25273916
16	0xbd275e4b	-0.04086141
17	0xbdf0f66b	-0.117657505
18	0xbe7f8ff7	-0.24957262
19	0xbe5eb898	-0.21750104
20	0xbedd4ae1	-0.4322119
21	0xbef5db0f	-0.4801869
22	0xbecb4ce9	-0.39707115
23	0x3e0bb2e5	0.13642462
24	0xbb742604	-0.0037254104
25	0xbf0e2aa7	-0.5553383
26	0xbe6e63ba	-0.2328023
27	0x3e84f119	0.25965193
28	0xbe58cd9f	-0.21172188
29	0x3e46da5c	0.19419235
30	0xbe061395	-0.13093407
31	0xbe75d14b	-0.2400562

lc_encode.2.weight f4 [128, 32]
0	0xbdd6834c	-0.10474262
1	0x3defa4c6	0.1170135
2	0xbe5b7473	-0.2143114
3	0x3d92867f	0.07154559
4	0xbe56f033	-0.20990066
5	0x3d9f09d6	0.07765548
6	0xbdda43f9	-0.10657496
7	0xbe16443d	-0.14674468
8	0xbd75fcc2	-0.0600555
9	0x3dafbcb2	0.08580913
10	0x3d983b9a	0.07433243
11	0xbe352fa4	-0.17693955
12	0xbe496633	-0.19667892
13	0xbdb6813c	-0.08911368
14	0xbe438a05	-0.19095619
15	0x3db8c412	0.090217724
16	0xbbef2e9a	-0.0072992565
17	0x3d75551b	0.059895616
18	0xbccdf863	-0.025142854
19	0xbcacb2f3	-0.021081423
20	0xbe3516fd	-0.1768455
21	0x3dd4c252	0.10388626
22	0x3d2e7004	0.042587295
23	0x3d12e944	0.03586699
24	0x3d892b06	0.06697659
25	0x3d82aaca	0.06380232
26	0xbd73e932	-0.059548564
27	0xbd9bc691	-0.07606233
28	0xbde9439d	-0.11389849
29	0xbd842673	-0.06452646
30	0xbdd6614a	-0.10467775
31	0x3cb5dacc	0.022199057
32	0xbe2602f7	-0.16212068
33	0x3d82aa14	0.06380096
34	0xbe338c92	-0.17534092
35	0xbddfb3d1	-0.10922969
36	0x3d9c31c7	0.07626682
37	0xbe6bb7d6	-0.23019347
38	0x3d5f2b49	0.05448464
39	0xbcf64f86	-0.030067217
40	0xbe35b058	-0.17743051
41	0xbe6d3765	-0.23165663
42	0xbd436cfd	-0.04771136
43	0xbcc79204	-0.024361618
44	0xbc9de553	-0.01927439
45	0xbc39532a	-0.011311332
46	0x3c283cae	0.010268373
47	0xbe6d3eea	-0.23168531
48	0x3dfc81d2	0.12329449
49	0xbe98156b	-0.2970384
50	0xbe3e985a	-0.18612805
51	0x3d5816cf	0.052756127
52	0xbde076b3	-0.1096014
53	0xbcbfbab8	-0.023404464
54	0x3d8e2b63	0.06941869
55	0xbcb2979f	-0.021800814
56	0xbe11290e	-0.14175817
57	0xbd5ad6c3	-0.05342747
58	0xbe3f9492	-0.18709019
59	0x3c5f210b	0.013618718
60	0xbd475446	-0.048664354
61	0x3d66cd38	0.056348056
62	0xbe28b6a4	-0.16475922
63	0xbe8a9df6	-0.2707364
64	0xbd7fdd84	-0.062467113
65	0xbd2dff0b	-0.042479556
66	0x3d448de0	0.047986865
67	0xbd7ceb4c	-0.061747834
68	0x3dd46bf9	0.10372157
69	0xbd4b86f1	-0.049689237
70	0x3dffe03e	0.12493943
71	0x3e58463e	0.21120545
72	0x3dd592f9	0.104284234
73	0xbd0176c5	-0.031607408
74	0xbd8d42ac	-0.06897482
75	0xbe16a88b	-0.14712732
76	0x3d70be10	0.058775008
77	0xbdbb97c2	-0.09159805
78	0xbd459c6a	-0.04824487
79	0x3d361f72	0.044463582
80	0xbe123d1b	-0.14281122
81	0xbcc50b9e	-0.024053391
82	0x3e8666fd	0.2625045
83	0x3e012b0b	0.12614076
84	0x3dbd3eac	0.09240469
85	0x3e0363eb	0.12831084
86	0xbe94c272	-0.290546
87	0xbe4894a9	-0.1958796
88	0x3d88f389	0.06687076
89	0xbdf0f87c	-0.11766145
90	0x3c9893e7	0.018625213
91	0x3ce20fa8	0.027595356
92	0x3956a56c	0.00020470255
93	0xbdd209ab	-0.1025575
94	0xbe7b7c5b	-0.24559157
95	0xbcdd2017	-0.02699284
96	0x3b11f6d8	0.0022272374
97	0xbe0a96e8	-0.13534129
98	0xbd1ca9a2	-0.038247712
99	0xbe414539	-0.18874063
100	0xbdf07c55	-0.117424645
101	0xbe218e77	-0.15777002
102	0xbe5b7acf	-0.21433567
103	0xbe4204a7	-0.18947087
104	0x3ca74425	0.020418236
105	0x3cb0dc78	0.021589503
106	0x3dd8f4dc	0.10593578
107	0x3d9d544b	0.07682093
108	0xbe69e010	-0.2283938
109	0x3df26102	0.11834909
110	0x3d4eb451	0.050464932
111	0xbd07ef3a	-0.03318713
112	0xbdf5fa78	-0.12010664
113	0x3c66badb	0.014082636
114	0xbe12efe5	-0.14349325
115	0xbcb74852	-0.022373352
116	0xbd573b06	-0.052546524
117	0x3c1bb4ee	0.009503586
118	0x3c3c2076	0.011482349
119	0xbda80efc	-0.08205983
120	0x3df9379d	0.121688105
121	0xbe3d59b7	-0.18491255
122	0x3dadd960	0.084887266
123	0xbe37524d	-0.17902489
124	0xbb9eb71a	-0.0048436048
125	0x3dd5801e	0.10424827
126	0xbe05d58a	-0.1306974
127	0x3d0ef592	0.034902163
128	0x3e1c1547	0.15242492
129	0xbdd59d7b	-0.10430428
130	0xbe41a868	-0.18911898
131	0xbe5921f3	-0.21204357
132	0xbd6c1b0c	-0.05764298
133	0xbdc61425	-0.09671811
134	0x3ca8bec5	0.020598779
135	0x3e129107	0.14313136
136	0xbc5cbdce	-0.013472987
137	0xbe01b208	-0.1266557
138	0x3db36ac6	0.087606
139	0xbb25d717	-0.0025305205
140	0xbbbdb0d3	-0.0057889014
141	0xbc86dc8e	-0.01646259
142	0xbd9644e4	-0.073373586
143	0xbd413673	-0.047171067
144	0xbd332007	-0.043731716
145	0xbdd5a702	-0.10432245
146	0xbe40a8df	-0.18814419
147	0xbca4a4aa	-0.02009805
148	0xbc86680a	-0.016407032
149	0xbd7a5c11	-0.061122958
150	0xbe263b91	-0.1623366
151	0xbe090a75	-0.13382895
152	0xbe23c7b3	-0.15994148
153	0x3e0c3215	0.1369098
154	0x3de45162	0.11148335
155	0xbdee0532	-0.11622085
156	0x3d522ca2	0.051312096
157	0x3d122185	0.035676498
158	0xbde638e3	-0.11241319
159	0x3de82641	0.11335421
160	0xbc074a16	-0.00825741
161	0xbd64f73d	-0.055899847
162	0xbca06f27	-0.019584252
163	0x3dafa39e	0.085761294
164	0x3c80656e	0.015673365
165	0xbce94d43	-0.028479224
166	0xbcdb2527	-0.026751114
167	0x3de1b06c	0.11019978
168	0x3cd789c4	0.026310809
169	0xbdb5542f	-0.08853947
170	0x3e120632	0.14260176
171	0xbdac3868	-0.08409196
172	0x3bac1f9a	0.0052527906
173	0x3d324849	0.043525968
174	0x3dacc338	0.084356725
175	0x3d3220c4	0.04348828
176	0xbd3081f6	-0.04309269
177	0xbce7a6cf	-0.028277783
178	0xbd05b03b	-0.03263877
179	0x3addd5bb	0.0016924659
180	0xbd8f78df	-0.07005476
181	0xbde936ae	-0.113873824
182	0xbe271567	-0.16316758
183	0xbde81887	-0.11332803
184	0xbcf548c3	-0.029941922
185	0x3cb9356f	0.022608487
186	0xbd01f2ce	-0.031725697
187	0x3d0ecba8	0.03486219
188	0xbe0107f6	-0.12600693
189	0x3dce3b73	0.10069933
190	0x3dd050e3	0.10171678
191	0x3dbf533f	0.0934205
192	0x3d867337	0.06564944
193	0xbce7ed4f	-0.0283114
194	0xbd32e2f8	-0.043673486
195	0xbdaa1e2c	-0.08306536
196	0xbe28b8d8	-0.16476762
197	0xbb64f923	-0.0034938536
198	0x3d771d45	0.060330648
199	0x3d2b5190	0.04182583
200	0x3d3d9240	0.046282053
201	0xbe8e6de7	-0.27818224
202	0xbe1a50ce	-0.15069887
203	0xbe59e435	-0.2127846
204	0xbd1114a8	-0.03542009
205	0xbe1d8068	-0.15381014
206	0x3d8923a1	0.06696249
207	0xbe273bb0	-0.16331363
208	0x3df0700f	0.117401235
209	0xbd377946	-0.04479339
210	0xbcd2370b	-0.025661012
211	0x3d354fe9	0.04426566
212	0xbe54ccda	-0.2078127
213	0xbe973311	-0.29531148
214	0xbd07fd6c	-0.033200666
215	0x3e132880	0.14370918
216	0x3d1e945d	0.03871571
217	0x3ce76e3b	0.028250804
218	0xbd4cd489	-0.050007377
219	0xbe86a74c	-0.26299512
220	0x3c8ed665	0.017436216
221	0xbdb29969	-0.08720667
222	0xbd92aa56	-0.07161395
223	0xbda49bf7	-0.080375604
224	0xbddf344f	-0.10898649
225	0x3dadac5b	0.0848014
226	0xbd9ba008	-0.07598883
227	0xbe1e2d02	-0.15446857
228	0x3daf98a0	0.08574033
229	0xbe3dac25	-0.18522699
230	0xbd993cfc	-0.07482335
231	0x3e603c59	0.21898021
232	0xbd5787b6	-0.05261966
233	0x3c4189a9	0.011812606
234	0x3e09fa57	0.13474403
235	0xbd37ace6	-0.044842623
236	0xbe1cc8d3	-0.15310983
237	0x3d09525d	0.033525813
238	0x3dc4b626	0.096050546
239	0x3cece595	0.028918067
240	0x3db43bc5	0.08800463
241	0xba923661	-0.0011155122
242	0xbda5c426	-0.08094053
243	0xbd878b50	-0.066183686
244	0x3d7b5f4b	0.061370175
245	0xbd17201a	-0.03689585
246	0xbd81ac13	-0.06331649
247	0x3d98499f	0.07435917
248	0x3e0124af	0.1261165
249	0xbe39f1a7	-0.1815859
250	0x3e316f50	0.17327619
251	0x3d8733a0	0.066016436
252	0xbd8ca306	-0.06867032
253	0xbd28211e	-0.041047208
254	0x3da8abaa	0.08235867
255	0xbd503148	-0.05082825

lc_encode.2.bias f4 [128]
0	0xbb482097	-0.0030537003
1	0x3e2ac15d	0.16675325
2	0xbd84760c	-0.06467828
3	0xbd42072f	-0.047370132
4	0xbe493bee	-0.19651768
5	0xbe187de7	-0.14891778
6	0x3e8307ea	0.25591975
7	0xbe31a360	-0.17347479
8	0xbe88339f	-0.26601884
9	0x3d3fa6f6	0.046790086
10	0x3ba44f12	0.0050143087
11	0xbbcd9eae	-0.0062750196
12	0x3e97eef5	0.29674497
13	0xbde2b24e	-0.11069165
14	0x3d612d9b	0.054975133
15	0xbe2e8915	-0.1704448
16	0xbd19240f	-0.037387904
17	0xbd1387b8	-0.036018103
18	0xbdb9e4f2	-0.09076871
19	0xbd70f8aa	-0.058830895
20	0xbd256cb1	-0.04038686
21	0x3dadfca2	0.084954515
22	0xbe4cee53	-0.20012788
23	0xbe6f732c	-0.23383778
24	0x3d20f1ff	0.039293285
25	0xbcfa54bf	-0.030557988
26	0xbda35317	-0.079748325
27	0x3d42e95c	0.04758583
28	0xbe1f18ce	-0.15536806
29	0x3dc39a90	0.09550965
30	0xbcb3dd84	-0.021956213
31	0x3c58d899	0.013235235
32	0x3e3545aa	0.17702356
33	0x3d886640	0.06660128
34	0xbc38753c	-0.01125842
35	0xbdcaaf94	-0.0989677
36	0xbcb51685	-0.022105465
37	0xbd8bb392	-0.0682136
38	0xbe59f69d	-0.21285482
39	0xbe21d338	-0.1580323
40	0x3df1f04d	0.11813412
41	0x3df22166	0.118227765
42	0x3dde2528	0.10846931
43	0xbe0573e0	-0.13032484
44	0xbd8d2311	-0.06891454
45	0xbd182b1b	-0.037150484
46	0x3dcff500	0.10154152
47	0x3d9ceba8	0.07662135
48	0x3e34e7e4	0.17666584
49	0x3cb06952	0.021534596
50	0x3a6fb1c7	0.00091436174
51	0x3d869683	0.065716766
52	0xbd8ba3cb	-0.068183504
53	0x3decb3fc	0.11557767
54	0x3d07c787	0.03314927
55	0x3d87d5c1	0.06632567
56	0xbe9a5799	-0.30144957
57	0x3e2647c1	0.1623831
58	0x3e0e495f	0.13895176
59	0xbcea1063	-0.028572267
60	0xbd97066d	-0.073742725
61	0xbe0c69cb	-0.13712232
62	0xbbe444fd	-0.006966232
63	0xbd817890	-0.063218236
64	0xbdc3e04b	-0.09564265
65	0xbd0b5096	-0.0340124
66	0xbd043286	-0.032274745
67	0xbe41a787	-0.18911563
68	0x3e250cda	0.16118184
69	0xbe2faf48	-0.17156708
70	0xbc65caa1	-0.014025361
71	0x3ccb3650	0.024806172
72	0xbe185b00	-0.14878464
73	0x3d02cbdd	0.0319327
74	0xbd8ec5d8	-0.069713295
75	0xbe4036dc	-0.18770927
76	0xbb303cb0	-0.0026891641
77	0x3daa0d82	0.08303358
78	0x3e38418b	0.17993753
79	0xbe3baad7	-0.18326889
80	0x3e2d73c1	0.16938688
81	0x3dc6e287	0.097111754
82	0x3a95ddc9	0.0011433895
83	0x3d6867b5	0.056739528
84	0xbccfbb4c	-0.025357865
85	0xbcba4820	-0.02273947
86	0x3c388003	0.011260989
87	0x3d0c3c8c	0.03423743
88	0xbe0996c8	-0.13436425
89	0x3c948235	0.018128494
90	0xbe1471ba	-0.14496508
91	0x3e466857	0.1937574
92	0xbdabd28b	-0.08389767
93	0x3e00ae8b	0.12566583
94	0x3d98766d	0.07444463
95	0x3d89b4dc	0.06723949
96	0xbdf60281	-0.12012196
97	0xbe4721f4	-0.19446546
98	0x3d6d2b0b	0.057902377
99	0xbe5cce34	-0.21563035
100	0xbe3b68ae	-0.18301651
101	0xbe54a78d	-0.2076704
102	0x3dd70b85	0.10500244
103	0xbd436e74	-0.04771276
104	0x3ddc886d	0.10768209
105	0xbe06736a	-0.13129964
106	0x3db821b3	0.089908026
107	0x3c2e89b5	0.010652949
108	0xbdd879a2	-0.105700746
109	0x3bcb74e6	0.0062090037
110	0xbe01a4ba	-0.12660494
111	0x3d84b133	0.064791106
112	0xbc190cb7	-0.00934141
113	0xbe010ffb	-0.12603752
114	0x3df7f2cd	0.121068574
115	0xbdfefef4	-0.12450972
116	0xbde71c63	-0.11284711
117	0x3cf8dc65	0.03037853
118	0x3dba456a	0.09095271
119	0x3cbbdb79	0.022931801
120	0x3d21597e	0.039391987
121	0xbdc2ad50	-0.09505713
122	0x3d7c8904	0.061654106
123	0x3d9265e7	0.071483426
124	0xbe114d6d	-0.14189692
125	0xbde822e7	-0.11334782
126	0xbd70b02e	-0.058761768
127	0xbd550863	-0.05200995

convs.0.nn.0.weight f4 [128, 256]
0	0xbe85a689	-0.2610362
1	0x3b6d90ea	0.0036249706
2	0x3da283f3	0.079353236
3	0xbea5a0f7	-0.3234937
4	0xbeb114dd	-0.3458623
5	0xbd8353ae	-0.06412445
6	0xbcfa3582	-0.030543093
7	0xbc76fc3b	-0.015074785
8	0xbe927a1d	-0.2860879
9	0x3d26346f	0.04057735
10	0xbea52f63	-0.32262716
11	0xbe31e7b9	-0.17373551
12	0xbdeb98c0	-0.11503744
13	0xbebe426b	-0.37160048
14	0xbd1b110f	-0.037858065
15	0x3d3baa95	0.045816977
16	0x3e0621b3	0.13098793
17	0xbe548878	-0.20755184
18	0x3b290c51	0.0025794695
19	0xbd5e4fec	-0.05427544
20	0xbd0a5e75	-0.033781487
21	0xbcf376ca	-0.029719729
22	0xbeb21270	-0.34779692
23	0xbe4e8dfe	-0.20171353
24	0xbbe79370	-0.0070671365
25	0xbed4d447	-0.41568205
26	0xbeae704d	-0.34070054
27	0xbdc0ef06	-0.0942059
28	0x3e3b9645	0.18319042
29	0xbd96c2f5	-0.07361404
30	0xbc51e7f6	-0.012811651
31	0xbe886bb0	-0.2664466
32	0xbc590405	-0.013245587
33	0xbe3b4b31	-0.18290402
34	0xbe35f3d3	-0.17768793
35	0x3c3663c1	0.011132182
36	0xbd067442	-0.032825716
37	0xbd2449d0	-0.040109456
38	0xbb477331	-0.003043365
39	0xbeb7a73f	-0.35869786
40	0xbe8756f9	-0.26433542
41	0x3d9a9813	0.07548537
42	0xbe83ff13	-0.25780544
43	0xbcfba2b8	-0.030717239
44	0xbebb5ac0	-0.36592674
45	0xbd739249	-0.05946568
46	0xbe9f7ca3	-0.31149778
47	0x3c3c9507	0.01151014
48	0x3c41aaa4	0.011820469
49	0x3cec8764	0.028873153
50	0xbec1bb00	-0.37837982
51	0x3d0969a6	0.03354802
52	0xbd6bd4e2	-0.057576068
53	0x3d60b560	0.054860473
54	0xbaa9dcc6	-0.0012959472
55	0xbe4c70e8	-0.19964945
56	0xbea159a1	-0.31513694
57	0x3cc1eabe	0.023671504
58	0xbd45b1e1	-0.04826534
59	0xbd1ea0e4	-0.038727656
60	0xbe566f69	-0.20940937
61	0xbea6cc15	-0.32577577
62	0xbd80bfd8	-0.06286591
63	0x3db87086	0.09005837
64	0xbd370829	-0.044685517
65	0xbd34639c	-0.044040307
66	0xbde7fb4a	-0.113272265
67	0x3d57eb98	0.052714914
68	0x3dabef93	0.083953045
69	0xbd9f8ab7	-0.0779013
70	0xbddd1f82	-0.10797025
71	0xbcf122b6	-0.029435497
72	0xbe845010	-0.25842333
73	0x3d3fb5ef	0.046804365
74	0xbec114cf	-0.37711188
75	0xbe9c1c6b	-0.3049043
76	0x3d299487	0.041401412
77	0xbea5ac6e	-0.32358116
78	0xbcd985ba	-0.026553024
79	0xbdb654e5	-0.08902911
80	0xbe96a1f5	-0.29420438
81	0xbdc599b7	-0.096484594
82	0xbea9c76f	-0.33159968
83	0xbcdda165	-0.027054498
84	0xbe8ec256	-0.27882642
85	0xbe209148	-0.1568042
86	0xbebd9d7c	-0.37034214
87	0x3b009dbb	0.0019625265
88	0x3d01c6f2	0.03168387
89	0xbe86260e	-0.26200908
90	0xbe820fdb	-0.25402722
91	0xbcb8ca21	-0.02255732
92	0xbeacb330	-0.3373046
93	0xbe4eecc4	-0.20207506
94	0xbd30f2c3	-0.043200266
95	0x3d029cf3	0.03188796
96	0xbd41688b	-0.04721884
97	0xbea2d7e6	-0.31805342
98	0xbd4c5533	-0.04988594
99	0xbcc0159e	-0.023447808
100	0xbcdfc796	-0.02731685
101	0xbe1f9f00	-0.15587997
102	0xbd7969cc	-0.06089191
103	0x3d22d02d	0.039749313
104	0xbe2c190d	-0.16806431
105	0x3d720742	0.059088953
106	0xbc9e39a9	-0.019314604
107	0xbd3fe7cc	-0.046851918
108	0xbeb0627a	-0.34450132
109	0xbd01dc7c	-0.03170441
110	0xbea4c258	-0.32179523
111	0xbd99edb7	-0.07516044
112	0x3c0bb015	0.008525868
113	0xbe918055	-0.28418222
114	0xbea05dc0	-0.31321526
115	0xbec40488	-0.38284707
116	0xbe920547	-0.2851965
117	0x3d8b483b	0.06800886
118	0xbe05d130	-0.1306808
119	0xbc3fb282	-0.011700274
120	0x3dafae4d	0.08578167
121	0x3d570c6e	0.05250209
122	0xbe5e1f41	-0.2169161
123	0xbd721317	-0.059100237
124	0xbde69725	-0.11259297
125	0xbde32c82	-0.110924736
126	0xbeae0f03	-0.33995828
127	0xbe851883	-0.25995263
128	0xbb4d309b	-0.0031309489
129	0xbf616723	-0.88048
130	0x3de25f13	0.1105329
131	0xbd3b1c2e	-0.04568117
132	0x3d025323	0.031817567
133	0x3d107f45	0.035277624
134	0x3ea53888	0.32269692
135	0xbdada1c2	-0.084781185
136	0xbae15569	-0.0017191592
137	0x3ee44fa8	0.44592023
138	0xbcb830f9	-0.02248429
139	0x3dcc16a3	0.09965255
140	0x3f1b14f1	0.6057883
141	0xbbd3f245	-0.0064680898
142	0x3dd6cb1b	0.10487958
143	0xbe838230	-0.25685263
144	0xbde372bf	-0.111058705
145	0x3c5ad3bb	0.013356145
146	0xbd9f2d11	-0.077722676
147	0x3dbef46b	0.09323963
148	0x3d2b3a06	0.041803382
149	0x3bc5ae71	0.006032758
150	0x3d27b132	0.04094047
151	0x3ca4049d	0.020021731
152	0xbe5933d1	-0.21211173
153	0x3cd55468	0.026041225
154	0xbd4d9d53	-0.050198864
155	0x3ed87570	0.42277098
156	0xbcee36fe	-0.029078957
157	0x3eb818c3	0.35956392
158	0x3d0ae477	0.033909287
159	0xbc4960f9	-0.0122911865
160	0xbd98b415	-0.07456223
161	0xbda90832	-0.08253516
162	0x3d86c64b	0.0658079
163	0xbe39a88d	-0.18130703
164	0xbd25a26e	-0.04043811
165	0x3df07f68	0.11743051
166	0x3daee0bc	0.085389584
167	0xbc451b51	-0.0120304385
168	0x3d8f9f52	0.0701281
169	0x3f136ac1	0.5758477
170	0x3d42dd85	0.04757454
171	0xbe55f4fb	-0.20894234
172	0x3d55b6c9	0.05217627
173	0xbd9324ee	-0.07184778
174	0xbca92e21	-0.020651879
175	0x3e252b90	0.16129899
176	0xbd9dc97a	-0.07704444
177	0x3f0e2202	0.5552064
178	0x3d0fd39b	0.035113912
179	0xbd7fbbd8	-0.062435
180	0xbe651983	-0.22373013
181	0xbe04b4e7	-0.12959634
182	0x3c58ed50	0.013240173
183	0x3e2174dd	0.15767236
184	0xbcf70ad3	-0.030156529
185	0xbeaceefd	-0.33776084
186	0xbeb63aa0	-0.35591602
187	0x3e1475af	0.14498018
188	0x3c8e6786	0.017383348
189	0xbd07c674	-0.033148244
190	0x3db74e04	0.08950427
191	0xbd806baf	-0.06270539
192	0xbe8ea073	-0.27856788
193	0xbda5c0e0	-0.080934286
194	0x3d9b72f7	0.07590287
195	0x3ca225cd	0.019793415
196	0xbe20b5ef	-0.15694402
197	0x3e5f9d2c	0.218373
198	0x3dc6b656	0.097027466
199	0xbdc9df5d	-0.09857056
200	0xbd53c799	-0.051704023
201	0xbe09dd97	-0.13463436
202	0x3d313c4b	0.04327039
203	0x3cf0d36e	0.029397693
204	0xbe913402	-0.2835999
205	0x3d7eef2e	0.06223982
206	0xbe61a106	-0.22034082
207	0x3e403bc9	0.18772806
208	0x3d297c0c	0.041378066
209	0xbe820ddb	-0.25401196
210	0xbe910a4e	-0.28328174
211	0xbe5c3d08	-0.21507657
212	0xbe243412	-0.16035488
213	0x3ddbddb1	0.10735644
214	0xbd42b5d1	-0.047536675
215	0x3e50c02c	0.20385808
216	0xbed0b061	-0.40759566
217	0x3d918fd7	0.071075134
218	0x3c8e3714	0.017360248
219	0xbdcf9e4b	-0.10137614
220	0xbc3ee922	-0.011652263
221	0x3c88d1f2	0.016701672
222	0x3cb2bef2	0.021819565
223	0xbeaeabaa	-0.34115344
224	0x3c8ce996	0.017201226
225	0x3c1f6e29	0.009730854
226	0xbd9652eb	-0.07340034
227	0xbe43c10b	-0.19116609
228	0x3e63067d	0.22170444
229	0x3c598782	0.0132769365
230	0xbe4c542d	-0.19953986
231	0xbc6851c9	-0.014179655
232	0xbce74837	-0.028232677
233	0x3e05a14e	0.13049814
234	0x3ebaf363	0.36513814
235	0x3d2d65af	0.0423333
236	0xbc722d3d	-0.014781293
237	0x3db5de08	0.0888024
238	0xbd006246	-0.03134372
239	0xbbf4f59a	-0.007475567
240	0x3ee67584	0.45011532
241	0xbc27ac1f	-0.010233908
242	0x3cd6955c	0.026194267
243	0xbc4749e2	-0.012163611
244	0xbccea37e	-0.025224444
245	0xbe03ea75	-0.12882407
246	0x3dcd03da	0.100105
247	0x3e2c658d	0.16835614
248	0x3e421024	0.1895147
249	0x3d82c29f	0.06384777
250	0x3e129df4	0.14318067
251	0xbe17f330	-0.14838862
252	0x3e8e6504	0.27811444
253	0x3da30cde	0.079614386
254	0xbcf12f4f	-0.029441504
255	0xbd0a0d44	-0.033704057

convs.0.nn.0.bias f4 [128]
0	0x3eb08ffe	0.34484857
1	0x3ea24324	0.3169185
2	0xbdef73b8	-0.116919935
3	0x3ea38ea3	0.3194476
4	0xbd104f9f	-0.035232183
5	0xbd1cea32	-0.038309284
6	0x3e1b541e	0.15168807
7	0xbdbd823b	-0.09253355
8	0x3e946cbd	0.2898921
9	0x3ea4918b	0.3214229
10	0x3b22ae80	0.0024823248
11	0xbe06984a	-0.13144031
12	0x3ec55138	0.38538527
13	0xbe5acd2b	-0.21367328
14	0x3e6cdfea	0.23132291
15	0xbd911154	-0.07083383
16	0xbce19ecd	-0.027541542
17	0x3e9cc808	0.30621362
18	0xbce0e6d7	-0.027453823
19	0x3e26ef98	0.16302335
20	0x3db666e3	0.08906343
21	0xbda40e94	-0.08010593
22	0xbd6059ad	-0.05477302
23	0x3e5f6342	0.21815208
24	0x3d512e3f	0.051069494
25	0x3bc92861	0.0061388467
26	0xbd56c506	-0.05243399
27	0x3e848506	0.2588274
28	0x3e9b27a6	0.30303687
29	0x3e747730	0.23873591
30	0xbde2bd55	-0.110712685
31	0x3ee62d35	0.44956365
32	0xbe2d0b0a	-0.16898742
33	0x3eb0f085	0.34558502
34	0xbe41c064	-0.18921047
35	0x3ee882f5	0.45412412
36	0x3e2de359	0.16981257
37	0x3e809c12	0.25119072
38	0x3d09f587	0.03368142
39	0x3e2a9d5f	0.16661595
40	0x3d9d6b92	0.07686533
41	0xbdc9a937	-0.09846728
42	0x3e4e47b4	0.2014454
43	0xbdfc810a	-0.123293
44	0x3e57f144	0.2108813
45	0x3e25ddb7	0.16197859
46	0x3d8e239c	0.06940386
47	0xbda830c9	-0.0821243
48	0x3e5febdd	0.21867318
49	0x3e7e6ee7	0.24846993
50	0x3e38f306	0.18061456
51	0x3cff9e51	0.03120342
52	0x3de000f1	0.109376796
53	0xbd8f1243	-0.06985905
54	0xbe0a22c7	-0.13489829
55	0x3eb175bc	0.34660137
56	0xbced0f6f	-0.028938023
57	0x3eb52c11	0.35385182
58	0xbd4ac791	-0.049506728
59	0x3d7c0b93	0.061534476
60	0x3e9601ff	0.29298398
61	0xbd41ff32	-0.047362514
62	0x3e40edd6	0.18840727
63	0xbdf8dfec	-0.12152085
64	0xbd01f129	-0.03172413
65	0x3d47eaf2	0.048808046
66	0x3eeebcc7	0.466284
67	0x3e8ce1d9	0.27516058
68	0xbd41238d	-0.047153044
69	0xbda3fdb3	-0.08007374
70	0x3e2e5aea	0.17026868
71	0x3e14add9	0.14519443
72	0x3e5d3dda	0.21605626
73	0x3e0e75a6	0.13912067
74	0xbe2f7084	-0.17132765
75	0xbe09d436	-0.13459858
76	0xbdb1f2b5	-0.08688871
77	0x3ec4fb4b	0.3847297
78	0xbdb282c7	-0.0871635
79	0x3df525a2	0.119700685
80	0x3db2de76	0.08733837
81	0xbdc5d7bf	-0.09660291
82	0xbcb9fbe3	-0.022703117
83	0xbc331897	-0.010931156
84	0x3e30168d	0.17196102
85	0x3eab4da9	0.33457687
86	0x3eb2ac29	0.34896973
87	0xbdcb668c	-0.09931669
88	0x3eb6101e	0.3555917
89	0xbc67f6a1	-0.014157922
90	0x3e8e2e71	0.27769807
91	0x3ea8bb6e	0.32955498
92	0xbe18bd7f	-0.14916037
93	0x3e04567e	0.12923619
94	0xbd204e58	-0.039137214
95	0xbcda00a5	-0.026611635
96	0x3edb07a8	0.4277928
97	0x3ebc6971	0.36799195
98	0x3e7b1d91	0.24522997
99	0x3daa8912	0.08326925
100	0x3e559978	0.20859325
101	0xbd40562b	-0.046957176
102	0x3eb4db84	0.35323727
103	0x3eaa51c5	0.3326551
104	0x3eb892f5	0.3604962
105	0xbdb71ef7	-0.08941453
106	0xbdc21848	-0.094772875
107	0x3ca92bfa	0.020650852
108	0xbda8e559	-0.082468696
109	0xbda3bbcd	-0.079948045
110	0x3ea98b51	0.33114102
111	0xbd8e8167	-0.06958275
112	0xbd6ce797	-0.05783805
113	0xbe1d58e2	-0.15365937
114	0x3de93c4b	0.11388453
115	0x3e4a11f4	0.19733411
116	0x3ebd9647	0.37028715
117	0x3df2cb69	0.11855204
118	0x3ebe72e3	0.37197027
119	0x3ecbe150	0.39820337
120	0x3e56d56c	0.20979851
121	0xbdab165f	-0.08353876
122	0xbc1568df	-0.0091192415
123	0x3e662de8	0.2247845
124	0x3e72152d	0.2364089
125	0xbe3851d2	-0.17999962
126	0x3da6ade0	0.08138633
127	0x3ed1d0a0	0.4097948

convs.0.nn.2.weight f4 [128]
0	0x3f2483e6	0.6426376
1	0x3e80a288	0.25124002
2	0x3f3397e2	0.7015363
3	0x3f2329a3	0.6373541
4	0x3f403dab	0.750941
5	0x3f335ee2	0.70066655
6	0x3eb507a6	0.35357398
7	0x3f26ee7c	0.6520765
8	0x3efca130	0.49341726
9	0x3f307b86	0.6893848
10	0x3f90789b	1.1286806
11	0x3f6e473f	0.9307746
12	0x3eeeb8b8	0.46625304
13	0x3f8bd352	1.0923865
14	0x3ef55562	0.47916704
15	0x3f44d732	0.7689086
16	0x3f347a1f	0.7049884
17	0x3f02252e	0.5083798
18	0x3f2e9beb	0.6820666
19	0x3f3a2e5d	0.72726995
20	0x3f360585	0.7110217
21	0x3f3dfe45	0.7421611
22	0x3f83716f	1.0268992
23	0x3f2cd447	0.6751141
24	0x3ee38595	0.44437853
25	0x3f16194a	0.5863234
26	0x3f2e7943	0.6815378
27	0x3f3b12ea	0.73075736
28	0x3ef75efe	0.4831466
29	0x3ef15dfe	0.47142023
30	0x3f560557	0.836019
31	0x3f0f1cad	0.5590313
32	0x3f94d319	1.1626922
33	0x3f0c07c8	0.54699373
34	0x3f7da6dc	0.9908273
35	0x3f0823d5	0.53179675
36	0x3f321e69	0.6957765
37	0x3f124087	0.5712971
38	0x3f2093c1	0.62725455
39	0x3f3a0c0c	0.7267463
40	0x3f813749	1.0094997
41	0x3f2abff8	0.6669917
42	0x3f3c5ef4	0.73582387
43	0x3f5ffe5f	0.87497514
44	0x3f2341b0	0.63772106
45	0x3f097b32	0.53703606
46	0x3f3de216	0.74173105
47	0x3f6ce9e4	0.9254439
48	0x3f0db5c4	0.5535548
49	0x3e8eb19d	0.27869883
50	0x3f1aad89	0.60421044
51	0x3f41e740	0.75743484
52	0x3ec47778	0.38372397
53	0x3f69d1bf	0.9133567
54	0x3f4147be	0.75500095
55	0x3f118b3c	0.5685308
56	0x3efe02b2	0.4961143
57	0x3f138614	0.5762646
58	0x3e5a12c2	0.21296218
59	0x3f2a4dff	0.6652526
60	0x3f1c73bf	0.61114115
61	0x3f44285e	0.76624095
62	0x3f0ff523	0.56233424
63	0x3f5bd1ae	0.8586682
64	0x3f13f61e	0.5779742
65	0x3efcd7c7	0.49383375
66	0x3f07bfe6	0.5302719
67	0x3eea3d12	0.45749718
68	0x3f4c3de5	0.79781944
69	0x3f46faac	0.77726245
70	0x3edaea12	0.42756706
71	0x3edfb1f4	0.43690455
72	0x3f295fe4	0.6616194
73	0x3f06ac58	0.52606726
74	0x3f97a76a	1.1847966
75	0x3f41e053	0.75732917
76	0x3efe0e4a	0.49620277
77	0x3f01f943	0.5077097
78	0x3f39ba80	0.725502
79	0x3ec37768	0.38177037
80	0x3f1105e6	0.56649625
81	0x3f1ce6f5	0.6128991
82	0x3f85d444	1.0455403
83	0x3f0afd7c	0.54293036
84	0x3f16ae79	0.58859974
85	0x3f2b4ea2	0.6691686
86	0x3f3bb82b	0.73327893
87	0x3f6108fe	0.87904346
88	0x3efc7d7f	0.49314496
89	0x3f688524	0.90828156
90	0x3f01b13d	0.5066107
91	0x3f0202d4	0.50785565
92	0x3f6be82d	0.9215115
93	0x3f0c2aa5	0.5475257
94	0x3f27e93f	0.6559028
95	0x3f4127ea	0.7545153
96	0x3f2b3b96	0.66887796
97	0x3f1393ef	0.57647604
98	0x3f13aaea	0.5768267
99	0x3ec3e475	0.38260236
100	0x3e824aec	0.25447786
101	0x3f84ff54	1.039042
102	0x3f222c65	0.6334899
103	0x3ea4ff24	0.32225907
104	0x3f2840ae	0.65723693
105	0x3f2b048f	0.6680383
106	0x3f7bb98d	0.98330003
107	0x3f3f5b13	0.74748343
108	0x3f5e1544	0.867512
109	0x3f0e2981	0.5553208
110	0x3f1386bd	0.5762747
111	0x3f466bfd	0.7750853
112	0x3f1776f4	0.59165883
113	0x3f8b9efb	1.0907892
114	0x3f2e5116	0.6809248
115	0x3f1474ea	0.57990897
116	0x3f183213	0.5945141
117	0x3f10c6a4	0.565531
118	0x3f31a25d	0.6938837
119	0x3f28a95a	0.6588341
120	0x3ee8ad51	0.4544473
121	0x3f8b7042	1.0893633
122	0x3f7c0e81	0.9845963
123	0x3efcfc90	0.4941144
124	0x3f06409c	0.52442336
125	0x3fa44f52	1.2836707
126	0x3efa4944	0.48884022
127	0x3f15e0f4	0.58546376

convs.0.nn.2.bias f4 [128]
0	0x3e0a4bf8	0.13505542
1	0x3e9c55a7	0.30534098
2	0xbcf9c76f	-0.030490605
3	0xbe7e9c8e	-0.24864408
4	0x3ea16c5d	0.31527987
5	0x3ee74b33	0.4517456
6	0x3eca11b0	0.3946662
7	0x3e973559	0.2953289
8	0x3d5a5092	0.053299494
9	0xbe0e6869	-0.13907017
10	0x3eb4a628	0.35283017
11	0x3ee413c3	0.44546327
12	0x3e8fa779	0.2805746
13	0x3f02eaa6	0.51139295
14	0x3e6f4817	0.23367344
15	0x3f1ff3e1	0.62481505
16	0x3e348503	0.17628865
17	0xbe0e324b	-0.13886373
18	0x3ea08041	0.3134785
19	0x3e2ed854	0.1707471
20	0x3f113035	0.56714183
21	0x3e843d5b	0.2582806
22	0x3f3b2b4b	0.73112935
23	0x3c841b11	0.016126188
24	0x3ebf91ed	0.3741602
25	0x3e2ae11a	0.16687432
26	0x3ea5ddf4	0.323959
27	0x3e8a2cc0	0.26987267
28	0x3e2ab365	0.16669996
29	0x3f00afee	0.5026845
30	0x3e8866a6	0.26640815
31	0xbe01c2b9	-0.12671937
32	0x3f5be3fe	0.85894763
33	0xbe8e9abb	-0.27852425
34	0x3eb975c3	0.36222658
35	0x3c090013	0.008361834
36	0xbdf8aae4	-0.1214197
37	0x3f0a0ea9	0.5392862
38	0x3eb2e4dc	0.3494023
39	0x3f01e8c5	0.50745803
40	0x3e9487db	0.290099
41	0x3ee4fce5	0.44724193
42	0x3dd2af1d	0.102873065
43	0x3e2733a1	0.16328289
44	0x3e83127b	0.25600037
45	0x3ec793f8	0.3898008
46	0x3e511144	0.20416743
47	0x3e637c16	0.22215304
48	0x3e2ad723	0.1668363
49	0x3eb9433b	0.36184105
50	0x3e8c3a8b	0.27388415
51	0x3e658f8f	0.22418045
52	0x3ea0d75d	0.3141431
53	0x3ef0695b	0.4695538
54	0x3d56bf6d	0.05242865
55	0x3e1c4e20	0.15264177
56	0x3e35bfb3	0.17748909
57	0x3d5cc7f5	0.05390163
58	0x3e52a92d	0.20572348
59	0x3eed8f41	0.46398357
60	0xbe0b3431	-0.13594128
61	0x3e34982b	0.17636172
62	0x3e770972	0.24124697
63	0x3e0fc99a	0.14041749
64	0xbe1ebaac	-0.15500897
65	0x3e7b60d1	0.24548651
66	0x3d0574b2	0.032581992
67	0x3def36aa	0.11680348
68	0x3ed3d706	0.41374987
69	0x3e0bb810	0.13644433
70	0x3f02437a	0.5088421
71	0x3f0e1c94	0.55512357
72	0xbe980c4e	-0.29696888
73	0x3ec559ca	0.38545066
74	0x3f20e4f6	0.62849367
75	0x3e26ca76	0.1628817
76	0x3e4233fc	0.18965143
77	0x3dec51b7	0.11539023
78	0x3db759de	0.08952688
79	0x3eccf820	0.40033054
80	0xbe4149dd	-0.18875833
81	0x3d91a5ca	0.071117
82	0x3d192507	0.037388828
83	0x3e725d87	0.2366849
84	0x3e4ac5d6	0.19802031
85	0x3cb0cbd8	0.021581575
86	0xbeb8f80c	-0.36126745
87	0x3abe4b4c	0.001451829
88	0x3f11a45f	0.56891435
89	0x3ec07156	0.37586468
90	0xbd54c49f	-0.051945325
91	0x3e25d154	0.16193134
92	0x3d1a37dd	0.03765093
93	0xbd550537	-0.052006926
94	0x3f06118a	0.5237051
95	0x3f0ca86b	0.54944485
96	0x3e101dd9	0.14073886
97	0x3d2eb8d2	0.042656727
98	0x3de9953c	0.11405417
99	0x3ecb38ce	0.39691776
100	0x3e61811a	0.22021905
101	0x3eda3169	0.42615822
102	0x3e08c640	0.13356876
103	0x3e16d6fe	0.1473045
104	0x3d8ac26c	0.06775364
105	0x3a94872f	0.0011331792
106	0x3ecf3af4	0.40474665
107	0x3e87e1d3	0.26539478
108	0x3ebbacdb	0.36655316
109	0x3d80b378	0.06284231
110	0xbdc2ec73	-0.09517755
111	0x3e81d49b	0.25357518
112	0x3e8ffaee	0.28121132
113	0x3e9b4f11	0.3033376
114	0x3e8ac1e4	0.27101052
115	0xbe5f1a71	-0.2178743
116	0x3d77d8ac	0.06050937
117	0x3ed0a998	0.4075439
118	0x3dd767be	0.10517834
119	0x3ee74411	0.45169118
120	0x3f1ef867	0.6209778
121	0x3ebfaa54	0.37434638
122	0xbbf72403	-0.0075421347
123	0x3edc9019	0.43078688
124	0x3d1602b8	0.036623687
125	0x3f01197f	0.5042953
126	0x3dd1e5b4	0.102488905
127	0xbcfdb1b3	-0.030968523

convs.0.nn.2.running_mean f4 [128]
0	0x4146651d	12.399686
1	0x4092e359	4.5902524
2	0xbf7fe731	-0.99962145
3	0x414d28c5	12.8224535
4	0xbf7d91d4	-0.9905064
5	0xbf5ad4b4	-0.8548081
6	0x3f62b5eb	0.88558835
7	0xbf65f427	-0.8982567
8	0x4176fd81	15.436891
9	0x416080a0	14.031403
10	0xbf666ff9	-0.90014607
11	0xbf72e129	-0.9487482
12	0x41378005	11.468755
13	0xbf7e3565	-0.99300224
14	0x3f80e6b8	1.007041
15	0xbf7e6cf8	-0.99385023
16	0xbf75df0b	-0.9604346
17	0x4117d15d	9.488614
18	0xbe92cd4e	-0.2867226
19	0xbeeee956	-0.46662396
20	0xbdea9eca	-0.11456068
21	0xbf7ea69d	-0.9947298
22	0xbf5f718f	-0.8728265
23	0x4109be5f	8.608977
24	0xbf203ee6	-0.62595975
25	0xbf5b427f	-0.8564834
26	0x410e19b2	8.881273
27	0x4162f608	14.185066
28	0x41467dd9	12.405725
29	0x41415a5b	12.084559
30	0xbf7f7d88	-0.9980092
31	0x41319182	11.098024
32	0xbf693779	-0.9110027
33	0x414826c3	12.509463
34	0xbf7f3cff	-0.9970245
35	0x41478201	12.469239
36	0x40d7df31	6.745995
37	0x40b36b6c	5.606863
38	0xbf0727d9	-0.5279518
39	0x4085e980	4.1847534
40	0x40b51e54	5.659952
41	0xbf7e0dbe	-0.9923972
42	0x4164a498	14.290184
43	0xbf7fd785	-0.9993823
44	0x41280987	10.502326
45	0x40cccec3	6.4002395
46	0xbf2edfb4	-0.68310094
47	0xbf7d17a1	-0.9886418
48	0x4104dfce	8.30464
49	0x40a111f7	5.033443
50	0x4107486f	8.455184
51	0xbf3bdbe0	-0.7338238
52	0x40d028b4	6.5049686
53	0xbf4d21f2	-0.8012992
54	0xbf7fec4c	-0.99969935
55	0x40cba513	6.3639007
56	0xbf2fcd78	-0.68672895
57	0x4101aaf5	8.104238
58	0x408e0a65	4.438769
59	0xbeafa247	-0.34303495
60	0x411f637a	9.961786
61	0xbf7f2554	-0.99666333
62	0x40d937d0	6.788063
63	0xbf7fe6df	-0.99961656
64	0xbe5e2e3c	-0.21697325
65	0xbf403e61	-0.7509518
66	0x410c4eaf	8.76921
67	0x411a2d16	9.636007
68	0xbf5b1ccf	-0.85590833
69	0xbf7fb531	-0.9988585
70	0x3f0d303f	0.5515174
71	0x3fa4921d	1.285709
72	0x417ccfbe	15.800718
73	0x40a13bd8	5.038555
74	0xbf6b1774	-0.9183266
75	0xbf7f8ed5	-0.9982732
76	0xbf671ca5	-0.90278083
77	0x414330a1	12.199372
78	0xbf7fd6fa	-0.99937403
79	0x40b2974e	5.58097
80	0x40cf0b99	6.4701657
81	0xbf7fd7f6	-0.99938905
82	0xbf7fbf9d	-0.99901754
83	0xbf664f55	-0.899648
84	0x40e5079c	7.157179
85	0x412af069	10.683694
86	0x4191f2d3	18.243567
87	0xbf7ffe47	-0.9999737
88	0x40c5767d	6.170714
89	0xbf1f2c2e	-0.6217679
90	0x413f927c	11.973263
91	0x415bdf95	13.742085
92	0xbf7ff62e	-0.99985015
93	0x4105fe46	8.374578
94	0x3ecbc080	0.39795303
95	0xbf7ea268	-0.9946656
96	0x4138389a	11.513819
97	0x41434e65	12.206639
98	0x40ecc6f3	7.399286
99	0x3ecdb66e	0.40178245
100	0x41195084	9.582157
101	0xbf38c3c0	-0.7217369
102	0x412ee2b3	10.9303465
103	0x41063c4c	8.389721
104	0x413577e2	11.341768
105	0xbf7ff822	-0.99987996
106	0xbf7f0a25	-0.99624854
107	0xbf1570aa	-0.58375037
108	0xbf4d234c	-0.80131984
109	0xbf474d2f	-0.7785215
110	0x414e4f69	12.894387
111	0xbf7f0831	-0.99621874
112	0xbf2d43b6	-0.67681444
113	0xbf7e91e0	-0.9944134
114	0x415d69fd	13.838376
115	0x4122ca69	10.174417
116	0x4150cc2a	13.049845
117	0x40e154ef	7.041618
118	0x4179f507	15.622321
119	0x40a29a0a	5.0813036
120	0x3f87f163	1.062054
121	0xbf644ecd	-0.8918274
122	0xbf7fe03d	-0.99951535
123	0x40fc4d84	7.8844624
124	0x41254599	10.329492
125	0xbf7e0755	-0.9922994
126	0x40f47fa2	7.64058
127	0x4134db54	11.303547

convs.0.nn.2.running_var f4 [128]
0	0x3f556f2f	0.8337278
1	0x3ff91a43	1.946114
2	0x3bc15b88	0.005900804
3	0x3f9db9c1	1.2322313
4	0x3bfa0067	0.0076294425
5	0x3d75379e	0.059867494
6	0x3fa0a694	1.2550836
7	0x3d40aea1	0.04704154
8	0x3f813487	1.0094155
9	0x3f39c190	0.7256098
10	0x3d964546	0.073374316
11	0x3cba815b	0.02276676
12	0x3f132f5a	0.5749413
13	0x39761553	0.00023468332
14	0x3f861522	1.0475199
15	0x3857e43f	5.1472565e-05
16	0x3d4942df	0.04913604
17	0x3f3c82ae	0.736369
18	0x400d7ae7	2.2106264
19	0x3e58202d	0.21106024
20	0x3f58421a	0.8447586
21	0x39883a43	0.0002598335
22	0x3d1a58e8	0.037682444
23	0x3ee7aa46	0.45247096
24	0x3ebf803b	0.3740252
25	0x3da77a9c	0.08177683
26	0x405c210c	3.439517
27	0x3f1cd766	0.6126617
28	0x3f163a81	0.5868302
29	0x3fa0e809	1.2570812
30	0x3823f440	3.9089704e-05
31	0x3f53a411	0.8267222
32	0x3c6cf59b	0.014462854
33	0x3f8470a4	1.0346875
34	0x3891041a	6.914903e-05
35	0x3f6f86f1	0.9356528
36	0x3f27b74f	0.6551408
37	0x4047a741	3.1195834
38	0x3f3ee47b	0.74567384
39	0x3f97d1a1	1.1860849
40	0x3fb436d6	1.4079235
41	0x38e5f093	0.00010964381
42	0x3f9f2a12	1.2434714
43	0x34b6ddec	3.406161e-07
44	0x3f667cfb	0.90034455
45	0x3fe2a6fe	1.7707212
46	0x3eb24325	0.34816852
47	0x3b49c7bc	0.0030789217
48	0x3f09ab80	0.53777313
49	0x3f51df63	0.81981486
50	0x3f618de4	0.8810713
51	0x3ec8171f	0.3908014
52	0x404a7775	3.163541
53	0x3e08284d	0.13296624
54	0x3baa92bb	0.00520548
55	0x404f0210	3.234501
56	0x3e43288e	0.19058439
57	0x3f11af90	0.5690851
58	0x3f57fc49	0.8436933
59	0x3f4989df	0.78726
60	0x3f4090b9	0.7522083
61	0x3993aea1	0.00028168134
62	0x3f6d1b43	0.92619723
63	0x34d7e042	4.021004e-07
64	0x3eacc2f5	0.3374249
65	0x3e3e52ed	0.18586321
66	0x3f1252d7	0.57157654
67	0x3fbe114e	1.4849031
68	0x3e032716	0.12807879
69	0x354a4168	7.534604e-07
70	0x3f041660	0.5159664
71	0x3f783c3f	0.9696693
72	0x3f66b260	0.9011593
73	0x4005c562	2.0901723
74	0x3cd0dbcc	0.025495432
75	0x38dbb63c	0.000104766776
76	0x3dfca129	0.12335426
77	0x3f47d9ed	0.78066903
78	0x3b431a7f	0.0029770432
79	0x3f665adb	0.89982384
80	0x3f819298	1.0122862
81	0x3c388a55	0.01126345
82	0x3432fc16	1.666925e-07
83	0x3d2cc0e7	0.042176154
84	0x40063813	2.0971725
85	0x3fa92bd2	1.3216498
86	0x3faa77ab	1.331777
87	0x32c0334e	2.2375072e-08
88	0x3fc6cf72	1.5532057
89	0x3f074cf4	0.52851796
90	0x3f478677	0.7793955
91	0x3fe6c7a7	1.8029679
92	0x33211c04	3.7511214e-08
93	0x3f70ad9d	0.9401491
94	0x3fb726e2	1.4308741
95	0x3844b4a7	4.6898287e-05
96	0x3f4e2625	0.80526954
97	0x3ff68857	1.9260358
98	0x3f56faf1	0.83976656
99	0x40034c8a	2.0515466
100	0x3ef5b86e	0.4799227
101	0x3f101eb0	0.56296825
102	0x3f36ffce	0.71484077
103	0x3f514d91	0.8175898
104	0x3f389104	0.72096276
105	0x3bdcec05	0.006742003
106	0x38cf5de0	9.888015e-05
107	0x3f59c3ec	0.8506458
108	0x3e219af9	0.15781774
109	0x3dfd55fa	0.12369914
110	0x3f61b85d	0.8817194
111	0x393265a7	0.00017013271
112	0x3f09ecb7	0.53876823
113	0x39d42d15	0.0004046938
114	0x3fd876aa	1.6911213
115	0x3f5796c9	0.84214455
116	0x3fafd172	1.3735793
117	0x401d9517	2.4622247
118	0x3fd2e780	1.6476898
119	0x3f787b4a	0.97063124
120	0x3fa176ad	1.2614342
121	0x3d8af615	0.06785218
122	0x3421d81f	1.5072918e-07
123	0x3fa7601c	1.3076205
124	0x3f7e3d9c	0.9931276
125	0x39f039af	0.00045819345
126	0x3f8d4e45	1.1039511
127	0x3f2b38e7	0.668837

convs.1.nn.0.weight f4 [128, 256]
0	0xbdeeb25c	-0.11655113
1	0xbcabbe13	-0.020964658
2	0x3cbb0b84	0.02283264
3	0x3d861be3	0.06548288
4	0xbd9cf277	-0.07663434
5	0xbdbbae82	-0.09164144
6	0xbd0018b7	-0.03127357
7	0xbc033c21	-0.008009941
8	0x3e47be3d	0.19506164
9	0x3dd13a26	0.10216169
10	0x3da941cb	0.08264502
11	0x3e4fef1f	0.20306061
12	0xbc5cc214	-0.013474006
13	0xbd98b81f	-0.07456993
14	0x3da7835a	0.0817935
15	0xbdb0885c	-0.086197585
16	0x3cd93b6b	0.02651759
17	0xbd907985	-0.07054428
18	0x3e5ac833	0.21365432
19	0xbd364c90	-0.04450661
20	0x3e44fe7f	0.19237708
21	0x3db092cd	0.0862175
22	0x3d0ced63	0.034406077
23	0xbc6c0eea	-0.014407853
24	0x3deff856	0.11717288
25	0xbd46b510	-0.04851252
26	0x3dc1a457	0.094551735
27	0x3dc35082	0.0953684
28	0xbd083589	-0.03325418
29	0x3d0b25df	0.033971664
30	0x3d8f75da	0.070049
31	0xbda655a9	-0.08121807
32	0xbd363b85	-0.044490356
33	0x3d052152	0.03250248
34	0x3d97362d	0.0738338
35	0xbcab6f22	-0.020927016
36	0xbe0067bf	-0.12539576
37	0x3e0798ec	0.13241929
38	0xbe2478f7	-0.1606177
39	0xbdd8de30	-0.10589254
40	0x3d026618	0.031835645
41	0x3c166752	0.009179907
42	0x3db6bf55	0.089232124
43	0x3ba3170f	0.004977114
44	0xbd5c2301	-0.05374432
45	0x3dc1e4d9	0.09467477
46	0xbcd528df	-0.026020465
47	0x3dd6d710	0.10490239
48	0x3d6be104	0.05758764
49	0x3c5e4fbb	0.013568814
50	0xbd417c57	-0.04723772
51	0xbc84fd6c	-0.016234122
52	0xbbc60383	-0.006042899
53	0x3dc66cb2	0.09688701
54	0xbc780fe2	-0.0151405055
55	0xbd0e2c7f	-0.034710404
56	0xbd21204a	-0.039337434
57	0xbca50062	-0.020141784
58	0xbdf32a86	-0.11873345
59	0x3d2c5670	0.04207462
60	0x3d7e2825	0.062050004
61	0xbd1d6aeb	-0.038432043
62	0x39b3526d	0.00034202953
63	0x3c80f0f0	0.015739888
64	0xbdca1a4c	-0.09868297
65	0x3c979275	0.018502453
66	0xbd16206b	-0.03665201
67	0x3b02e8a3	0.0019975088
68	0x3daf9b04	0.08574489
69	0xbdd5f4ab	-0.10447057
70	0x3ce4a6b4	0.027911521
71	0xba3e4b48	-0.00072591426
72	0x3d6bcdba	0.057569243
73	0x3d9fe61d	0.078075625
74	0xbd0d05a5	-0.03442921
75	0x3d9ff6fd	0.07810781
76	0x3e29ced3	0.16582803
77	0x3bd8b4dd	0.0066133575
78	0x3c989e36	0.018630128
79	0xbd813b57	-0.06310146
80	0xbda776af	-0.08176934
81	0x3e028b9a	0.12748566
82	0x3b8a26b6	0.0042160405
83	0x3d19db15	0.03756245
84	0x3d331f70	0.043731153
85	0xbc0c6626	-0.008569276
86	0x3cd1636b	0.025560101
87	0x3d3ef7c8	0.04662302
88	0x3d3378e3	0.04381646
89	0x3e0e7c98	0.13914716
90	0x3dd2b9ce	0.10289346
91	0x3d64e59e	0.055883043
92	0x3d857a14	0.06517425
93	0xbd6176fb	-0.05504511
94	0x3d87844b	0.0661703
95	0x3a3606d3	0.0006943766
96	0xbd3bc6b9	-0.045843814
97	0x3c190bae	0.009341164
98	0xbd5853b4	-0.0528142
99	0xbd55ead3	-0.0522259
100	0xbc54798c	-0.012968432
101	0x3e0ca778	0.1373576
102	0xbde903da	-0.11377688
103	0xbd8a3f3f	-0.067503445
104	0xbcf394c5	-0.029734025
105	0x3dd0d3fd	0.101966836
106	0xbd9d165c	-0.0767028
107	0xbd086808	-0.033302337
108	0x3def5649	0.116863795
109	0x3b7d9b4e	0.0038697305
110	0xbda785a5	-0.081797875
111	0x3e1de79e	0.15420386
112	0x3e081a21	0.13291217
113	0x3d149f21	0.03628457
114	0x3dba6662	0.09101559
115	0x3cd51242	0.026009683
116	0xbc792d87	-0.0152086085
117	0x3d0a8f84	0.033828273
118	0xbd3030f2	-0.043015428
119	0x3cc8147a	0.024423826
120	0x3c3c18ba	0.011480505
121	0xbd6a0dd3	-0.05714209
122	0x3dca978d	0.09892187
123	0x3d30fadc	0.04320799
124	0x3d312394	0.04324682
125	0xbc9d1b91	-0.019178184
126	0xbd907eee	-0.0705546
127	0xbc225054	-0.009906847
128	0x3d0e4c87	0.03474095
129	0x3defd414	0.117103726
130	0xbb769de4	-0.0037630731
131	0x3c702eec	0.014659625
132	0xbe2399f9	-0.15976705
133	0xbd9e3f02	-0.077268615
134	0xbd4cf9b4	-0.050042823
135	0x3d2931c2	0.04130722
136	0x3c8398e3	0.016064113
137	0x3d83986a	0.06425555
138	0x3d7b6569	0.06137601
139	0x3d8db062	0.06918408
140	0xbdccd903	-0.10002329
141	0xbd791d4b	-0.06081895
142	0xbce43069	-0.027855115
143	0x3d4e2eac	0.05033748
144	0x3c93ab2d	0.018025959
145	0xbd5c4973	-0.053780984
146	0xbba0c549	-0.0049063307
147	0xbd73bd5c	-0.05950676
148	0x3de5c308	0.1121884
149	0xbe04dcd5	-0.12974866
150	0x3e6ff497	0.23433147
151	0xbd8eeae2	-0.06978394
152	0x3db00f1f	0.08596634
153	0xbdf8290a	-0.121172026
154	0x3e71e69d	0.23623128
155	0x3c5e182f	0.0135555705
156	0x3e0c19ad	0.1368167
157	0xbdd1126e	-0.10208593
158	0x3d8b74c6	0.06809382
159	0xbd121e45	-0.0356734
160	0x3e51fb69	0.20506062
161	0x3c9f0eb6	0.019416194
162	0xbd093867	-0.033501055
163	0xbd820ece	-0.0635048
164	0xbdb34a7f	-0.087544434
165	0x3cc2660b	0.023730299
166	0xbd2e3f66	-0.04254093
167	0xbd3ab81c	-0.045585737
168	0x3d5dc9ad	0.05414741
169	0xbd501c12	-0.05080802
170	0xbb7b5841	-0.0038352164
171	0x3d2266d8	0.03964886
172	0xbccdfc84	-0.025144823
173	0xbc922530	-0.017839998
174	0xbd7ab647	-0.06120899
175	0x3d6fcca5	0.058544774
176	0xbca27d3d	-0.019835109
177	0xbd0d1444	-0.034443155
178	0xbcb3af36	-0.021934133
179	0x3cc2e13b	0.023789039
180	0xbdad4a9e	-0.08461498
181	0x3c56fe5c	0.013122167
182	0xbc36da52	-0.01116045
183	0xbceaed50	-0.028677613
184	0xbd64e5bd	-0.055883158
185	0xbc644b6b	-0.013933997
186	0xbb9611b3	-0.0045797466
187	0x3e2335a9	0.15938438
188	0xbaacbfc8	-0.0013179714
189	0x3d2a0b5b	0.041514736
190	0x3d28fec2	0.04125858
191	0x3d7bb44d	0.061451245
192	0xbc940e06	-0.018073093
193	0x3d60653e	0.054784052
194	0xbd7042e8	-0.058657557
195	0xbcde4674	-0.027133204
196	0x3db43871	0.08799828
197	0x3e2c27bc	0.16812032
198	0x3d705f8c	0.05868487
199	0x3c393631	0.011304424
200	0x3b3b0071	0.0028534199
201	0x3d372ce0	0.04472053
202	0xbdc4e1dc	-0.09613392
203	0x3d47c040	0.04876733
204	0x3e0550e1	0.13019134
205	0xbc8e9a39	-0.017407523
206	0x3d76f242	0.06028963
207	0xbcb0e1d9	-0.021592068
208	0x3d5f15d2	0.05446417
209	0x3c8aa5ab	0.0169247
210	0xbc3956de	-0.011312215
211	0xbd95fa60	-0.07323146
212	0xbe0906fb	-0.13381569
213	0xbd742a2b	-0.059610527
214	0x3cb967a9	0.022632437
215	0x3dfcb4c4	0.12339166
216	0xbc885919	-0.016644048
217	0xbc4799e5	-0.012182687
218	0x3da718d5	0.08159033
219	0x3c898dd2	0.016791258
220	0x3d55ed0c	0.05222802
221	0xbc2f4e2d	-0.010699791
222	0x3d8be0bd	0.06829975
223	0x3e19632e	0.1497924
224	0xbbc9bbbe	-0.006156414
225	0x3c432198	0.011909865
226	0xbd9bc491	-0.076058514
227	0x3cdca625	0.026934693
228	0xbc976c76	-0.018484335
229	0x3e582a07	0.21109782
230	0xbd8ebec6	-0.06969981
231	0xbcfab896	-0.030605596
232	0x3c2b9e15	0.010474701
233	0x3e188e67	0.14898072
234	0x3c848f11	0.0161815
235	0x3de14eba	0.11001344
236	0x3d94bbc7	0.07262378
237	0xbd86c1eb	-0.06579956
238	0xbe0071c7	-0.12543403
239	0x3e3866ce	0.18007967
240	0x3ca21518	0.019785449
241	0xbe3ba08a	-0.1832296
242	0x3db17995	0.08665768
243	0xbd479260	-0.04872358
244	0x3c015608	0.007894047
245	0xbc94bdf3	-0.018156981
246	0x3cf7e9d5	0.030262867
247	0xbca63c7b	-0.020292511
248	0xbe0a3621	-0.13497211
249	0xbd8f7b04	-0.07005885
250	0x3db57a52	0.088612214
251	0x3d4de2ea	0.05026523
252	0x3ad5ac2d	0.0016301923
253	0xbdc2658b	-0.09492024
254	0x3ac9b56c	0.0015389151
255	0xbd105d9c	-0.035245523
