TracksterFormation/Mixed/Fraction/runs/DEC/hd128nl3cd128k72/best_model.pt (torch, 479714 bytes, 28 tensors)

lc_encode.0.weight f4 [32, 8]
000000 02 56 97 bc 4a 68 f4 bd 49 ac 32 3d e1 3b b0 3e
       -0.018473629 -0.11933954 0.043621335 0.34420684
000010 78 e3 a8 3e 46 06 25 be 5f ec f1 3d d5 96 dc 3b
       0.32986045 -0.16115674 0.11812662 0.0067318478
000020 d6 c4 8b be 1d 1c 24 3e 56 1e 14 be fe e1 4a 3e
       -0.2729861 0.1602635 -0.14464697 0.19812772
000030 91 79 c7 be b2 dd 7f be c6 08 2a 3e 38 40 9d be
       -0.38959935 -0.24986914 0.1660491 -0.30713058
000040 75 6d e5 bc ed 7b ae 3d 16 a1 05 be 1b 62 92 3e
       -0.028006295 0.08519731 -0.1304973 0.28590474
000050 3d e6 e5 3d dc 98 de 3d 8b aa 82 be b5 cf 39 be
       0.11225555 0.10868999 -0.2552074 -0.1814564
000060 6f f9 99 be 2f 96 ea bd fe 78 91 be 23 da ba 3e
       -0.30073115 -0.114544265 -0.28412622 0.3649455
000070 e5 7f ae 3e ba 5f 1f 3d 3e 41 1a 3b b3 64 45 3a
       0.3408195 0.03890965 0.0023537423 0.0007529959
000080 eb c9 38 3d e6 b3 27 3e 59 c1 3e be a2 13 97 be
       0.04511444 0.1637722 -0.18628444 -0.29507166
000090 10 9f 43 bd 7c 26 b8 3e fb 4c 6b 3e f5 d9 b6 3d
       -0.047759116 0.3596686 0.22978584 0.08928291
0000a0 9b f9 14 be eb 7f c2 bd 90 b0 2d 3e c9 58 98 3e
       -0.14548342 -0.09497055 0.16961884 0.29755238
0000b0 c9 1d d8 be 24 a7 d9 bc 23 0c 12 3e 55 05 8b bd
       -0.42210224 -0.026568957 0.14262442 -0.067881264
0000c0 8d cb c5 3d 70 86 c3 3c 9e bc 8d 3d 32 22 17 be
       0.09657965 0.023867816 0.069207415 -0.14759138
0000d0 e5 78 32 be c2 df 2a 3e fb a0 07 be 92 7f 1c 3e
       -0.1742893 0.1668692 -0.13245003 0.15283039
0000e0 f4 67 1f 3e 52 6f a3 bd 29 33 23 3e 94 0c a1 be
       0.15566999 -0.07980217 0.15937485 -0.3145491
0000f0 c9 89 69 3e 10 5a 20 be c0 70 fa 3d e6 61 06 be
       0.22806467 -0.15659356 0.122285366 -0.13123283
000100 89 99 38 3e 86 39 8b 3e 74 55 85 be 89 2d a3 bb
       0.18027319 0.27192324 -0.26041758 -0.0049797934
000110 bb 29 0c 3d 1e 1d 65 be 6a b1 98 3d 85 c3 8c be
       0.034219485 -0.22374389 0.07455714 -0.2749292
000120 a0 da d6 3d 16 43 b4 be 81 12 6a be ae 67 74 be
       0.10490918 -0.35207433 -0.22858621 -0.23867676
000130 c8 b3 40 3e 5a ec 31 be 7e 5f 9e 3e 66 b2 e7 3d
       0.18818581 -0.17375317 0.3093223 0.11313324
000140 a0 7c 2f be 06 63 2f be 2f bd 2d 3e 69 00 72 bc
       -0.17137384 -0.17127618 0.16966699 -0.014770606
000150 0b bf 7a be 90 3e 98 3e db ef a7 3e c5 d5 f8 bd
       -0.2448694 0.2973523 0.32800183 -0.12150148
000160 27 37 be 3c 01 f7 a1 bd 68 e4 5a be 59 7b 7d be
       0.023219658 -0.079084404 -0.21376193 -0.24754085
000170 5c 1b d7 3d cf cf 9a be 2a 4e ae 3d 57 52 8e 3e
       0.10503265 -0.3023667 0.08511002 0.27797195
000180 f8 74 05 3e e8 4c ff bd 7c 9f 7e 3d 0d 75 f3 3e
       0.13032901 -0.124658406 0.062163815 0.4755024
000190 03 a7 87 3e b5 f2 e5 bc 89 64 ac be 3c 47 8e 3d
       0.26494607 -0.028069833 -0.33670452 0.06947181
0001a0 6e 55 77 bd 68 81 43 bd 03 0f 1c bc be 10 fb 3d
       -0.060384206 -0.047730833 -0.009525063 0.12259053
0001b0 5a 04 7a be 96 c2 a4 bc 16 fe 1b 3d 0a 19 48 3e
       -0.24415722 -0.020112317 0.038084112 0.19540802
0001c0 40 00 ad 3e 96 87 47 3e 3d 47 67 be 1a f3 8c be
       0.33789253 0.19485316 -0.22585769 -0.27529222
0001d0 fe e7 a7 3e 97 b6 5a be 08 0c 9c 3e de 7d 46 3c
       0.32794183 -0.21358715 0.3047793 0.01211497
0001e0 dc 9f 45 be c8 f2 91 3e b4 c5 82 be a3 fb 4c 3e
       -0.19299263 0.2850554 -0.2554146 0.20017867
0001f0 6d ae 36 3e 34 cc 50 be aa 93 38 be 0d 72 15 3e
       0.17839976 -0.20390397 -0.1802508 0.14594288
000200 fd 29 3d be 4f ba f7 bd 84 0f 26 3e cd 6c 10 bf
       -0.18473049 -0.120960824 0.16216856 -0.56416017
000210 7c 19 f6 bc cc 03 44 3e 36 3b f7 be 33 74 40 bc
       -0.030041449 0.19142073 -0.48287362 -0.011746454
000220 9a ad 07 3e 15 c6 9b bd e4 2f 83 be 4d 99 f9 3d
       0.13249817 -0.076061405 -0.25622475 0.12187443
000230 05 82 80 3e af 32 bc 3e bf f2 67 3e b7 21 4b 3d
       0.25099197 0.3675742 0.22651194 0.0495927
000240 9e 7a a6 39 15 d1 1c 3e 04 4c 21 3e 0f 13 c2 be
       0.00031753344 0.15314133 0.15751654 -0.37905166
000250 34 2e bc bd 45 f8 52 be dd 12 64 be 21 68 a0 bd
       -0.091885 -0.2060252 -0.22272821 -0.07832361
000260 40 b6 ac be 4c c2 bd 3d b2 a2 7a be 20 d4 bd 3d
       -0.33732796 0.09265575 -0.24476126 0.09268975
000270 1f 6c da bd 43 a4 0b 3d a7 9f ba bd 9e 4f 5a 3e
       -0.10665154 0.0340922 -0.091124825 0.21319434
000280 92 09 49 3e 02 0b 10 be c0 7a f8 3d e3 e7 51 be
       0.19632557 -0.14066699 0.12132788 -0.20498614
000290 3b d4 a9 be 33 59 12 3e 56 65 1e 3e 53 37 01 bc
       -0.33169731 0.1429184 0.15468344 -0.0078867255
0002a0 06 9f 29 3e 42 72 51 3d d9 ad 95 bd 57 50 be 3e
       0.16564569 0.051134355 -0.073085494 0.3717067
0002b0 b1 6d 8f be 2e 16 60 be 0e aa 13 bd c3 20 01 3e
       -0.28013375 -0.21883461 -0.03605085 0.12610154
0002c0 6d 93 ef 3c f5 26 c8 bd de 81 b6 be 54 be 6b 3e
       0.029245103 -0.097730555 -0.35645956 0.23021823
0002d0 a2 ca 2b be dd 51 62 be 34 60 5c be d0 ad 0b be
       -0.16776517 -0.22101541 -0.21521074 -0.13640523
0002e0 0b ca eb 3c 80 3a 68 3e 4a af 0a be 83 49 29 be
       0.028782865 0.22678566 -0.1354343 -0.16531949
0002f0 34 20 a1 be fc b5 1d 3e 23 c7 cc 3a d6 2f bc be
       -0.31469882 0.15401453 0.0015623312 -0.36755246
000300 21 95 c4 bd 90 62 35 bd 8f 79 d5 bd cc 6d a4 3e
       -0.095987566 -0.04428345 -0.10423576 0.32115018
000310 a8 20 18 be 9a 8c a4 be 2a e2 30 bb 8f a6 b6 be
       -0.14856207 -0.3213852 -0.0026990273 -0.3567395
000320 50 73 4b bd 12 d3 4a be e6 c9 20 be b6 dd 77 3e
       -0.049670517 -0.1980708 -0.15702018 0.2420567
000330 8f 10 0d bb 31 fd 0c be 29 4e a2 3e 2c a8 04 be
       -0.0021524762 -0.1376846 0.31700256 -0.12954777
000340 33 9f 68 3d 89 de 60 be 5e 83 fd bd 88 fd 60 3e
       0.05679245 -0.2195989 -0.12378572 0.21971714
000350 47 79 c3 3c 39 36 3d bd d7 a3 4c 3e 7c f7 3c be
       0.02386154 -0.04619429 0.19984375 -0.18453783
000360 a3 27 5e 3b 18 be 80 be d6 23 d9 bd 5b 10 8a 3e
       0.0033898137 -0.2514503 -0.10602538 0.26965603
000370 d2 f0 a4 be 5f db 82 be 14 1f a1 3d a3 87 c0 bd
       -0.3221498 -0.25557992 0.07867256 -0.09400871
000380 ef a7 48 be 32 3e 20 3e 66 f3 22 be 32 cb f6 3d
       -0.19595312 0.15648726 -0.15913162 0.12050475
000390 22 03 d2 bd cb 02 a4 3e ca 33 ed 3d 3d dd 06 be
       -0.10254504 0.3203338 0.115821436 -0.13170333
0003a0 15 fb 80 3e 33 12 0b be 2e 25 0f be 48 9d 43 3d
       0.2519156 -0.13581161 -0.13979027 0.047757417
0003b0 cb 11 2f be b1 6f 74 3e 4e d0 5d be f9 eb ce bb
       -0.17096631 0.23870732 -0.21661493 -0.006314751
0003c0 d6 c5 90 3e b3 2a 22 3d 9f 08 48 be e9 b2 26 be
       0.28275937 0.039591502 -0.19534539 -0.16279186
0003d0 19 9e 92 bd 2e 23 5d 3e 5b 90 8b 3d ca dd 06 be
       -0.07159061 0.21595451 0.06814643 -0.13170543
0003e0 2b d0 9b 3d 75 ae 0c 3e fc ee 65 3d 80 42 80 3e
       0.07608064 0.13738425 0.056136116 0.25050735
0003f0 a4 2c 5d 3e b5 58 94 3e 29 28 10 bd 64 47 9d bd
       0.2159906 0.28973928 -0.03519455 -0.07679632

lc_encode.0.bias f4 [32]
000000 ea b3 7c 3c 2f d6 05 be ef 18 69 3e 4a 04 75 be
       0.015423754 -0.13069986 0.22763418 -0.23927417
000010 03 76 82 3e 28 29 81 be c9 78 c2 be 21 ec 2f 3d
       0.2548066 -0.25226712 -0.37982777 0.0429498
000020 08 fe d2 3d 9f c5 a0 be 1d d6 30 3d 64 f2 12 bb
       0.10302359 -0.31400773 0.043172944 -0.0022422308
000030 6f 45 d8 3d de fd 40 3e d4 87 fd bd b4 f9 21 be
       0.105601184 0.18846843 -0.12379423 -0.1581791
000040 37 e1 22 be 41 6a 97 3e 3f 7b 0d 3e e4 5e 82 3e
       -0.15906225 0.29573253 0.13816546 0.2546302
000050 21 ad 99 be 84 31 5d be 48 38 29 be 5f 93 f2 3d
       -0.300149 -0.2160092 -0.16525376 0.11844515
000060 73 6b 85 3e 46 cd 99 3e 41 48 99 3e 97 8f 18 bc
       0.2605854 0.30039424 0.29937938 -0.009311578
000070 e5 52 b2 3e b3 cd 33 be 98 11 ff 3d fd fa 28 be
       0.34828869 -0.17558937 0.124545276 -0.16501994

lc_encode.2.weight f4 [128, 32]
000000 56 d3 77 bd 22 91 0c 3d 1c 07 c4 3d e4 13 47 bd
       -0.06050428 0.034318097 0.095716685 -0.048602954
000010 d3 ae ea 3c d4 dd c9 3d 56 ba a5 3d 4b 31 9f bd
       0.028647816 0.098567635 0.080921814 -0.07773074
000020 19 25 4b 3e 71 8b 15 be b1 88 82 3c f0 28 92 3d
       0.1983837 -0.14603974 0.01593432 0.071367145
000030 2f 09 18 3e 1b 4a 13 3a 7c c6 3d bd 0c a1 46 bc
       0.14847253 0.00056186476 -0.046331868 -0.0121233575
000040 0d 66 d7 bd ed cc b4 3d bb 2e 06 3e ad 82 ef bd
       -0.105175115 0.08828149 0.13103764 -0.11694846
000050 07 ed 99 bd 5b 22 cf 3d e9 c2 eb bd d1 2e 81 3d
       -0.075159125 0.10113975 -0.115117855 0.06307758
000060 b9 bc 3d 3e 3c 7b 43 3e b6 ab 49 3e 77 62 11 3e
       0.18529023 0.19089979 0.19694409 0.14197718
000070 f1 54 49 bd f9 3b a2 3c 0b d3 5b bd 4b 58 8e 3d
       -0.049153272 0.019803988 -0.053668063 0.06950434
000080 1c 67 c5 3d 51 1a 07 be e0 7f 77 3c e0 40 b8 3c
       0.09638807 -0.13193633 0.015106171 0.022491872
000090 87 a7 13 be bc 73 3a be 14 6c e0 bd f4 06 6c 3d
       -0.14419375 -0.18208212 -0.10958114 0.05762382
0000a0 a9 17 bf bd 7f d1 96 3c df c2 27 be 7f 01 08 3e
       -0.09330685 0.018410442 -0.16382931 0.1328182
0000b0 52 b5 ad 3d 5e d9 37 bd bb 1f 1c 3e 17 76 80 bd
       0.0848185 -0.044885032 0.15246479 -0.06272524
0000c0 0f 15 c9 3d bf 6f be 3d 18 83 ea 3b 64 79 10 3e
       0.0981847 0.092986576 0.007156741 0.14108807
0000d0 9c 08 a0 38 d2 2c fd bd 8e 76 f4 3d d5 db 12 be
       7.630998e-05 -0.123620644 0.11936675 -0.14341672
0000e0 e2 7c 24 3e bd 47 0e 3e 5d c2 36 3e f7 18 b1 3d
       0.16063264 0.13894553 0.17847581 0.0864734
0000f0 48 37 22 be 27 83 a5 3c f0 e9 ac bd 64 be 11 3d
       -0.158414 0.02020414 -0.084430575 0.03558196
000100 8c d8 a6 3d 28 d4 f3 bd d5 ab e1 3d aa 85 82 3c
       0.08146772 -0.119057 0.110191025 0.015932877
000110 13 77 81 3d d4 b7 31 bc df 7e a3 3d 2b 2b 01 be
       0.0632154 -0.010847051 0.07983183 -0.12614124
000120 9c 64 af 3d bd 27 b7 bd c9 bb e8 3a d7 28 04 3e
       0.085641116 -0.08943126 0.001775616 0.12906204
000130 c7 bb 2b be b9 a8 6c 3d db 1d 12 3c 5f 31 50 be
       -0.1677085 0.057778094 0.008918251 -0.20331334
000140 51 7a 11 bd a1 a6 3d be 8c 33 79 3d d4 24 31 be
       -0.03551704 -0.18520595 0.060840175 -0.17299205
000150 b6 5c 32 3e 7d 08 8b bc aa eb 4b be 8f 2e 03 be
       0.17418179 -0.016971821 -0.19914117 -0.1281073
000160 fb f4 2c 3d af 13 7c bd 27 85 6d bd 6e 4e e0 3d
       0.04222582 -0.06154221 -0.057988312 0.10952459
000170 6e 3e 3c be f0 19 15 be e1 0e d5 3c a9 ce 59 bd
       -0.1838319 -0.14560676 0.026008071 -0.053175602
000180 84 85 1f be 3f c5 10 be 36 00 12 3e ba a3 81 bd
       -0.15578276 -0.14137743 0.14257893 -0.063300565
000190 36 00 87 3c c4 c6 d9 bc 57 4c ec bc 0a 98 e0 3d
       0.016479593 -0.026584037 -0.028844995 0.10966499
0001a0 26 23 aa bd 70 8d ec bd e3 56 3b bd 45 45 62 3c
       -0.08307485 -0.115504146 -0.04573716 0.01381046
0001b0 92 6e e0 3d 0a 22 e8 3d 1c 22 ad 3d 7c cd f9 3d
       0.109585896 0.113346174 0.084537715 0.12197396
0001c0 4a 7c 12 3e a6 48 3b 3d 1b b0 cc bd 5e 22 1f be
       0.14305225 0.04572358 -0.09994527 -0.15540454
0001d0 f6 fd d1 bb 1a 1e 35 3d e0 19 c8 3d 1d a1 0d 3e
       -0.0064084483 0.04421816 0.0977056 0.13830991
0001e0 e2 29 26 be f1 d9 5c 3d d1 5e 93 3d 50 b2 a6 3d
       -0.16226915 0.053918783 0.07195819 0.08139479
0001f0 be 8a 26 bd 6d 83 0e be fb ba 29 be f9 13 80 bb
       -0.04065966 -0.13917322 -0.16575234 -0.003908631
000200 79 3d 81 3d 3d 38 66 bd 09 cc 50 3d b6 d5 af 3d
       0.06310553 -0.056205977 0.050975833 0.08585684
000210 5d 1b bf 3d b0 d4 bb bc 8d f8 5d 3c 92 a2 87 bd
       0.09331391 -0.022928566 0.013548029 -0.06622805
000220 12 bc 1f 3e ab d7 02 3d 1d d5 30 bd 4f 26 69 bd
       0.15599087 0.03194396 -0.04317199 -0.0569213
000230 fe db 87 bd 07 da d7 3c be b6 29 be 12 2d 63 bd
       -0.06633757 0.02634908 -0.16573617 -0.055462904
000240 55 2e 77 3c db a5 9b ba 55 af 1b 3d 24 10 2a 3e
       0.01508673 -0.001187499 0.038009007 0.1660772
000250 ae aa d7 3d b1 46 03 3e d5 4c a3 bd 5d 1e 27 3d
       0.105306014 0.12819935 -0.07973639 0.04080044
000260 ca c0 3b 3e 9f 3c c5 bd 49 d7 a9 bd 49 ec 45 3e
       0.18335262 -0.09630703 -0.082930155 0.19328417
000270 3a 95 6d 3d 5d 8a 62 bd 3d 48 b2 bc 38 61 ae bd
       0.05800364 -0.055307735 -0.021762962 -0.08514637
000280 a8 ca 99 bd b0 7a cf bd 0d 3d 8d 3d 5a 17 10 be
       -0.07509357 -0.10130823 0.0689641 -0.14071408
000290 64 c7 8a 3d 76 1c 70 bc 3a 5e 13 3e 4e 64 fb bd
       0.06776312 -0.014655223 0.14391413 -0.12274991
0002a0 93 ea 81 3d be 93 e6 3d 4b 4d 0c 3e e1 bb 8c bd
       0.063435696 0.11258648 0.1370136 -0.068717726
0002b0 57 78 cb bd 0b ad 6e 3d 96 30 d8 bb 5b c2 ac bd
       -0.099350624 0.058270495 -0.006597589 -0.08435508
0002c0 ba 52 a4 bd 42 2b 5c 3d b5 3b 22 3d 4a 3e 63 bd
       -0.08023591 0.05375219 0.039607722 -0.055479325
0002d0 6e 99 20 3e f0 3b 14 3e 75 06 2b 3e e5 68 43 3c
       0.15683529 0.1447599 0.16701682 0.011926864
0002e0 21 25 1e 3e 54 37 2a 3c 7a cd fc 3d be 3b 31 bd
       0.15443851 0.010389168 0.12343879 -0.043269865
0002f0 3a d2 c0 bc 13 c8 2e 3e fe 89 2a bd 94 96 0b 3d
       -0.023537744 0.1706851 -0.041635506 0.03407915
000300 dd b5 52 3c 90 b8 4a 3c 23 73 29 3d f1 bc 3b 3d
       0.012860742 0.012373105 0.04136957 0.045834485
000310 8a f3 26 3d d0 cd e6 3d 20 19 77 3d 7d 33 85 3d
       0.0407596 0.11269724 0.060326695 0.06503961
000320 9d 3b 91 bd 20 0e 9f ba 44 01 c1 bd a1 c8 a5 bc
       -0.070914485 -0.0012134947 -0.094240695 -0.020237269
000330 c0 e3 a3 bd d5 a2 a5 bc c1 ab 2b 3d ef 74 b3 3d
       -0.08002424 -0.020219246 0.041911844 0.08762538
000340 20 f5 5e 3d d4 05 47 bd cb c2 34 3d 77 f8 4c bd
       0.05443299 -0.048589543 0.04413108 -0.050041642
000350 83 fe 2c bd 4a 8f f5 3d 93 e6 d9 3c fb 81 8e bc
       -0.04223491 0.11990221 0.026599204 -0.017395964
000360 f0 b3 2c 3d e4 77 f7 3d 86 93 ee bd 22 e7 aa 3d
       0.04216379 0.12083414 -0.116492316 0.08344866
000370 00 7a 88 3d b9 e5 48 3b ee d5 e6 bd 53 2b 8c bd
       0.06663895 0.0030654503 -0.112712726 -0.06844201
000380 b0 12 16 3e 89 8f b8 bd 6e 58 53 3e ae 06 62 3e
       0.14655566 -0.09011752 0.20639202 0.2207286
000390 21 82 37 3d d4 58 aa 3d c7 c1 91 bc 69 c7 1a 3d
       0.044801835 0.08317724 -0.017792596 0.03778783
0003a0 6f 2c f6 bd fd 75 15 3e 5a 30 4e 3d d1 ab 55 3b
       -0.12020194 0.1459579 0.05033908 0.0032603631
0003b0 6a 6f a1 bd 1a 2a 4a 3b 57 3a a0 3d d6 f4 4d 3e
       -0.07882579 0.0030847848 0.078236274 0.20112929
0003c0 ae 61 d8 bd 3c 9d 28 3e 11 7e 8d bc b4 85 bd bb
       -0.10565506 0.1646623 -0.017272027 -0.005783761
0003d0 7b 8e 95 3d b3 22 f4 bb 79 a8 ce 3a 65 9a 54 3e
       0.073025666 -0.0074504255 0.0015766761 0.20762022
0003e0 b1 b2 b5 3c 16 8d 1f be dc 94 83 bd dc 35 4c 3d
       0.022179933 -0.15581164 -0.06424877 0.04985605
0003f0 2e be 27 3d 40 1d 19 3e f5 a4 0e 3e 0a d7 88 bc
       0.040952854 0.14952564 0.13930114 -0.016704101

lc_encode.2.bias f4 [128]
000000 a7 28 50 be a1 ae 1e be 0b dc 8a bd 8b 5d 95 bd
       -0.20328008 -0.15496303 -0.06780251 -0.072932325
000010 50 6a ac 3d f0 66 20 3d 7c 85 81 3d 16 00 08 be
       0.08418715 0.03916067 0.06324288 -0.13281283
000020 1c a6 e6 3c 1e 01 07 3e 46 f9 33 3e 96 b0 e3 bd
       0.028155379 0.1318402 0.17575559 -0.111176655
000030 54 6f 8e bd 28 2f 75 3d 96 30 f1 3d c4 2a 98 bd
       -0.06954828 0.059859425 0.11776845 -0.07430032
000040 0b 2c 12 3e 2c b2 b6 bc 59 be 02 3e 35 65 8c 3d
       0.14274614 -0.022301756 0.12767924 0.06855241
000050 b6 cb c6 bd 0e 6d 9e 3d e6 8b 25 be 11 92 80 3d
       -0.097068235 0.07735644 -0.16166648 0.0627786
000060 ff 1a d1 3d 22 0f 1a bd fc 6a a2 bd 93 f3 c9 3d
       0.10210227 -0.037612088 -0.07930562 0.09860911
000070 63 8d b1 bd 17 e7 86 bd 08 3a d7 3d 16 e2 b3 3d
       -0.086695455 -0.06587046 0.105091155 0.08783357
000080 11 17 a2 3d 83 05 2e 3e 85 f6 82 bb 1c a1 88 bd
       0.07914556 0.1699429 -0.0039966726 -0.06671354
000090 08 06 c0 bc 1e 76 16 be be c5 36 3d 39 a8 5d 3c
       -0.023440376 -0.14693496 0.044622175 0.013528877
0000a0 b2 5d 43 be 55 08 97 bc f6 de 6c bd 9d 21 0d be
       -0.1907871 -0.01843659 -0.05782982 -0.13782354
0000b0 9b f9 34 be 73 38 aa bd ee 35 0a 3d 97 0a 14 3b
       -0.17673342 -0.08311548 0.033742838 0.002258932
0000c0 2c 23 c4 bd 07 79 aa bd eb 1f 2f bd 2e 3d df bd
       -0.09577021 -0.083238654 -0.04275505 -0.10900341
0000d0 bc 8f 01 3e 6e 35 f9 3d d4 a3 14 3d f4 fc 2d be
       0.12652487 0.12168394 0.03628905 -0.16991025
0000e0 07 1d a3 bb 89 ee 52 be 5b d5 a8 3c 57 69 c2 bd
       -0.0049778256 -0.20598806 0.020609548 -0.09492748
0000f0 24 df 52 bd e0 9d 8c bd 44 d8 20 bd 0e a6 a5 bd
       -0.051482335 -0.0686605 -0.039268747 -0.08088313
000100 94 1a 1b 3d dd 17 f8 bc d2 59 f0 3d 16 95 0c 3c
       0.037867144 -0.030284816 0.11735882 0.008580467
000110 76 e1 54 3b 2b de d0 bd c5 3d 05 be 81 52 14 3e
       0.0032483018 -0.10198625 -0.13011844 0.14484598
000120 33 dc 6d bd f2 c0 cf bd fa 1a 00 3e 6a f8 b9 bd
       -0.058071326 -0.10144223 0.1251029 -0.09080584
000130 f3 5d 0a be 67 6c 02 3d 87 40 bc bc 84 4b 53 be
       -0.13512401 0.03184166 -0.022979988 -0.20634276
000140 59 a7 1e bd fe 1c 6f be 79 93 c3 bb ae a7 88 bd
       -0.038733814 -0.23350903 -0.005968508 -0.06672607
000150 87 5f 19 be 65 4a 14 3d 5a 0b b4 3d a1 99 5d bd
       -0.14977847 0.03620376 0.08791228 -0.05410159
000160 14 41 b4 3b 67 9f 1c 3e d8 f4 6d bc 42 9a 64 bd
       0.005500922 0.15295182 -0.014523707 -0.055811174
000170 76 62 ff bd 89 c1 ac bd 91 d8 f7 3c 6d a8 71 3e
       -0.12469952 -0.084353514 0.030254634 0.23599406
000180 ee 46 99 bd 10 e5 c8 3d 56 0e b2 bc 5d d9 95 3a
       -0.07484232 0.09809315 -0.021735352 0.0011432577
000190 da 3d 8e 3d 4e a6 30 3c 6b 66 4d be 55 b5 17 3e
       0.06945391 0.010781838 -0.200586 0.14815266
0001a0 c0 f3 42 bc 83 b6 05 bd 02 19 c8 3d b6 5f d0 3d
       -0.011898935 -0.03264476 0.09770395 0.101745054
0001b0 b6 60 c6 3c 30 ef 2a 3d 61 47 44 3d 3b 7c d4 bd
       0.024216037 0.041732013 0.047919635 -0.103752576
0001c0 83 85 7f 3d c1 d4 54 3d 81 4c 6f 3d 16 0b fa bd
       0.062383186 0.05196071 0.05842257 -0.12209146
0001d0 2f 1e d4 bc b1 8e e9 bd 4b de 3c 3d a4 eb 05 3e
       -0.025893299 -0.11404169 0.046110433 0.13078171
0001e0 95 d9 6e 3c 91 05 15 3e c9 7a 36 3e 80 1f 23 3d
       0.014578243 0.14552905 0.17820276 0.039824963
0001f0 d0 43 f5 3d fc 2a 3f bd 62 fc be 3d 8b 6a 83 bd
       0.11975825 -0.046671852 0.09325482 -0.06416806

convs.0.nn.0.weight f4 [128, 256]
000000 2d 24 97 3d 36 92 58 bb 72 6f 21 3e 2e 02 fc 3c
       0.07379947 -0.0033046133 0.1576517 0.030762758
000010 d5 7b 91 bc 7b d8 58 3c ed 29 ad b9 d6 9c 4b 3e
       -0.017759243 0.013235207 -0.00033028368 0.19884047
000020 d0 98 5c 3d 0d 7e 79 3c 1d e6 5d bd 47 4b 9a bc
       0.05385667 0.015227807 -0.05417453 -0.018834723
000030 4a be e3 3d 49 00 e7 bc 37 01 9b 3c d2 91 4a 3d
       0.11120279 -0.028198378 0.018921478 0.04945547
000040 30 56 4f bc 29 7c c7 bc ee 3f cd bb 8b bf 1c be
       -0.012654826 -0.024351196 -0.0062637245 -0.15307443
000050 60 01 a0 3b 83 21 11 3b 08 dd 67 bb b1 ca 3a bd
       0.0048829764 0.0022145219 -0.0035379548 -0.045603458
000060 4e e6 9a 3a ed a6 16 be 86 3f 70 3d 70 ce 4a bd
       0.0011817904 -0.14712115 0.05865433 -0.04951328
000070 ce 9e 62 3c 46 c5 0b 3e 57 18 a1 bd b1 24 6a 3c
       0.013831807 0.13649473 -0.078659706 0.0142909745
000080 99 0e 05 3d 98 f9 8b 3d 4e b3 c0 3d 71 65 12 bd
       0.032484625 0.068347156 0.094092 -0.035741273
000090 af b7 31 bd 3a fd 44 bd 7c db 05 3d 31 30 2f 3d
       -0.043388065 -0.04809306 0.03268002 0.04277057
0000a0 01 67 da 3d 6e e6 82 3c 57 f2 0c 3d 42 40 c5 bd
       0.10664178 0.015979018 0.0344108 -0.09631397
0000b0 55 3e a5 3c 23 39 1a bc 9c 8e 8a bb c5 ca d9 bc
       0.020171324 -0.0094130365 -0.004228426 -0.026585946
0000c0 27 c5 d3 bc f4 c0 a4 3b 10 f9 a0 bd 5a 97 85 bd
       -0.025850846 0.0050278846 -0.07860005 -0.06523009
0000d0 1f 3d 9d bd a6 d8 5e bb 74 c9 2d bd 29 57 9f 3d
       -0.076776735 -0.0034003644 -0.04242845 0.07780296
0000e0 77 76 c4 bd 83 1c 1b 3d f9 81 41 bd dd fa 5d bc
       -0.09592908 0.037868988 -0.047243092 -0.01354858
0000f0 b9 5c e1 bd 58 90 54 3b 9f 6b e1 bd 7b 91 1a be
       -0.110040136 0.0032434668 -0.11006855 -0.15094559
000100 10 30 fe 3c c6 44 7f 3d 58 64 bf bd a7 e4 82 bc
       0.031028777 0.062321447 -0.09345311 -0.01597817
000110 2a 3d f4 bb dd 19 96 bd b8 af 86 bd 32 18 29 be
       -0.0074535804 -0.07329152 -0.065764844 -0.16513136
000120 04 e5 61 3d 4e 56 bf bc de 02 80 bd da ce d0 3d
       0.055150047 -0.023356583 -0.06250547 0.10195704
000130 2c b9 3c 3d f3 7a 86 3d 92 0f b3 bd 9d 0c ac 3d
       0.04607503 0.065664195 -0.08743204 0.08400843
000140 46 fc 0a 3d 26 b4 cb 3d a0 a7 b8 3a a8 00 01 bd
       0.033931993 0.0994647 0.0014088042 -0.031494766
000150 f5 a4 96 bc 8a 93 ea 3b 0d 92 0e be 9a a7 be bd
       -0.018389205 0.0071587013 -0.13922901 -0.09309311
000160 be 88 29 3d 37 a9 25 3c 58 08 6e 3d f3 0b fe bb
       0.041390173 0.010111145 0.058113426 -0.0077528893
000170 ba 45 a0 bd 64 97 d7 3d 96 21 6d bd b8 5e 6e 3c
       -0.07825799 0.10526922 -0.05789336 0.01454895
000180 e8 29 a7 3c c1 a0 a7 bd 48 dd da ba 57 3a 97 bd
       0.020405725 -0.08184958 -0.0016698027 -0.07384174
000190 2a 2b f1 3d 05 08 01 3b a0 1e fb 3d 75 d9 a5 bd
       0.11775811 0.0019688618 0.12261701 -0.08098117
0001a0 6a 0d 61 bd c4 4b 14 3d b8 59 3b bd fb 75 22 bc
       -0.054944433 0.03620507 -0.04573986 -0.009915824
0001b0 bb b3 bd bd ee f8 72 3d 60 e0 80 bc dc ee 15 3d
       -0.092627965 0.05931943 -0.01573199 0.036604747
0001c0 bf 5d 97 bd d7 00 76 3d db 4d 70 3d c0 07 5d 3c
       -0.073909275 0.060059395 0.058668 0.013490617
0001d0 98 a7 6d bd 14 60 c0 3d bc 5e 3a 3e 79 e2 b3 bd
       -0.058021158 0.093933254 0.18200201 -0.087834306
0001e0 ec 61 44 3d 6c f4 8b bd d7 3f f8 bc 17 54 0a bd
       0.047944948 -0.06833729 -0.030303879 -0.0337716
0001f0 01 4e be 3d b7 5f f5 bb 96 92 c2 bc 74 ce 0e bd
       0.09292222 -0.0074882167 -0.023751538 -0.034864858
000200 db 3e 76 bd aa 0c e5 bd f3 c4 ac bd 99 40 3d bb
       -0.060118537 -0.11184056 -0.084360026 -0.0028877615
000210 61 2e a7 3c 53 b6 0a 3c d9 12 8e 3d a7 a0 56 bc
       0.020407857 0.008466321 0.06937189 -0.013099826
000220 c6 32 b5 3c fd 73 cc 3b af 0b 30 3d 1f 4d ea bc
       0.022118937 0.006239413 0.042979892 -0.028601227
000230 0b ec a2 bc 85 fc 93 bd b6 10 81 bc 60 71 f3 3c
       -0.019887945 -0.07225899 -0.015755039 0.029717147
000240 e3 20 f6 bb 30 5b a8 3c 8d ce 4b 3d 38 f5 c5 bc
       -0.0075112446 0.020551294 0.04975753 -0.024164781
000250 17 65 67 3d 7c 1c f0 bc 7d 98 c5 bc 09 23 13 bd
       0.05649289 -0.029310457 -0.024120564 -0.035922084
000260 a1 62 4f 3d f2 f6 27 3d d2 56 d2 3c c9 b6 7b 3c
       0.05063117 0.04100699 0.025676165 0.015363404
000270 08 eb d8 bc 33 6f f9 bc d3 c6 d3 bb 87 44 95 3b
       -0.02647926 -0.030448532 -0.0064629107 0.0045552882
000280 1e 8b 17 bd 06 b8 6e 3b 2d f7 0c 3d bb f3 59 bc
       -0.036997907 0.0036425604 0.034415413 -0.013302739
000290 00 ef 58 3d 8c b6 8b 3d db 74 99 bc 44 71 fe bc
       0.052962303 0.068219274 -0.018732479 -0.031059869
0002a0 04 34 b0 bc 6e fb 84 3d 98 1b e3 3a 3a 94 f6 3d
       -0.021509178 0.06493269 0.0017326949 0.12039991
0002b0 dc 4b 2f 3c 9f d3 c1 3a 1e 5b 10 be 36 fe ef 3c
       0.010699239 0.00147878 -0.14097258 0.029296022
0002c0 36 08 9c 3c 04 9e 94 bd 48 68 17 3d 13 b9 5e 3d
       0.019046884 -0.072567016 0.036964685 0.05437572
0002d0 17 a7 a0 bd 79 6f a5 bc fb 66 1b 3c 0c 62 89 bc
       -0.0784437 -0.020194756 0.009485002 -0.016770385
0002e0 1c 37 4e 3d cc 16 f5 3c 46 d1 04 3d 0f a5 6e bd
       0.050345525 0.029918097 0.03242614 -0.05826288
0002f0 0b cd 51 be 8e b1 25 3d ec 94 d2 3b 70 2a 73 3d
       -0.20488374 0.040452532 0.0064264443 0.059366643
000300 a7 1a 65 3d 6a 04 02 bb ec a2 cd 3d a7 3c 51 3d
       0.05593362 -0.0019839057 0.100408405 0.051083233
000310 aa 79 08 bd 3c b9 a8 3c 21 97 68 3d ef 74 a7 bc
       -0.033319153 0.02059614 0.056784753 -0.0204415
000320 91 2f 0b bd be d5 36 3d 18 19 30 3d 22 57 87 3d
       -0.03398091 0.044637434 0.04299268 0.06608416
000330 3c 75 da bc 4d 3b bb bc 91 19 b7 3d bb 5a 84 3d
       -0.02666723 -0.022855425 0.08940423 0.06462618
000340 d2 fa 68 3d b7 34 20 bd e9 eb 2a bc e8 94 60 bb
       0.056879826 -0.039112773 -0.010432222 -0.0034268443
000350 f1 82 93 be 7a f4 11 3d 04 f5 97 3d 91 99 79 3e
       -0.28810838 0.03563354 0.0741978 0.24374987
000360 7a 25 c8 bc e8 b6 55 bd 1d 96 11 bd a4 3f 42 3d
       -0.024431933 -0.052176386 -0.03554355 0.047423974
000370 0b cd fc bc 90 98 f2 bc 87 12 a2 3d ba ae 87 bb
       -0.03085949 -0.029613763 0.0791369 -0.004140702
000380 19 d8 b5 bc bd e0 06 3d 13 48 4a 3d 27 bd 80 bc
       -0.02219777 0.03292917 0.04938514 -0.015715195
000390 8b 3b e4 bc af c5 a7 3d 7b 7b 57 3d 24 d6 d7 3c
       -0.027860424 0.08192002 0.052607995 0.026347227
0003a0 4b f0 9a bc 3b 55 8e 3b 4b c7 56 bc ca f1 9b 3d
       -0.018913409 0.0043436564 -0.013109039 0.07614477
0003b0 e4 15 0c bc 30 2e 27 bd 4e 4e b3 3b 60 38 28 bd
       -0.008550141 -0.040815532 0.005471981 -0.04106939
0003c0 51 00 c0 bc a1 3f a0 3b 2f 29 9c bd 0b 2a 54 bd
       -0.02343765 0.0048903977 -0.07625043 -0.051797908
0003d0 cc f1 ba bc bb 07 9b 3b e4 c6 92 bc b1 fc 07 3e
       -0.022820376 0.004731146 -0.017917104 0.13279988
0003e0 2a 82 d4 3a ac ab b1 bc 9c 9d 8e bc 80 9e a5 3b
       0.0016213108 -0.021688305 -0.017409138 0.005054295
0003f0 b6 fe 51 3b 9f e6 f0 bc b5 14 7b 3d 03 2f 45 3d
       0.0032042689 -0.029406844 0.061299045 0.048140537

convs.0.nn.0.bias f4 [128]
000000 42 81 9e bd 80 ff 46 bd cb ab ac ba ba 20 98 bc
       -0.07739498 -0.048583508 -0.0013173757 -0.018570293
000010 4a 83 95 3d 50 f7 d3 3d 47 ad 0e 3e a1 54 94 3e
       0.07300432 0.103499055 0.13933288 0.28970817
000020 09 fe 43 bd 75 bb 16 3d 2b dd f0 3d 9f 70 b7 bd
       -0.04784969 0.036799867 0.117609344 -0.08957028
000030 78 8c 8b bd 47 72 86 3e 8a c5 69 3c aa 8e 41 3e
       -0.06813902 0.26259062 0.014268288 0.18902078
000040 e8 e7 8a bd 56 b1 b5 bd 3c 8d 78 3c a3 44 9c 3d
       -0.06782514 -0.08871715 0.015170392 0.07630279
000050 e4 58 81 bb dd 30 06 3e 4b 0b 0c 3e 23 93 4b 3e
       -0.003947364 0.13104577 0.13676183 0.19880347
000060 48 0a 23 3c b6 e0 b7 3d 28 8c 93 3e 98 7c 0d 3e
       0.009951182 0.08978407 0.28817868 0.1381706
000070 73 db a2 3b af c3 25 3d 3f 80 cb 3c aa a8 3b 3e
       0.004970008 0.04046982 0.024841426 0.18326059
000080 e5 91 29 bd a1 37 a8 3e 04 cf c2 bd 1c dc dd 3b
       -0.0413989 0.3285494 -0.09512141 0.006770624
000090 0f 2c 87 3d 6b 6f 95 3d e0 1f 15 bd 1c 9f 73 3d
       0.066002004 0.07296642 -0.03640735 0.05947791
0000a0 bb 68 bd 3c 34 43 c8 3d 13 a7 23 3c 79 6d 83 3d
       0.023121228 0.09778443 0.009988564 0.064173646
0000b0 9e 5d 02 3e 4c 88 84 3d ba 0b fe bc d6 b2 1a 3e
       0.12731025 0.06471309 -0.031011451 0.15107283
0000c0 9f 07 a7 bc 7f 5d 29 3d a4 d2 45 3e 3b 10 d3 3a
       -0.020389376 0.04134893 0.19318634 0.001610286
0000d0 a8 a0 db 3d 38 55 22 3c 54 41 c3 bb 04 5f 58 bd
       0.10724002 0.009908013 -0.0059587155 -0.05282499
0000e0 72 62 0b be d9 5c 59 3d 16 30 e6 3d b4 df 3e 3d
       -0.13611773 0.053067062 0.112396404 0.04660006
0000f0 a4 2b e5 3d 45 a7 02 bd 0d 21 50 3e 7e 30 1b be
       0.111899644 -0.031897802 0.20325108 -0.15155217
000100 d1 9e d6 3a 0c 6f 72 3c a7 d8 dd bc 16 93 7f 3c
       0.0016374235 0.014796983 -0.027080847 0.015599033
000110 97 b3 85 3d 70 ca ce 3d 87 6a 77 3d 3f 7a b0 3d
       0.06528395 0.10097206 0.060404327 0.086170666
000120 6a 48 16 3e 72 1c 87 3c b4 6c 77 3d 9b cf 2e bd
       0.14676061 0.016493056 0.0604064 -0.042678457
000130 61 ea c2 bc 69 dd 51 3e 30 ee dc 3d b5 cd 5a 3e
       -0.023793401 0.20494618 0.10787618 0.21367534
000140 4b c7 16 3e 28 40 93 bd e8 06 94 3e 6c e5 18 3d
       0.14724462 -0.07189971 0.2891152 0.03732817
000150 74 da 13 3d f6 a7 f1 3d 3b 73 81 bd 04 9e 56 bc
       0.036097005 0.11799614 -0.063208066 -0.013099197
000160 b2 e5 3a 3d bd a4 43 3c 24 5f ec bb 2d 8e ff b9
       0.04562921 0.011941132 -0.00721349 -0.0004874332
000170 b0 07 2e bd f7 ff 38 3d a8 f0 e4 bd 90 ef 02 3d
       -0.0424878 0.045165982 -0.11178714 0.031966746
000180 14 3d b8 3d 6f 96 76 bd b0 1b b3 3d c2 ba 27 3e
       0.08996025 -0.06020206 0.08745515 0.16379836
000190 02 26 b6 3e 01 90 96 bc df 68 24 3d b0 9a 91 3d
       0.35575873 -0.018379213 0.040139075 0.071095824
0001a0 71 fe 7c ba a9 8e c2 3c 11 16 4e bd 6b 16 fa bc
       -0.0009650952 0.023749666 -0.050314013 -0.030528268
0001b0 31 d8 89 3e 8c 2b c3 3d 62 fa 99 bd 9f 3a 95 3e
       0.26922753 0.0952979 -0.0751846 0.29146287
0001c0 47 eb 0c 3e 70 3e d9 bb d6 7e 54 bd ab e2 1a 3d
       0.13761626 -0.0066297576 -0.051878773 0.037813824
0001d0 49 45 f3 3c 13 86 84 3c b8 2c 8c bc 49 dd 15 3d
       0.029696124 0.016177213 -0.017111167 0.036587987
0001e0 94 67 4f 3d cd f9 56 39 6e 9a fa 3c 42 b0 8d 3d
       0.05063589 0.00020501688 0.030591216 0.06918384
0001f0 37 91 69 3e 48 4c 7f bd f9 6d d0 3c a1 31 2b bc
       0.22809301 -0.062328607 0.025443064 -0.010448844

convs.0.nn.2.weight f4 [128]
000000 d1 a9 4e 3f 6e bb 8f 3f 89 34 82 3f 3b f4 48 3f
       0.8072787 1.1229074 1.0172282 0.78497666
000010 fa 6f 63 3f 38 50 83 3f 08 20 44 3f 2b ce 56 3f
       0.8884274 1.0258856 0.76611376 0.8390834
000020 80 ea 6a 3f 95 ff 4b 3f 84 dd 47 3f b3 24 61 3f
       0.9176407 0.7968686 0.7807238 0.87946624
000030 f7 fa 74 3f 6e 78 54 3f 6d 93 69 3f 6e 18 54 3f
       0.9569544 0.8299626 0.9124058 0.82849777
000040 44 83 80 3f 33 d3 7d 3f bf cc 80 3f c4 bb 6d 3f
       1.0040059 0.9915039 1.0062484 0.9286463
000050 de a3 46 3f 13 68 57 3f d2 46 74 3f 69 51 47 3f
       0.7759379 0.8414318 0.95420563 0.778586
000060 d2 cf 5f 3f 38 b3 63 3f 65 d1 48 3f 3c f5 3e 3f
       0.87426484 0.8894534 0.7844451 0.7459295
000070 dd 1c 46 3f 1f d4 70 3f 8e c2 41 3f c5 d5 5a 3f
       0.7738779 0.9407367 0.7568749 0.85482436
000080 1b a8 50 3f 27 3c 3b 3f fb e0 74 3f fb d1 8b 3f
       0.8150651 0.7313866 0.9565579 1.0923456
000090 42 6c 73 3f ba 2e 60 3f 3d 68 5d 3f 19 20 69 3f
       0.95087063 0.875713 0.8648718 0.910646
0000a0 92 87 66 3f 90 51 4e 3f f9 25 61 3f 3f 4a 5a 3f
       0.90050614 0.80593204 0.87948567 0.8526954
0000b0 fc 81 56 3f 63 ff 58 3f d5 27 80 3f c6 54 77 3f
       0.8379209 0.8476469 1.0012156 0.9661373
0000c0 31 59 87 3f 4f b3 51 3f 2b d2 55 3f 99 45 86 3f
       1.0574094 0.8191423 0.83523816 1.048999
0000d0 a0 d6 64 3f 5d 98 54 3f 35 bd 64 3f 60 46 55 3f
       0.8938999 0.8304499 0.89351207 0.8331051
0000e0 4f d1 a0 3f ea 8a 56 3f ae 8d 62 3f 58 4b 57 3f
       1.2563876 0.83805716 0.88497436 0.8409934
0000f0 a8 fe 60 3f e7 1c 8e 3f f0 ab 4c 3f b8 62 89 3f
       0.87888575 1.110257 0.79949856 1.0733252
000100 b3 5a 81 3f 76 4d 77 3f f1 a3 69 3f d5 dd 78 3f
       1.0105804 0.9660257 0.9126578 0.9721349
000110 d2 91 7d 3f b0 21 4d 3f 9e a3 7a 3f 1d 33 88 3f
       0.9905063 0.8012953 0.9790591 1.0640599
000120 a8 ea 44 3f d9 ac 74 3f 97 7f 7b 3f 98 60 71 3f
       0.7692056 0.95576245 0.9824156 0.94288015
000130 49 cf 3d 3f e8 ef 4a 3f 19 f3 61 3f d4 81 34 3f
       0.7414442 0.7927232 0.8826156 0.705106
000140 e1 37 60 3f b3 fd 7b 3f fc 1b 53 3f 03 eb 7b 3f
       0.87585264 0.9843399 0.82464576 0.98405474
000150 b9 07 6a 3f 01 58 51 3f 6b 3a 86 3f b0 42 7a 3f
       0.91418034 0.8177491 1.0486578 0.9775801
000160 11 1f 51 3f b3 3b 72 3f 90 f0 76 3f 70 b2 7e 3f
       0.8168803 0.94622344 0.9646082 0.99491024
000170 74 96 74 3f c3 02 8f 3f c6 69 89 3f 43 09 78 3f
       0.95542073 1.1172718 1.0735404 0.9688913
000180 c0 ff 6b 3f 7c 2e 67 3f a6 b8 4e 3f d3 af 56 3f
       0.9218712 0.90305305 0.807505 0.83862036
000190 3d 88 4f 3f fd df 88 3f 5d b4 66 3f 0d 1c 73 3f
       0.8106726 1.0693356 0.9011896 0.9496468
0001a0 89 90 7d 3f be a9 86 3f 44 e8 69 3f f4 d7 7d 3f
       0.9904867 1.0520551 0.91370034 0.99157643
0001b0 a9 6f 48 3f 5d 91 5d 3f 10 f6 7c 3f 65 b6 4a 3f
       0.7829538 0.8654993 0.9881296 0.7918456
0001c0 05 d6 4d 3f 3b d8 45 3f 5d f8 71 3f 43 10 81 3f
       0.8040469 0.77283067 0.945196 1.0083088
0001d0 be 7f 4d 3f 4f 08 4e 3f bd 69 76 3f 39 ed 35 3f
       0.80273044 0.8048143 0.96255094 0.710651
0001e0 d3 5a 72 3f 51 d6 62 3f 5b af 4d 3f b6 68 71 3f
       0.94669837 0.8860827 0.80345696 0.943004
0001f0 b2 82 46 3f 99 1f 77 3f d7 6d 71 3f 41 d9 80 3f
       0.77543175 0.9653259 0.9430823 1.0066301

convs.0.nn.2.bias f4 [128]
000000 7f 5d 93 b9 50 0a d6 bc 2f bb 16 bc ce dd 36 be
       -0.00028107685 -0.026127964 -0.0091999015 -0.1785805
000010 ea 28 2f 3d 9c 3a 56 3c 1c 6f a4 bd c7 a7 fc 3c
       0.042763628 0.013075497 -0.08029005 0.030841721
000020 ed 65 63 bd e1 6c 34 be 2a 0f 24 bc 6e de 93 bc
       -0.055517126 -0.17619659 -0.010013381 -0.018050399
000030 53 50 aa 3d 5d 8c c0 bd 5f 8f 11 be 66 27 db 3c
       0.08316102 -0.09401772 -0.14214848 0.026752185
000040 78 a8 1d 3d 06 9e 9b bd f3 a9 ec bc 3a 55 ae bc
       0.038490742 -0.075985 -0.028889632 -0.021280874
000050 3b 18 cf bd fd 97 6e 3d 0a 27 81 bc f3 48 97 bc
       -0.101120435 0.058250416 -0.015765686 -0.018467402
000060 9b 7d 88 bd ad 52 18 3d 45 43 03 be ce cb 6d bd
       -0.06664582 0.03718822 -0.1281863 -0.05805569
000070 a9 c5 26 3d c9 72 8b bd 20 a6 dd bd 07 c5 b8 bd
       0.040715847 -0.06809003 -0.108227015 -0.09021955
000080 c8 22 2d be 21 7d cb 3c 0d 55 ef bd c0 47 a9 3d
       -0.16907799 0.02483994 -0.11686144 0.08265638
000090 df 70 03 bd 63 19 a7 bc 7f 5b 2b 3b 08 8b 24 bd
       -0.032090064 -0.020397848 0.0026147065 -0.040171653
0000a0 6c cd f9 3c b9 ff 10 be 85 77 27 be 9f 03 3f bd
       0.03049346 -0.1416005 -0.16354187 -0.046634313
0000b0 59 45 d9 bd 6a 8e f9 bd 2e 8b 1a be e2 9b 8e 3d
       -0.1060893 -0.121853665 -0.15092155 0.06963326
0000c0 a2 ce a4 bc cd a3 76 bd c8 bb e6 3d f4 b6 14 be
       -0.020118061 -0.060214806 0.11266285 -0.14522916
0000d0 15 8b ae bb 80 12 d2 bc 62 01 e6 bd 42 05 37 be
       -0.0053266385 -0.025643587 -0.112307325 -0.178731
0000e0 b8 95 0d be 64 be 02 bd ad 6e 23 3d d7 22 0a bd
       -0.13826644 -0.031919852 0.03990047 -0.033724632
0000f0 91 c8 8c 3d 9a 6d 17 be 7c 49 99 bd b2 75 92 be
       0.068741925 -0.14787903 -0.07484719 -0.2860542
000100 a4 c0 02 be 56 0e 45 3c 15 60 11 be de b4 0f 3c
       -0.12768799 0.012027344 -0.14196809 0.008771149
000110 1b fc 93 bd 82 b6 66 bd c5 08 21 3c e4 2a 8a 3c
       -0.0722582 -0.056326397 0.009828751 0.016866155
000120 87 90 2f be d2 f9 30 bd f6 ea ed bc 0c 5a 39 be
       -0.17144977 -0.043206997 -0.029042702 -0.18100756
000130 a9 17 f4 3b 46 65 70 bd fd 93 ea 3c fc f5 ba bd
       0.0074491096 -0.058690332 0.02863502 -0.09128949
000140 29 90 24 bd 54 c2 7b bd 4b b0 8a 3c fd a9 08 3d
       -0.040176544 -0.061464623 0.016929766 0.03336524
000150 a3 66 af bd 7f 54 fe 3c 2c 68 3a be 98 70 3c 3d
       -0.08564498 0.03104615 -0.18203801 0.046005815
000160 91 9e ee bc a6 b5 82 bc 5c 28 5b bc 6d 4e f6 bd
       -0.029128345 -0.015955757 -0.013376322 -0.12026677
000170 cf a6 00 be 16 9b 0d be 0b 25 1e be 0d 01 7d 3c
       -0.12563632 -0.13828692 -0.15443818 0.015442145
000180 5f ab 2a bc 78 af ba 3d 40 fa b8 ba 9e bc d6 3d
       -0.010416835 0.09115499 -0.0014112666 0.104851946
000190 44 34 bc 3d b9 63 60 ba 7d ce 4c be a3 84 e8 bd
       0.091896564 -0.00085597817 -0.20000644 -0.113534234
0001a0 72 2d 93 3c 6d 35 b6 bc 42 91 f5 3b c9 db dd bd
       0.017966006 -0.022242272 0.0074941227 -0.10832936
0001b0 39 d0 9d bd fa 1e b1 bd 40 9f 44 3c a6 b8 19 3d
       -0.07705731 -0.086484864 0.012000859 0.03752961
0001c0 9d 38 d3 bd 04 be d9 bd 9e bb cc bd 7b b0 d3 bd
       -0.103135325 -0.10631946 -0.09996723 -0.10336395
0001d0 31 87 a5 bb 0e 3b 47 be 48 1e 96 bd 0b 26 29 be
       -0.0050515165 -0.19456121 -0.073299944 -0.16518418
0001e0 89 68 29 bd fb 49 64 bc 40 86 7b 3c f1 be 1d be
       -0.041359458 -0.013933654 0.015351832 -0.1540487
0001f0 29 bb 37 3d 61 5b 68 bd 8f 2a 2b bc 0d ec 14 be
       0.044856224 -0.05672777 -0.0104471585 -0.14543171

convs.0.nn.2.running_mean f4 [128]
000000 a7 47 6b 41 b0 08 28 40 20 54 52 40 0e 55 31 41
       14.704993 2.6255302 3.2863846 11.083265
000010 c2 a7 73 40 88 32 32 40 1e 5b a4 40 9f 00 88 40
       3.8071141 2.7843342 5.1361227 4.250076
000020 b2 fb 7f bf fa b6 eb 40 54 72 64 40 b7 be 69 41
       -0.9999343 7.366086 3.569478 14.609061
000030 23 f4 7f bf b0 41 92 40 a7 3d 72 41 f5 cb 8d 40
       -0.999819 4.5705185 15.140052 4.431147
000040 5e 36 5d 40 3f e8 88 40 47 62 20 40 aa c3 89 40
       3.4564433 4.2783504 2.5059984 4.305135
000050 79 71 fc 40 f3 da 43 40 01 46 55 40 13 ae a6 40
       7.8888516 3.0602386 3.3323977 5.2087493
000060 30 fb 7f bf 27 f7 30 40 c7 0d 8f 40 ba 8d cb 40
       -0.99992657 2.765085 4.470432 6.3610506
000070 cf 0d 46 41 6e 6a 69 40 bc 59 62 bf c9 d1 b3 40
       12.378371 3.647121 -0.88418174 5.6193585
000080 23 dd 7f bf 6c 85 a6 40 90 ff 7f bf 0c 42 71 40
       -0.999468 5.203787 -0.9999933 3.7696562
000090 fd 75 6f 40 1f 05 ac 40 7d f7 7f bf 3a df 76 40
       3.7415764 5.375625 -0.9998701 3.8573747
0000a0 df e7 7f bf d9 88 05 41 55 13 45 40 51 73 48 40
       -0.9996318 8.34591 3.079305 3.1320384
0000b0 47 68 bd 40 6d d8 61 40 e1 e0 4f 40 93 a0 7c 40
       5.918979 3.5288346 3.2481005 3.9473007
0000c0 1d 5d 16 40 3f 95 b4 40 97 b7 7b 40 91 bb e1 3f
       2.3494332 5.6432185 3.9330804 1.7635366
0000d0 fc 15 03 41 43 44 65 41 ed 14 32 41 66 86 81 41
       8.192867 14.329165 11.130109 16.190624
0000e0 51 a4 81 41 cf 48 05 41 3f 70 a0 40 f6 db 92 40
       16.205233 8.330276 5.013702 4.5893507
0000f0 13 1c 77 40 9e 0d 46 41 97 88 c9 40 be 5f 77 41
       3.8610885 12.3783245 6.2979236 15.460875
000100 2c 44 78 41 4a 2e 15 40 1b 42 23 40 5c f9 7f bf
       15.516644 2.3309503 2.5509098 -0.9998987
000110 11 8a 51 40 90 01 e0 40 a7 4d 55 40 01 f8 59 40
       3.274052 7.0001907 3.3328645 3.405762
000120 40 b0 ad 40 84 c4 68 40 b9 24 a4 40 0d fb 7f bf
       5.427765 3.6369944 5.1294827 -0.9999245
000130 ee 88 03 41 6c 5f c1 40 bc 73 94 40 e7 a3 00 41
       8.22093 6.042898 4.6391277 8.040015
000140 f4 b5 c8 40 a1 ff 7f bf b8 d3 8f 40 23 43 4c 40
       6.272211 -0.99999434 4.4945946 3.1915977
000150 25 f3 7f bf 4a 6d 97 40 cc da 68 41 76 f4 7f bf
       -0.99980384 4.732091 14.553417 -0.9998239
000160 bc fb eb 3f c5 a0 68 40 54 45 47 40 e7 ef 7f bf
       1.8436198 3.6348126 3.1136065 -0.99975437
000170 a6 fd 7f bf 9e 6a 21 40 3b 3d a9 3f 52 dd 7f bf
       -0.9999641 2.5221324 1.3221811 -0.99947083
000180 c8 1b d8 40 e5 f4 7f bf eb f4 ca 40 3e 61 88 40
       6.7533913 -0.99983054 6.342397 4.2618704
000190 32 91 97 40 21 ff 7f bf eb b0 96 40 24 ac 9e 40
       4.736474 -0.9999867 4.7090964 4.9585133
0001a0 de f1 7f bf 62 f9 6d 40 bf fb 7f bf c1 f6 7f bf
       -0.99978435 3.718346 -0.9999351 -0.9998589
0001b0 67 a3 d4 40 fd a3 d7 40 bb f6 7f bf 9d 72 68 40
       6.6449466 6.738768 -0.99985856 3.6319954
0001c0 08 e0 82 40 7c 67 42 41 fa eb 89 40 f3 38 78 3f
       4.0898476 12.150265 4.3100557 0.969619
0001d0 d6 79 e2 40 6b be 57 40 75 fe 7f bf 60 56 3b 40
       7.0773726 3.3709972 -0.99997646 2.927147
0001e0 6d cf 61 40 63 3e ea 40 d1 93 1e 41 10 78 85 40
       3.5282853 7.3201156 9.911088 4.170906
0001f0 da 66 9e 40 4f fe 7f bf 89 64 a3 40 01 b6 77 3e
       4.950055 -0.9999742 5.1060224 0.24190523

convs.0.nn.2.running_var f4 [128]
000000 86 8d e0 40 3a b6 8c 3f 11 bd 59 40 3c d8 c0 40
       7.017276 1.0993111 3.4021647 6.026396
000010 a8 a3 6c 3f c4 c1 a3 3f 1b 34 fa 40 d3 dd ce 40
       0.9243722 1.2793508 7.8188605 6.464578
000020 d1 d2 f4 3a bf 44 8f 40 ab e2 3c 40 91 03 17 41
       0.0018678551 4.477142 2.9513347 9.438371
000030 7c 13 56 33 7a 43 d6 40 cd ed 30 40 0f cd 29 41
       4.984348e-08 6.695737 2.7645142 10.612563
000040 d5 79 54 40 c6 89 b1 3f 14 e1 8f 3f 06 10 9f 3f
       3.319936 1.387017 1.1240563 1.2426765
000050 16 b7 31 41 36 63 64 40 5a de 92 3f 0d f2 04 40
       11.107199 3.5685554 1.1474106 2.0772736
000060 3c 9b 86 3b 05 7a 31 3f dc 08 e4 40 5e 0f d6 40
       0.004107861 0.6932681 7.1260815 6.689376
000070 d9 19 c7 40 e7 03 9d 3f 23 f7 f7 3c dc 10 2a 40
       6.221905 1.2266816 0.030269211 2.657279
000080 f9 9a 33 3c b5 ed 06 41 e0 71 6c 2d c9 95 a3 3f
       0.010962241 8.433034 1.3440332e-11 1.2780086
000090 67 c6 e2 3f 4a 8b a1 3f fb bd 5f 3b 70 8e ab 3f
       1.7716798 1.2620633 0.0034140337 1.3402843
0000a0 65 0e ca 34 c7 95 2b 41 43 db a8 3f de d4 7f 3f
       3.7635905e-07 10.724067 1.3191913 0.99934185
0000b0 c2 91 e6 40 c3 4d 54 40 0e df 0c 40 e0 11 2e 3f
       7.2052927 3.3172462 2.2011142 0.67996025
0000c0 86 ae 9b 3f 8c 91 a3 3f 91 94 3b 3f 4c 52 fe 3f
       1.2162635 1.2778792 0.7327357 1.9868865
0000d0 23 26 40 40 b4 05 85 40 00 29 19 40 61 3a 5f 40
       3.0023277 4.156946 2.3931274 3.4879382
0000e0 85 58 94 3f bb 07 b5 40 99 5f c2 3f 19 6f f6 3f
       1.1589514 5.6571937 1.5185424 1.9252654
0000f0 5d 69 e1 40 31 2f 6d 40 37 0a e4 40 ee ee 44 3f
       7.0441117 3.7060053 7.126247 0.7692708
000100 95 e1 f0 3f b4 8c 52 3f 9b 74 e8 3f b8 6d c2 32
       1.8818842 0.82245946 1.8160585 2.2634467e-08
000110 26 30 a5 3f 38 b2 30 40 2c 66 b3 3f 13 c0 07 40
       1.2905319 2.7608776 1.4015555 2.1210983
000120 ee 4e bc 40 2a 1c c6 3f 6d 45 23 40 8e 70 4a 31
       5.884635 1.5477345 2.5511124 2.9458849e-09
000130 0b 3f 76 40 39 a8 91 40 9b f1 ba 3f c2 11 4f 41
       3.8475978 4.551785 1.4604982 12.941835
000140 eb 1a 22 40 8d e5 e0 2c d9 5f 22 41 c2 d6 80 3f
       2.532893 6.391948e-12 10.1484 1.0065539
000150 36 7d 01 3c 6e b0 18 40 d3 5a 0f 40 4a 9a 5b 32
       0.007903388 2.3857684 2.2399185 1.2782559e-08
000160 b8 fd 63 40 a6 23 b2 3f af f0 b9 3f 31 9d 63 3b
       3.5623608 1.3917129 1.4526576 0.0034731145
000170 33 94 95 2f 66 56 7a 3f da 1c 65 3f bd 90 22 35
       2.7208244e-10 0.97788084 0.8949715 6.0560325e-07
000180 f6 6d 5c 40 e9 bb 89 33 34 c8 c1 40 b9 bd 81 3f
       3.4442115 6.41374e-08 6.055689 1.0136024
000190 09 43 10 40 63 4e 5a 30 11 c4 08 40 fd 7a d7 3f
       2.2540915 7.941933e-10 2.136967 1.6834408
0001a0 09 cb d8 32 c4 47 41 40 6b e5 8f 3b f4 9e fb 3b
       2.523804e-08 3.0200052 0.0043913624 0.007678861
0001b0 a6 ee 3b 41 46 73 65 40 4e a6 64 31 c9 40 d4 40
       11.745764 3.5851607 3.32729e-09 6.6329083
0001c0 49 21 4b 40 e3 2b 63 40 d8 c9 fe 3f c6 4e 34 3f
       3.1739066 3.5495536 1.9905348 0.704327
0001d0 2e 8e 1b 41 0d f4 b8 3f f6 48 e2 2e de 98 50 3f
       9.722212 1.4449478 1.02902506e-10 0.81483257
0001e0 68 db bb 3f e8 ca 73 40 55 cf 08 40 79 19 a3 3f
       1.4676332 3.8092594 2.1376545 1.2742149
0001f0 bf 6e da 40 95 13 9f 2f cc 21 d1 3f 04 7c ea 3e
       6.826019 2.8935845e-10 1.6338439 0.4579774

convs.1.nn.0.weight f4 [128, 256]
000000 c5 ee 2c 3d 6a 2a ea bc 7c 27 2d 3d 58 f7 9e 3d
       0.042219896 -0.028584678 0.042273983 0.07762021
000010 e4 60 db 3d 2e 39 92 bc 1e e5 b1 39 14 f2 07 bb
       0.1071184 -0.017849531 0.00033930776 -0.0020743655
000020 85 e0 fa bc 69 e3 13 3e a6 03 1b 3d 59 2b f3 3c
       -0.030624637 0.14442219 0.037845276 0.029683756
000030 76 19 94 3d d2 9d 60 bd 97 de 6c 3b 61 91 2b 3e
       0.07231419 -0.05483801 0.0036143416 0.16754676
000040 1a 91 4b bc 07 bd 92 bd 4d f1 fb 3c 65 07 fb bc
       -0.012424732 -0.0716496 0.03075471 -0.030643174
000050 b7 09 8f 3d e5 55 16 be 35 04 5c 3c ba 19 45 3d
       0.06984275 -0.14681204 0.013428737 0.048120238
000060 3e a9 c1 bc a7 1e 3a 3d 15 4e 30 3d da 56 53 bd
       -0.023640271 0.04543939 0.043043215 -0.0515965
000070 c5 9d ca 3d bd 02 db 3c 94 3e 37 bd e0 14 13 3b
       0.098933734 0.026734704 -0.044737414 0.0022442862
000080 1d 67 fd bc 05 6e 9b bd 89 a6 46 3e de 98 03 bd
       -0.030932957 -0.07589344 0.19399466 -0.032128207
000090 c1 af 05 bd 9e 0f 81 3d 1f ca cc ba 3e fd de 3d
       -0.032638315 0.06301807 -0.0015624202 0.10888146
0000a0 87 b2 0d bd b9 d4 f6 bd 31 ef 36 3d de 33 c2 bd
       -0.034594085 -0.120522924 0.044661704 -0.09482549
0000b0 70 a9 ee bc 1c 67 b6 bb 22 24 a2 3b a0 e4 30 bd
       -0.029133528 -0.005566491 0.004948155 -0.043186784
0000c0 4b b5 fe bb 7a 1c 0e 3c 66 fc 03 be b9 79 e5 bb
       -0.0077730766 0.0086737815 -0.12889251 -0.007003036
0000d0 19 ce 92 3d c0 7e 8c bc f9 a0 72 bd 4a d5 c8 3d
       0.07168216 -0.017150283 -0.059235547 0.09806307
0000e0 34 a5 06 3e 5a a5 9c bb d9 3c 93 3d 69 a4 13 3d
       0.13148957 -0.0047804536 0.0718934 0.036045466
0000f0 8f db 63 bd 15 6c 56 3e b1 49 30 be cd 91 01 3e
       -0.05562931 0.20939668 -0.17215611 0.12653275
000100 53 c7 55 3e 0b b3 2d bb dc 28 20 3c 6d 62 16 bd
       0.20876817 -0.0026504423 0.009775367 -0.03671496
000110 40 06 8d bd f5 1c 01 3d 4f 9d 01 bd fa a6 93 bd
       -0.06885958 0.031521756 -0.03164416 -0.072095826
000120 c6 81 6e 3d bd 42 c6 3a 8f 97 02 3e 08 6d 70 bd
       0.05822923 0.0015126091 0.12753128 -0.05869773
000130 7f 81 54 3d 57 73 83 bc 8a db ae bc 11 9c 19 3d
       0.05188131 -0.01604621 -0.021344919 0.037502352
000140 10 9f e0 3b 85 53 42 3d 45 f2 b0 3d 4b 52 7b bd
       0.006854899 0.04744293 0.08639959 -0.061357778
000150 f2 8e 06 bd 44 af d9 bd 63 8f 42 3e a0 be 93 b9
       -0.032851167 -0.106291324 0.1900001 -0.00028180052
000160 b9 c2 e6 bc 0e 2f be bd ad 91 48 3c f3 c1 c8 bc
       -0.028169023 -0.09286319 0.012241763 -0.024506545
000170 84 73 24 bd 7f 2d 09 bd 88 a0 09 3c 28 65 5f bb
       -0.040149227 -0.033490654 0.00840009 -0.0034087393
000180 bf 13 65 bd 89 ea 0e bd 7c 29 ed b8 96 e9 44 3d
       -0.055927034 -0.03489164 -0.00011308768 0.048074327
000190 ad 52 90 bc 3b d6 f3 bd 17 09 a6 3d fb 59 03 bd
       -0.017617548 -0.119060956 0.081072025 -0.032068234
0001a0 e9 d4 7d 3d a2 7c 34 bc 0c 39 e3 bc 0f dd cf 3c
       0.061970625 -0.011016043 -0.027737163 0.025373964
0001b0 b5 11 9b bd c9 38 29 3b dc ac 7c bd f5 d1 e9 3d
       -0.07571737 0.00258212 -0.06168829 0.11416999
0001c0 3d 42 2a be fe d8 10 3d 36 e7 0d bd e8 01 17 3d
       -0.1662683 0.03536319 -0.034644328 0.036867052
0001d0 9e fe 05 3d 5e 6c 0c bc 4b cc 8c 3d 41 31 1d 3d
       0.032713525 -0.008570759 0.06874903 0.03837705
0001e0 c7 a2 89 bc e7 26 5e 3d 31 6a 72 bd 11 26 44 3c
       -0.016801251 0.05423632 -0.059183303 0.011971966
0001f0 87 a3 60 bc d5 a6 e2 bc 7e 62 a6 bc 86 a8 cd bd
       -0.013710863 -0.027667442 -0.020310637 -0.10041909
000200 77 fa 75 bc b0 25 56 3d be a3 24 3e 0c 51 a8 bc
       -0.015013329 0.052282035 0.16078088 -0.020546459
000210 9f ad 85 bd 5f c1 a3 bc 16 26 0c bb 12 49 17 3d
       -0.06527256 -0.019989667 -0.0021385006 0.03693492
000220 60 21 4b bd 0c 67 32 bc e2 92 63 3d 60 79 ee bc
       -0.049592376 -0.010888826 0.05556 -0.02911061
000230 2d 64 1c bd db b3 a8 bc 6e 18 1a 3d 0d c1 05 bc
       -0.038181473 -0.020593574 0.037620954 -0.008163703
000240 8f 23 01 3d 1c 9b 8b bc 2e b4 22 3c 17 57 27 3c
       0.031528052 -0.017041735 0.0099306535 0.010213635
000250 0b b9 41 3d e7 4e 28 3d 55 b5 aa bd ef c5 b2 bb
       0.04729561 0.041090872 -0.083353676 -0.0054557244
000260 b3 96 8f bc 2b 5f 7b bd 7a 66 16 3d f5 88 e4 3d
       -0.017527914 -0.061370056 0.036718823 0.11158935
000270 44 60 2d bd 38 0b ac 3c 68 6d 85 bc 8f 8d dc ba
       -0.042328134 0.021001443 -0.01628752 -0.0016826856
000280 62 15 bb 3c 7c 94 e0 bc c9 9d cc bb c6 30 b7 bd
       0.022837345 -0.027414553 -0.0062443954 -0.0894485
000290 9e f8 38 bc 22 e6 8b 3c bc 7e ee bc 8e 81 83 bc
       -0.011289744 0.01707751 -0.029113166 -0.016052987
0002a0 96 5d e2 3c e4 68 6d 3d 1a 11 70 3d 69 35 af bc
       0.027632516 0.05796136 0.05861006 -0.021387773
0002b0 b3 42 c4 bc e8 be 34 3d e7 28 a2 bd 6c 04 cf bc
       -0.023957586 0.044127375 -0.07917958 -0.025270663
0002c0 3d 27 02 bd f4 1b f2 3c b5 87 15 3d 54 5a 02 bd
       -0.0317757 0.029554345 0.036506373 -0.031824425
0002d0 4e 4e 04 3d dc 49 37 bc 94 08 a8 bb f8 ed 0e bd
       0.03230124 -0.011187043 -0.0051279757 -0.034894913
0002e0 96 0c 77 3d ec 5a aa 3c 3c 1b da bc 89 41 bc bd
       0.060314737 0.020795308 -0.026624314 -0.09192187
0002f0 3a 08 64 3d 97 52 62 bb 00 e8 85 bd 2c d1 25 3d
       0.055671908 -0.003453409 -0.06538391 0.040482685
000300 48 48 e7 bc a1 1b 27 bd 96 a4 0d bd c0 a7 94 3d
       -0.028232709 -0.040797833 -0.03458079 0.07258558
000310 11 c2 8b 3b c1 a8 53 3d 21 5f d5 3c 24 9b a9 bc
       0.004265078 0.05167461 0.026046338 -0.02070386
000320 a8 f6 45 bb f3 e5 23 3d bf 4f 9e bc 03 1d 1e 3c
       -0.0030206833 0.04001422 -0.019325135 0.009650472
000330 0a 12 8d 3d 02 f6 f0 3c f3 3c 34 3d 5b c4 d0 bc
       0.06888206 0.02941418 0.04400344 -0.025484255
000340 80 dc 60 3d 24 85 ee ba 7c d9 0c bb ac c1 e7 3b
       0.054897785 -0.0018197638 -0.0021491935 0.007072648
000350 9e 8f 4f 3d 2c b7 2d 3e 94 eb 90 3c a9 2e 74 bc
       0.050674073 0.16964406 0.017690457 -0.014903703
000360 20 44 5a bd 60 d9 00 bc bf 2f d4 3d e4 92 36 bc
       -0.053287625 -0.007864326 0.10360669 -0.01114342
000370 f8 bb 85 3d 2b 56 62 3c 2b f3 08 bd 0c ca 7d 3c
       0.06529993 0.013814489 -0.033435028 0.015490066
000380 f4 44 7a ba bb 93 e6 3c 90 12 39 bd 06 31 2c 3c
       -0.0009547018 0.028146615 -0.04518372 0.010509735
000390 c2 98 7f bd 06 b0 0c 3d df a4 b0 bc 9e 68 94 3c
       -0.06240154 0.034347557 -0.021562992 0.018116292
0003a0 93 6c 5b bc 47 a6 ff bd f1 56 82 3d e5 da 9e 3c
       -0.013392585 -0.12482887 0.06364239 0.019391486
0003b0 5a 96 92 3d 6f 36 b3 3d c8 d0 d3 3c 9e 22 d0 bc
       0.071575835 0.08750617 0.02585639 -0.025407132
0003c0 2e fd 3d bb c9 b4 4d bd 3f ce b7 3d 61 94 af bd
       -0.0028990018 -0.05022124 0.08974885 -0.08573223
0003d0 13 27 5b bd fe 33 2b 3d 1a 93 5f bc be 90 38 3d
       -0.05350406 0.04179763 -0.013645912 0.045059912
0003e0 58 8a 41 bd 17 cd 39 bd 0a f9 6a 3d 01 6a 7f 3c
       -0.047251076 -0.045361605 0.05736641 0.015589238
0003f0 18 ad d1 bb 8d 57 14 3c fa fb ac bc 2d 99 4a bd
       -0.006398808 0.009054077 -0.021116246 -0.049462486
