TracksterLinking/Mixed/Circle/runs/hd128_nl3_cd128_lr0.0005/best_model.pt (torch, 544482 bytes, 28 tensors)

lc_encode.0.weight f4 [128, 16]
0	0xbd9d165d	-0.07670281
1	0x3df316ce	0.11869584
2	0x3e3cf746	0.18453702
3	0xbb101c4a	-0.0021989518
4	0xbcee7e4a	-0.029112954
5	0x3d699427	0.057026055
6	0xbe84bba7	-0.25924417
7	0x3e2863b6	0.16444287
8	0x3df463ba	0.11933084
9	0xbe6ca3f4	-0.23109418
10	0x3df91456	0.12162082
11	0xbdf60856	-0.12013309
12	0x3e408d70	0.18803954
13	0xbdb34f29	-0.08755333
14	0xbe78462a	-0.24245515
15	0xbe74a0cc	-0.23889464
16	0x3ce1087d	0.027469868
17	0xbd60b3c7	-0.05485895
18	0x3d64338d	0.055713225
19	0x3dc08e5b	0.09402152
20	0xbd76d12f	-0.060258087
21	0x3d44379e	0.047904603
22	0xbd8534e5	-0.065042295
23	0x3e7a93a8	0.24470389
24	0x3e22edb5	0.1591099
25	0xbdce4033	-0.10070839
26	0xbd4454ce	-0.04793244
27	0xbe5d359f	-0.21602486
28	0x3e271d26	0.16319713
29	0x3e0c4672	0.13698748
30	0x3e3688a2	0.17825559
31	0x3e728bae	0.23686096
32	0x3e7ec107	0.24878322
33	0xbe62a92f	-0.22134851
34	0xbe1abda9	-0.15111412
35	0xbe718e9b	-0.23589556
36	0xbe162c23	-0.14665274
37	0x3c304908	0.0107595995
38	0x3d868bd6	0.0656964
39	0x3e8186fb	0.25298294
40	0x3e6b4d3d	0.22978683
41	0xbe50ae8b	-0.20379083
42	0x3dbda5a1	0.09260107
43	0xbd4e3d3a	-0.05035136
44	0x3cb6fb58	0.022336647
45	0xbe45af8a	-0.19305244
46	0x3e40e9d4	0.18839198
47	0x3e04a36d	0.12952967
48	0xbd1c7297	-0.03819522
49	0x3e1bac45	0.15202434
50	0xbd3a6e1a	-0.045515157
51	0xbe734abe	-0.2375898
52	0xbe5c3ac9	-0.215068
53	0xbdf624d7	-0.120187454
54	0x3e6af998	0.22946775
55	0x3dd3ccb1	0.10341776
56	0xbe5f0c0f	-0.21781944
57	0x3e6208b8	0.22073638
58	0x3c2a59f6	0.010397425
59	0xbe261340	-0.16218281
60	0xbe617e39	-0.22020806
61	0xbd4105e4	-0.04712476
62	0x3e2a72b4	0.16645318
63	0xbe4e671b	-0.20156519
64	0x3e3af88d	0.18258877
65	0x3d957289	0.072972365
66	0x3e3319a6	0.17490253
67	0xbe1fcbaa	-0.15605035
68	0x3dfbea34	0.1230053
69	0xbde19190	-0.11014092
70	0xbe1ee484	-0.1551686
71	0x3d380e25	0.044935364
72	0xbe706508	-0.2347604
73	0x3e32bb12	0.17454174
74	0x3b51d18a	0.0032015764
75	0x3deb2437	0.11481517
76	0x3e31c1a4	0.17359024
77	0x3e10b529	0.14131607
78	0xbe5b13ee	-0.21394321
79	0xbe8976b6	-0.26848382
80	0x3cf1b1cb	0.029503724
81	0x3e3ba362	0.18324044
82	0xbcf664ef	-0.030077426
83	0xbd4c7f0e	-0.049925856
84	0x3cdb6375	0.026780823
85	0x3d73d997	0.05953368
86	0x3e3bc253	0.18335848
87	0x3db881b2	0.090091124
88	0xbe25a02d	-0.16174383
89	0x3e1cacc4	0.1530028
90	0x3e142a75	0.14469321
91	0xb946c5a2	-0.00018956375
92	0xbe62ef09	-0.22161497
93	0x3dcef8e5	0.101060666
94	0xbd49ce79	-0.049269173
95	0xbe81ce86	-0.25352877
96	0x3e40869e	0.18801352
97	0x3d1c0e48	0.038099557
98	0xbe27fd34	-0.16405183
99	0xbe43a48a	-0.19105735
100	0x3dc0a578	0.09406561
101	0xbd4350a0	-0.047684312
102	0xbe639e96	-0.22228464
103	0xbd19d0f0	-0.037552774
104	0x3d9bddec	0.076106876
105	0xbe362222	-0.17786458
106	0xbe3d511c	-0.18487972
107	0x3e576618	0.2103504
108	0xba36dc00	-0.00069755316
109	0xbe4614ce	-0.19343874
110	0xbdcbe170	-0.09955108
111	0xbd945a2c	-0.072437614
112	0xbdd7b979	-0.10533423
113	0xbc79c61d	-0.015244988
114	0xbd824980	-0.06361675
115	0x3bd6fcbc	0.00656089
116	0x3c234b9b	0.009966756
117	0xbe142d99	-0.14470519
118	0xbe802734	-0.2502991
119	0x3daa0149	0.083010264
120	0xbc3e5869	-0.011617758
121	0xbc0a2428	-0.008431472
122	0x3e531846	0.20614728
123	0xbe3cf908	-0.18454373
124	0x3e5481d7	0.20752655
125	0x3e6dbe7a	0.23217192
126	0xbad8dc9f	-0.0016545242
127	0x3e22fc89	0.15916647
128	0xbe5a6486	-0.21327409
129	0x3da67c80	0.08129215
130	0x3d96457b	0.07337471
131	0xbdec8c8c	-0.11550245
132	0x3d47e8f8	0.04880616
133	0x3dfb12bc	0.12259433
134	0x3e71c482	0.23610118
135	0xbcc9cb5b	-0.0246331
136	0xbdaa6f09	-0.083219595
137	0x3de36e9c	0.111050814
138	0x3de13aa8	0.10997516
139	0x3e4e24be	0.20131204
140	0xbc686909	-0.014185199
141	0x3e639e19	0.22228278
142	0x3e7b04fe	0.24513623
143	0x3d881a8a	0.06645687
144	0xbe517cd7	-0.20457779
145	0x3cdf4c05	0.027257929
146	0xbd18c9c0	-0.03730178
147	0xbd0ed279	-0.03486869
148	0xbdce8c09	-0.10085303
149	0xbd6f8070	-0.058472097
150	0xbe47040c	-0.19435138
151	0xbcb3563b	-0.021891704
152	0x3ce918ef	0.028454272
153	0xbd8abc0e	-0.0677415
154	0xbdc2f945	-0.09520201
155	0xbddfad0e	-0.109216794
156	0x3b6fa6c8	0.0036567915
157	0x3dc4f5fe	0.09617232
158	0x3db56bdc	0.08858463
159	0x3e000593	0.12502126
160	0x3d17829f	0.036989804
161	0x3d30b1f7	0.04313847
162	0x3d0ba49e	0.034092538
163	0xbe590537	-0.21193396
164	0x3df440ba	0.11926408
165	0xbdb4a11a	-0.0881979
166	0xbe0af9d5	-0.13571866
167	0x3e1b3651	0.15157439
168	0x3d560ce2	0.05225838
169	0x3e77024e	0.24121973
170	0xbe295b08	-0.16538632
171	0x3e591582	0.21199611
172	0xbe23f3ce	-0.16010973
173	0x3e7037da	0.23458806
174	0xbd03b558	-0.032155365
175	0x3ddb76c3	0.107160114
176	0x3e51831d	0.20460172
177	0xbe6db26d	-0.23212595
178	0xbe0893a4	-0.1333757
179	0xbe060011	-0.13085963
180	0xbd20e992	-0.03928525
181	0x3e7dce3b	0.24785702
182	0x3d870e49	0.065945216
183	0xbe4705df	-0.19435833
184	0x3defb7a1	0.11704946
185	0xbe7a216e	-0.24426815
186	0x3e21e4a7	0.1580988
187	0x3d06b84f	0.032890614
188	0xbc6d51d9	-0.014484846
189	0x3e2809ee	0.16410038
190	0xbd0a51b0	-0.03376931
191	0xbe06e800	-0.13174438
192	0xbe5c1553	-0.2149251
193	0x3e1bfbd3	0.15232782
194	0xbe7d2ef8	-0.24724948
195	0xbe739dfc	-0.23790735
196	0xbe2dcc87	-0.16972552
197	0xbe1625c4	-0.14662844
198	0x3dfdac6e	0.12386404
199	0x3c8f5466	0.017496299
200	0xbdb2809d	-0.08715937
201	0x3d1a08fb	0.03760622
202	0x3d8cde52	0.06878342
203	0x3e41c45e	0.18922564
204	0xbe2850af	-0.16437028
205	0xbdefb8c4	-0.11705163
206	0x3cac98aa	0.02106889
207	0xbd7779b0	-0.060418785
208	0x3e5fd9e9	0.2186047
209	0x3e7ef1c6	0.24896917
210	0x3e08970b	0.13338868
211	0xbd6615fd	-0.056173313
212	0x3dd2df13	0.10296454
213	0x3e15b3f5	0.1461943
214	0x3e206610	0.15663934
215	0xbe65d83e	-0.22445771
216	0xbd0c09d6	-0.034189068
217	0xbe4d2d60	-0.2003684
218	0xbdb89acd	-0.09013901
219	0x3d928b0c	0.07155427
220	0xbd34b24f	-0.04411536
221	0xbdeb245a	-0.11481543
222	0x3e4a7f9a	0.19775239
223	0xbda254fa	-0.07926364
224	0x3daf67f5	0.0856475
225	0xbd07e272	-0.03317494
226	0xbe6cc18a	-0.23120704
227	0xbd10de36	-0.035368167
228	0xbdf288ca	-0.11842497
229	0xbd917bcd	-0.07103691
230	0x3e555e89	0.20836844
231	0xbd8a059e	-0.06739353
232	0xbe28f67f	-0.16500281
233	0x3d6a2ead	0.05717342
234	0x3e316956	0.17325339
235	0xbd53af99	-0.051681135
236	0xbe05bca1	-0.13060237
237	0x3e42dcfa	0.19029608
238	0xbe65a7cc	-0.2242729
239	0x3de9182b	0.11381563
240	0x3d504004	0.0508423
241	0xbdd48cb9	-0.10378403
242	0x3c2fa49b	0.010720397
243	0xbd7510cc	-0.059830472
244	0xbe1296a2	-0.14315274
245	0xbdc1489c	-0.09437677
246	0xbe06e1dc	-0.13172096
247	0xbe2dba49	-0.16965593
248	0xbe6f888e	-0.23391935
249	0xbde1ec55	-0.11031405
250	0xbe4b0b15	-0.19828446
251	0x3d30e596	0.0431877
252	0xbe49b0b8	-0.19696319
253	0x3e4fb6c1	0.20284559
254	0xbe574524	-0.21022469
255	0xbe864246	-0.26222438

lc_encode.0.bias f4 [128]
0	0xbe778796	-0.24172816
1	0xbdba915b	-0.091097556
2	0x3e30f45e	0.17280719
3	0xbd7de8cd	-0.061989594
4	0xbe42132b	-0.18952624
5	0x3e2bac76	0.16765007
6	0xbe08704a	-0.13324085
7	0xbe5f6db5	-0.21819194
8	0x3e46e44d	0.19423027
9	0x3d6d52d1	0.057940308
10	0x3af2c4e6	0.0018521815
11	0x3e2658d3	0.16244821
12	0x3e28f4ea	0.16499677
13	0xbd4a7134	-0.049424365
14	0x3e1cc20a	0.15308395
15	0xbb3e3a09	-0.002902629
16	0x3e5570fe	0.20843884
17	0x3cb22bbb	0.021749368
18	0x3c63020f	0.013855471
19	0x3e145de7	0.14488946
20	0x3e5fb08a	0.21844688
21	0x3d80adb2	0.0628313
22	0xbe631604	-0.22176367
23	0x3d96142b	0.073280655
24	0xbe5edc99	-0.21763839
25	0x3b889575	0.0041682073
26	0xbc2878fb	-0.01028275
27	0xbe187447	-0.14888106
28	0x3e2f6da9	0.17131676
29	0x3d85bbb2	0.06529941
30	0xbd89fd16	-0.067377254
31	0xbc78bb48	-0.01518137
32	0x3db36479	0.08759398
33	0xbe38f18c	-0.18060893
34	0x3e2d990b	0.16952913
35	0x3e3498e0	0.17636442
36	0xbd2246ed	-0.03961842
37	0xbe362796	-0.17788538
38	0x3dcdc321	0.100469835
39	0x3e55e152	0.20886734
40	0xbd4c2086	-0.049835704
41	0xbe18854f	-0.14894603
42	0x3e020624	0.12697655
43	0x3e5744b0	0.21022296
44	0xbcc4866f	-0.023989884
45	0x3e415cce	0.18883058
46	0x3cda3353	0.026635801
47	0x3dff08a7	0.12452822
48	0x3e1b6f9a	0.15179291
49	0xbc642279	-0.013924235
50	0xbdd813e8	-0.10550672
51	0xbe6c34d4	-0.23067027
52	0x3df36d86	0.11886124
53	0xbe219bd8	-0.15782106
54	0x3e186a52	0.14884308
55	0xbe2a7e19	-0.16649665
56	0xbd8849ed	-0.06654725
57	0xbe50dcaf	-0.20396684
58	0xbe72ff03	-0.23730092
59	0xbe8618c6	-0.26190776
60	0xbe33be9d	-0.17553182
61	0xbe7a9197	-0.244696
62	0x3b82c6bc	0.003990976
63	0xbe290202	-0.16504672
64	0x3ced0b26	0.02893598
65	0x3cd3f8c1	0.025875451
66	0x3e7a2edb	0.24431936
67	0xbe54de5d	-0.2078795
68	0xbb31279c	-0.0027031666
69	0xbe0bd1f8	-0.13654315
70	0xbdaa82cf	-0.08325731
71	0xbe48102f	-0.19537424
72	0xbce7533a	-0.028237928
73	0xbd849fb3	-0.06475773
74	0x3dcf1189	0.101107664
75	0xbe525b46	-0.2054263
76	0xbdedd87d	-0.116135575
77	0xbe44724f	-0.1918423
78	0xbe5b704b	-0.21429555
79	0xbe0476b9	-0.12935914
80	0xbd01cc0a	-0.031688727
81	0xbe029cc1	-0.1275511
82	0x3de4b6d7	0.111676864
83	0x3d884df4	0.066554934
84	0xbde5bc8c	-0.11217603
85	0x3dd58934	0.1042656
86	0xbe4ef90d	-0.20212193
87	0x3cc1f9a3	0.023678606
88	0xbe3f3f27	-0.18676434
89	0xbe0c0c44	-0.13676554
90	0x3d1c8802	0.038215645
91	0xbe1ddceb	-0.15416305
92	0xbe076b8a	-0.13224617
93	0xbd8f8784	-0.070082694
94	0xbd62a645	-0.05533435
95	0x3e4eb807	0.20187388
96	0x3da969ab	0.08272108
97	0xbd4ab09f	-0.049484845
98	0xbe066df0	-0.13127875
99	0x3db16904	0.08662608
100	0x3e463f9f	0.19360207
101	0xbe1b108d	-0.15143032
102	0xbe248a66	-0.1606842
103	0x3e1dacf2	0.15398005
104	0xbca4d64e	-0.02012172
105	0x3d82da96	0.06389348
106	0x3e25eab7	0.16202818
107	0xbe50678a	-0.20351997
108	0xbe37bf00	-0.17943954
109	0x3d821421	0.063514955
110	0x3d411f3f	0.04714894
111	0xbd809241	-0.06277896
112	0xbe544e86	-0.2073308
113	0x3e525f89	0.20544256
114	0x3e3404d2	0.17579964
115	0xbd5399f5	-0.051660497
116	0xbe7809f3	-0.24222545
117	0xbe7b9eb1	-0.24572255
118	0xbdeb9663	-0.11503293
119	0x3c275658	0.010213457
120	0x3e6ec697	0.23317944
121	0xbd05c8d7	-0.03266224
122	0x3dfbcdd7	0.1229512
123	0x3cedaccb	0.029013058
124	0xbc9f6245	-0.019456038
125	0x3d6b6478	0.05746886
126	0xbe42ca75	-0.19022544
127	0x3e6b7aca	0.22996059

lc_encode.2.weight f4 [128, 128]
0	0x3bc8ec78	0.006131705
1	0x3d30684c	0.043068215
2	0xbc87f4db	-0.016596248
3	0x3d8e2f82	0.06942655
4	0x3b541546	0.0032361313
5	0x3c944ee4	0.018104024
6	0x3d80cd2d	0.06289134
7	0xbbe0dd30	-0.006862305
8	0xbd77e5f5	-0.06052204
9	0x3bb0e956	0.0053989096
10	0xbc6bc3cb	-0.014389942
11	0xbd13581f	-0.03597271
12	0xbd28bddb	-0.041196685
13	0xbbc6f847	-0.0060720774
14	0xbcc26812	-0.023731265
15	0x3d99a4b5	0.075021185
16	0xbd6cc8d6	-0.05780872
17	0x3da8b162	0.08236958
18	0xbb3908a3	-0.0028233908
19	0xba88e341	-0.0010443704
20	0x3d22c7fe	0.03974151
21	0xbd9db126	-0.07699804
22	0xbd8d501f	-0.069000475
23	0xbd362b01	-0.044474605
24	0xbcd076a9	-0.025447207
25	0xbd3536d7	-0.044241752
26	0xbd9de07f	-0.07708835
27	0xbca5ec9e	-0.02025443
28	0x3db5e29e	0.088811144
29	0x3cb89e9d	0.02253657
30	0xbdc6a251	-0.09698928
31	0xbcdb9160	-0.026802719
32	0x3cda66ad	0.026660288
33	0x3d6b80d7	0.057495918
34	0x3d92b905	0.07164196
35	0xbda683e3	-0.08130624
36	0x3d6660d8	0.0562447
37	0x3d81518b	0.06314381
38	0xbd1d1175	-0.038346726
39	0x3ce2c80c	0.02768328
40	0x3db1b0ec	0.08676323
41	0x3c4a9383	0.012364271
42	0xbd6b4d99	-0.05744705
43	0xbc474bd5	-0.012164076
44	0x3cb9b811	0.022670778
45	0x3b1ae0bf	0.0023632494
46	0xbcc4c92e	-0.024021711
47	0x3d2de81d	0.04245769
48	0x3d8f2b60	0.06990695
49	0x3d9ac188	0.075564444
50	0x3c72ee47	0.014827318
51	0xbda867d6	-0.0822293
52	0x3aac499d	0.0013144497
53	0xbd485e61	-0.04891813
54	0x3dae121d	0.084995486
55	0x3ad569a1	0.001628209
56	0x3d822381	0.06354428
57	0x3c4cfec9	0.012511917
58	0xbc85eb9d	-0.0163477
59	0x3d8fc971	0.07020844
60	0x3d49bf28	0.049254566
61	0xbd50ec9b	-0.051006895
62	0x3a4b5450	0.0007756399
63	0xbd85b57b	-0.06528755
64	0xbd21e3c9	-0.039523873
65	0xbd6d0215	-0.057863314
66	0xbc8c2dbe	-0.017111655
67	0x3c9cc492	0.0191367
68	0xbc699b0f	-0.01425816
69	0x3d37aa0b	0.0448399
70	0xbd97a075	-0.074036516
71	0x3d68a4cb	0.056797784
72	0x3d5ee0e8	0.054413706
73	0x3cfa0bee	0.030523267
74	0x3d804513	0.06263175
75	0xbd4f12be	-0.050554983
76	0xba9a03ae	-0.0011750364
77	0x3d865e95	0.06561009
78	0xbc428e45	-0.01187474
79	0xbd8db33d	-0.069189526
80	0x3d3e3fc0	0.046447515
81	0xbd883955	-0.0665156
82	0x3d172a43	0.03690554
83	0xbcdc1977	-0.026867611
84	0x3da6e9a3	0.081500314
85	0xbd86f40a	-0.065895155
86	0x3d020bc4	0.0317495
87	0x3d8342b7	0.06409209
88	0x3d06a0dc	0.03286825
89	0x3d97342b	0.07382997
90	0x3d9d8cd3	0.07692876
91	0xbc885d44	-0.016646035
92	0x3d9451fc	0.072422
93	0xbd9f2997	-0.077716045
94	0x3d0ff2ab	0.035143536
95	0xbd7da6af	-0.06192654
96	0x3d84eac2	0.06490089
97	0x3d8a6616	0.067577526
98	0x3bb75875	0.0055952617
99	0x3da909ea	0.08253844
100	0xbda4d5ac	-0.08048567
101	0xbc8d47b2	-0.017246101
102	0xbd29762e	-0.04137247
103	0xbc8c6c0b	-0.017141363
104	0x3da2874a	0.079359606
105	0xbd834082	-0.06408788
106	0x3d9fa8a2	0.07795836
107	0xbca1f4a4	-0.019769974
108	0xbd8026d8	-0.06257409
109	0xbd830421	-0.06397272
110	0xbce2b84b	-0.027675768
111	0x3db0e0a6	0.08636598
112	0x3d617953	0.055047344
113	0xbd931615	-0.07181946
114	0xbda33825	-0.07969693
115	0x3daf8d5a	0.085718825
116	0x3cbf930a	0.023385543
117	0xbd99b564	-0.07505301
118	0xbcd6877b	-0.026187649
119	0x3c9ebbe9	0.019376712
120	0x3d1ec902	0.038765915
121	0xbd4fe34f	-0.050753888
122	0x3cff9ef3	0.031203723
123	0xbd7b1f6b	-0.06130926
124	0xbdac4acc	-0.08412704
125	0x3c84e2e8	0.016221479
126	0xbd11efcb	-0.035629075
127	0x3d03545d	0.032062877
128	0xbd80c7ea	-0.062881306
129	0x3ce5b32c	0.028039537
130	0x3b99d4c0	0.004694551
131	0x3d891edf	0.06695341
132	0xbb91ce90	-0.004449673
133	0x3da1d22f	0.079014175
134	0xbd2a97b0	-0.041648567
135	0xbdb0863a	-0.08619352
136	0xbd12b2bd	-0.03581499
137	0x3d8216cd	0.06352005
138	0x3d81eac5	0.06343607
139	0x3d2bcaca	0.04194144
140	0x3d3d01b2	0.046144195
141	0x3d2af1ca	0.041734494
142	0xbd5c41b6	-0.053773604
143	0x3d3ea35e	0.046542518
144	0x3d951fdd	0.07281468
145	0x3d52db82	0.05147887
146	0x3d3bff6a	0.04589788
147	0xbc2734d8	-0.01020547
148	0xbdb012bb	-0.085973226
149	0xbd472c8d	-0.04862647
150	0xbd88720c	-0.06662378
151	0x3b01dc20	0.0019815043
152	0x3db26bd7	0.08711975
153	0x3c80e894	0.015735902
154	0xbcec8324	-0.028871126
155	0xbdaba0ce	-0.083802804
156	0xbdafc64f	-0.08582746
157	0x3d2b8a32	0.04187984
158	0x3ac0c600	0.0014707446
159	0xbd518d1e	-0.05115997
160	0x3d86fdbf	0.06591367
161	0xbd1bcd49	-0.038037572
162	0xbda3d62d	-0.07999835
163	0xbd12e2e6	-0.03586092
164	0x3a818b00	0.0009883344
165	0xbb90b6c0	-0.0044163167
166	0xbd53c1cf	-0.051698502
167	0xbc960d5c	-0.018316917
168	0xba296b00	-0.00064627826
169	0xbbb8e330	-0.0056423172
170	0xbd90b32e	-0.07065426
171	0xbb6f0380	-0.0036470592
172	0xbd43e4e3	-0.047825705
173	0xbc10b7b8	-0.008832864
174	0xbd4b34ad	-0.049610782
175	0x3d24fd72	0.040280767
176	0xbd2894ba	-0.04115746
177	0x3cc62004	0.024185188
178	0x3d9c0653	0.07618394
179	0x3d06e30e	0.03293138
180	0x3caf9684	0.021434076
181	0x3a238580	0.00062378496
182	0xbd7b2ae6	-0.061320208
183	0xbd615b87	-0.055018928
184	0xbd755966	-0.05989971
185	0x3daa5d69	0.08318598
186	0xbca77570	-0.02044174
187	0x3b77c4c0	0.003780648
188	0x3d5f2922	0.054482587
189	0xbd8476b4	-0.06467953
190	0x3d89456b	0.067026936
191	0xbcca1de4	-0.024672456
192	0x3cd9901c	0.026557975
193	0x3d93bd63	0.07213857
194	0xbd5b0608	-0.05347255
195	0xbda4db2e	-0.08049618
196	0xbc5acbc0	-0.013354242
197	0x3d64145a	0.05568347
198	0xbcabf438	-0.020990476
199	0xbcf840a2	-0.030304257
200	0xbd2bcf5e	-0.041945808
201	0xbcc61104	-0.024178036
202	0x3b458c20	0.0030143335
203	0xba6c2d00	-0.0009009391
204	0xbcc9df20	-0.024642527
205	0x3c490158	0.012268387
206	0xbd4e0e36	-0.05030652
207	0xbcba5138	-0.022743806
208	0x3dab6115	0.08368126
209	0xbdb3cd1c	-0.08779356
210	0x3db3d12d	0.087801315
211	0x3b926490	0.0044675544
212	0xbd3e43ae	-0.046451263
213	0xbda86c0a	-0.08223732
214	0x3d607626	0.054800175
215	0xbd1655b0	-0.03670281
216	0xbd45b84e	-0.04827147
217	0xbcbe7fd4	-0.023254313
218	0xbcdef9ca	-0.027218718
219	0xbbbd15f0	-0.0057704374
220	0x3d0a7d32	0.0338108
221	0x3d43c7be	0.04779791
222	0xbd13b667	-0.036062624
223	0xbd95da10	-0.07316983
224	0x3d80a311	0.062811024
225	0x3c8d39a4	0.0172394
226	0xbac70580	-0.0015184134
227	0x3ca42668	0.020037845
228	0xbc78e228	-0.015190639
229	0xbd8d6bfd	-0.06905363
230	0xbd98de7e	-0.07464312
231	0xbd5a6ffe	-0.05332946
232	0x3d61f4fa	0.05516527
233	0x3d529d8a	0.051419772
234	0xbcdebe04	-0.027190216
235	0xbd698726	-0.057013653
236	0xbd0f7356	-0.035022102
237	0x3c1d73a8	0.009610094
238	0xbd50eca1	-0.051006917
239	0x3daa86c5	0.083264865
240	0xbd1e1cde	-0.03860175
241	0x3cca1584	0.024668463
242	0xbc0a9b48	-0.0084598735
243	0xbc31e630	-0.010858104
244	0x3d19cdb6	0.037549697
245	0x3d46662e	0.04843729
246	0xbd18c331	-0.037295524
247	0xbd5347ae	-0.05158203
248	0xbd2410ba	-0.040055014
249	0x3cf55aec	0.029950581
250	0x3ac55a80	0.0015056878
251	0xbc853934	-0.016262628
252	0xbd7bedfe	-0.061506264
253	0xbc84b15c	-0.016197853
254	0x3d7dd05e	0.061966293
255	0x3d60dd42	0.054898508

lc_encode.2.bias f4 [128]
0	0x3d635389	0.055499587
1	0xbd127fc3	-0.035766374
2	0x3c8ec4d0	0.017427832
3	0xbd6372f9	-0.05552957
4	0xbd06f472	-0.032947965
5	0x3d7926da	0.060828067
6	0x3b29708d	0.002585444
7	0xbce23e6f	-0.027617661
8	0xbd7edac1	-0.06222034
9	0xbdb633b5	-0.08896581
10	0xbd1b0f1a	-0.0378562
11	0xbd3fbb4a	-0.046809472
12	0xbd86cb5d	-0.06581757
13	0x3d71f457	0.05907091
14	0xbd07fe0d	-0.033201266
15	0x3db13acd	0.086537935
16	0xbca716e8	-0.020396665
17	0xbce46717	-0.027881188
18	0xbd66d3e3	-0.056354415
19	0xbc863e9c	-0.016387276
20	0xbd9f7944	-0.077868015
21	0xbd828e42	-0.0637479
22	0xbd5f18b3	-0.054466914
23	0x3da3a578	0.07990545
24	0xbd673c09	-0.05645374
25	0xbd86008c	-0.06543073
26	0x3d27e731	0.040991966
27	0xbc58c677	-0.013230911
28	0x3ce2f153	0.027702963
29	0xbdad3208	-0.08456808
30	0x3bee9b0c	0.0072816666
31	0xbb3916a0	-0.0028242245
32	0xbd7daff6	-0.061935388
33	0x3c2964b2	0.010338949
34	0xbd8b9c71	-0.06816948
35	0x3d65e0b3	0.056122493
36	0x3d812fa4	0.06307915
37	0xbd8f3cc0	-0.06994009
38	0xbbfd714b	-0.007734453
39	0x3da81915	0.08207909
40	0xbc8ffacd	-0.017575646
41	0xbc77b5a6	-0.015118992
42	0xbcc4e7fd	-0.024036402
43	0x3cfd6493	0.030931747
44	0xbd884be1	-0.06655098
45	0x3c416ec6	0.011806196
46	0x3d7f9614	0.062398985
47	0xbd53a39b	-0.0516697
48	0x3d6d807c	0.05798386
49	0xbc9a0407	-0.018800749
50	0xbd3ac7f4	-0.045600846
51	0x3d88586b	0.066574894
52	0x3d83c742	0.0643449
53	0x3da41937	0.08012622
54	0x3c088c81	0.00833428
55	0x3d9955d9	0.07487077
56	0x3c70efff	0.014705657
57	0xbd6839cc	-0.056695744
58	0xbd9ae6b7	-0.075635366
59	0xbd83ab4d	-0.064291574
60	0xba673ac5	-0.0008820708
61	0x3d7eed3c	0.062237963
62	0xbdaa4fb3	-0.08315983
63	0x3d8d19f9	0.068897195
64	0xbb159a9d	-0.0022827752
65	0xbc71e3cd	-0.014763785
66	0x3d523c1c	0.051326856
67	0x3d7aaba2	0.061198838
68	0xbd09861a	-0.033575155
69	0x3d6e9446	0.058246873
70	0xbce75b1d	-0.028241688
71	0x3b330fed	0.0027322725
72	0xbd99e173	-0.07513704
73	0x3d4186fc	0.04724787
74	0x3bf08351	0.007339873
75	0x3db53b9e	0.08849262
76	0xbd57573b	-0.052573424
77	0xbd1c3664	-0.03813781
78	0x3d9c4827	0.076309495
79	0x3d2dd14a	0.04243592
80	0xbd75069c	-0.059820756
81	0xbba40aa8	-0.005006153
82	0xbd8897e3	-0.06669595
83	0x3d9d72a3	0.07687881
84	0x3d4b631e	0.049655072
85	0xbd90de58	-0.07073659
86	0xbd4c6885	-0.049904365
87	0xbc978961	-0.018498125
88	0xbdb28e9b	-0.08718606
89	0xbccbcf1a	-0.024879027
90	0xbce5882a	-0.02801903
91	0x3da716db	0.08158656
92	0x3dd2a257	0.1028487
93	0xbdc50cc6	-0.09621577
94	0xbcfb395e	-0.030667003
95	0x3c37fa91	0.011229173
96	0xbd9fc464	-0.078011304
97	0xbd291cf7	-0.04128739
98	0xbdb5c631	-0.08875693
99	0xbc45f9c3	-0.012083474
100	0xbd914b68	-0.07094461
101	0x3d9de4a4	0.07709625
102	0x3d8e37a3	0.069442056
103	0xbdbc90c1	-0.09207297
104	0x3c60e8bb	0.013727362
105	0x3b7ae4e9	0.0038283414
106	0xbd0e35c5	-0.034719247
107	0x3d4ca755	0.049964268
108	0xbb73407e	-0.0037117298
109	0xbd44b068	-0.048019797
110	0xbda49464	-0.08036116
111	0xbce0d629	-0.02744587
112	0xbd6e360f	-0.058157023
113	0x3d2bf762	0.04198397
114	0xbd21cc43	-0.03950144
115	0xbd005af2	-0.031336732
116	0xbc890cce	-0.016729739
117	0xb8fba689	-0.00011999632
118	0xbdb195e4	-0.086711675
119	0x3d4f8f5c	0.050673828
120	0x3d17eb91	0.037089888
121	0xbcd0aef9	-0.025474058
122	0x3d8b6504	0.068063766
123	0x3bbfaf7b	0.0058497763
124	0x3d02ae40	0.03190446
125	0xbd103269	-0.035204325
126	0x3d970e29	0.07375748
127	0x3c84e686	0.016223203

convs.0.nn_module.0.weight f4 [128, 256]
0	0xbd956907	-0.07295423
1	0xbbe163dc	-0.0068783592
2	0xbcfa027a	-0.030518759
3	0xbc4b592f	-0.0124114
4	0xbcd9bd7e	-0.026579615
5	0xbd8e0743	-0.06934979
6	0xbd61c01a	-0.055114843
7	0x3ca2daef	0.019879786
8	0x3c1dfaf8	0.009642355
9	0xbc4b6024	-0.012413058
10	0x3d5ccc73	0.053905915
11	0x3c8a4cc2	0.016882304
12	0xbd3f4507	-0.04669669
13	0xbce1ccd8	-0.027563497
14	0x3d1cd28a	0.038286723
15	0xbcbbf2f1	-0.022942992
16	0xbd9c1c56	-0.07622592
17	0xbd2b3319	-0.041796777
18	0x3ce07115	0.027397672
19	0x3cd290cc	0.02570381
20	0xbcf30ad7	-0.029668255
21	0xbd3ff0d3	-0.046860527
22	0xbcbd2f8e	-0.023093965
23	0x3d158e2c	0.03651254
24	0x3ce8eff1	0.028434725
25	0xbd338307	-0.04382613
26	0x3cb90970	0.022587508
27	0x3d711ab9	0.058863375
28	0x3bbe8963	0.0058147176
29	0x3d063bfe	0.032772057
30	0x3b95de37	0.004573609
31	0x3bea9663	0.007159041
32	0xbc458475	-0.012055506
33	0xbd25f112	-0.040513106
34	0x3d79a2b8	0.060946196
35	0xbbc8f6b5	-0.0061329254
36	0x3d778325	0.060427804
37	0xbd74bfdb	-0.05975328
38	0xbae96723	-0.0017807226
39	0xbd45f52d	-0.04832952
40	0x3d33ddcb	0.04391269
41	0xbc75e6ff	-0.015008687
42	0xbd1e1423	-0.038593423
43	0x3d21046e	0.039310865
44	0x3c833758	0.0160176
45	0xbce1419e	-0.027497109
46	0x3a7643aa	0.0009394238
47	0xbd9ad2bf	-0.07559728
48	0x3b1376a7	0.0022501142
49	0xbd1eea49	-0.03879765
50	0xbd09b881	-0.033623222
51	0x3bbb63b4	0.0057186726
52	0xbcccdb60	-0.02500695
53	0x3c605bc9	0.013693758
54	0xbd5d2cec	-0.05399792
55	0x3cd128b3	0.025532102
56	0xbcebe672	-0.028796408
57	0x3ccffdb4	0.02538953
58	0xbbe5352e	-0.006994865
59	0xbc09afe0	-0.008403748
60	0xbd02fceb	-0.031979483
61	0xbc68c1ff	-0.0142064085
62	0xb96aeb4c	-0.00022403634
63	0xbd5a7f95	-0.053344328
64	0xbd63bba9	-0.05559889
65	0x3d6ae3d5	0.057346184
66	0xbd82ae9d	-0.06380961
67	0x3c2aed4b	0.010432552
68	0x3cfb4f9f	0.030677615
69	0xbd97d439	-0.07413525
70	0xbca6fece	-0.020385172
71	0x3ca53821	0.020168366
72	0x3c35aa58	0.011087976
73	0xbd5c7cd6	-0.05382999
74	0x3bcf79af	0.0063316445
75	0xbd345a2a	-0.0440313
76	0xbd8d4e4e	-0.06899701
77	0x3d1caee6	0.038252734
78	0x3d1dde4a	0.03854207
79	0x3c8d538d	0.017251754
80	0x3c2b3ca1	0.010451467
81	0xbc34e3b3	-0.011040616
82	0x3d0058cf	0.031334694
83	0xbadeee29	-0.0017008233
84	0xbcfe1483	-0.03101564
85	0x3aa25772	0.001238568
86	0xbd3f9b04	-0.046778694
87	0x3d06cdaf	0.032911
88	0xbba2d4c1	-0.00496921
89	0xbd60581a	-0.05477152
90	0x3c098871	0.008394347
91	0x3bbe2a40	0.0058033764
92	0xbd4738bc	-0.04863809
93	0xbc7ec990	-0.015550986
94	0xbd807636	-0.06272547
95	0xbcf4ee4b	-0.029898783
96	0x3ce7c002	0.028289799
97	0xbc8e7986	-0.017391931
98	0xbcee8e3e	-0.02912056
99	0xbd306240	-0.04306245
100	0x3c5412ae	0.012943907
101	0x3d31da9c	0.043421373
102	0xbc9e0fdc	-0.019294672
103	0xbd604e2d	-0.054762054
104	0x3c73ff76	0.01489245
105	0xbd5bc6af	-0.053656276
106	0xbc0d1c40	-0.008612692
107	0x3c75b842	0.014997544
108	0x3d8aba4f	0.06773817
109	0xbd185aa3	-0.037195813
110	0xbce83ee4	-0.028350301
111	0xbd53a48a	-0.05167059
112	0xbd391d30	-0.04519385
113	0xbd727280	-0.059191227
114	0x3cca2c36	0.024679285
115	0x3d3b06bf	0.04566073
116	0xbd19e470	-0.03757137
117	0xbbdd960c	-0.0067622717
118	0xbc741f66	-0.014900064
119	0xbd98c443	-0.07459309
120	0xbd8e4e09	-0.06948478
121	0xbd68d561	-0.05684412
122	0x3d4fedc2	0.050763853
123	0xbc16381f	-0.009168654
124	0xbc9b0b45	-0.018926272
125	0x3d19e2ce	0.037569813
126	0x3bf5419a	0.007484627
127	0x3d15b383	0.03654815
128	0xbd5c95b6	-0.053853713
129	0xbd25753a	-0.040395
130	0xbc4f64cb	-0.012658308
131	0xbc86dfb1	-0.016464086
132	0xbd0c0ef1	-0.034193937
133	0xbd72a7d3	-0.05924208
134	0x3b4f3808	0.003161909
135	0xbd175984	-0.036950603
136	0x3b4b3f28	0.0031012986
137	0x3c014389	0.007889637
138	0x3ac395a8	0.001492192
139	0xbd63be87	-0.055601623
140	0xbd10f641	-0.035391096
141	0xbc76c4b5	-0.015061547
142	0x3d7f07f3	0.06226344
143	0xbd0edeb0	-0.03488034
144	0x39d9d3ed	0.00041547362
145	0xbd695f51	-0.056975666
146	0xbc26540c	-0.010151874
147	0x3c8cb969	0.017178254
148	0x3d84198c	0.06450185
149	0x3ba56b32	0.005048179
150	0xbd249b38	-0.04018709
151	0x3da4918e	0.08035575
152	0xbc5524dd	-0.013009277
153	0x3cf5ba5a	0.029996086
154	0x3c160c80	0.009158254
155	0xbd289cff	-0.04116535
156	0x3d882433	0.066475295
157	0x3d0e97dd	0.034812797
158	0x3d8c1c9c	0.06841394
159	0xbcfefd40	-0.031126618
160	0x3d503cf6	0.050839387
161	0xbd1841e9	-0.03717223
162	0xbd1dc141	-0.03851438
163	0xbd51a70e	-0.051184706
164	0x3c094157	0.008377395
165	0xbd8a41ce	-0.067508325
166	0x3d67ec2f	0.056621727
167	0x3d014be7	0.031566527
168	0xbca5a4e5	-0.02022023
169	0x3d0cc582	0.034368046
170	0xbcf2f0f5	-0.029655913
171	0x3bcaf72f	0.0061940174
172	0xbd328e8b	-0.04359297
173	0xbcdb633a	-0.026780713
174	0xbcf0f0d5	-0.029411713
175	0x3d565569	0.052327547
176	0xbc8a5baa	-0.016889412
177	0xbc0af35a	-0.008480871
178	0x3cd47361	0.025933923
179	0xbcb182d8	-0.021668836
180	0xbd66ccb9	-0.056347582
181	0xbd016122	-0.031586774
182	0x3c5758d4	0.013143737
183	0xbd7de3ca	-0.061984815
184	0x3d0398a8	0.032128006
185	0xbd4fcf8c	-0.05073504
186	0x3d1e1c44	0.038601175
187	0x3ca2f5bb	0.019892564
188	0x3c01fa43	0.007933202
189	0x3c034986	0.008013135
190	0x3d2bd7a2	0.04195369
191	0xbd3072b6	-0.043078147
192	0x3d415853	0.047203373
193	0x3c6a595e	0.014303533
194	0xbcc4aab8	-0.024007186
195	0x3d66501c	0.056228742
196	0xbd196367	-0.037448313
197	0xbacad926	-0.0015476092
198	0xbc7ff6ab	-0.015622775
199	0xbd59bb2d	-0.05315702
200	0xbd74c2d6	-0.059756123
201	0x3d958d92	0.07302393
202	0x3c96ee4c	0.018424176
203	0xbc324d51	-0.0108826915
204	0x3cf5fe29	0.03002842
205	0x3d501944	0.050805345
206	0x3d38f7cc	0.045158193
207	0xbd263df3	-0.040586423
208	0x3cd6ecf4	0.026236035
209	0x3d654f6a	0.05598394
210	0xbd8cbbd0	-0.0687176
211	0xbd376492	-0.044773646
212	0x3d1cba98	0.038263887
213	0xbd50baf4	-0.050959542
214	0x3ca424fc	0.020037167
215	0x3d5c99c4	0.05385758
216	0xbd344aa0	-0.04401648
217	0x3d05898f	0.03260189
218	0x3c19340e	0.00935079
219	0xbd09162d	-0.033468414
220	0x3c9a18ba	0.018810619
221	0x3d445b07	0.047938373
222	0xbc738afe	-0.014864681
223	0x3c2c8541	0.010529817
224	0xbc814960	-0.015782058
225	0x3c3bdaa4	0.011465702
226	0xbd3f1760	-0.04665315
227	0x3c2e9b53	0.010657149
228	0xbb88fe89	-0.0041807336
229	0xbcb906f4	-0.022586323
230	0xbd3c6a0c	-0.04599957
231	0x3abe7fd0	0.0014533941
232	0x3c4cc0c6	0.012497133
233	0xbd178d6a	-0.037000097
234	0x3cecfb65	0.028928468
235	0xbcc89eb7	-0.024489744
236	0xbd571d22	-0.052518018
237	0xbd2b32fd	-0.041796673
238	0x3d13058d	0.035893966
239	0x3cd3f3af	0.025873033
240	0x3d4de064	0.050262824
241	0x3d439550	0.047749817
242	0x3d4540c3	0.048157465
243	0xbc965c15	-0.018354455
244	0xbd4b0bd1	-0.049571816
245	0xbd6f278a	-0.058387317
246	0xbcd99503	-0.026560312
247	0x3d23d36a	0.039996542
248	0xbaed37e6	-0.0018098324
249	0x3b21bd63	0.0024679534
250	0x3d26d772	0.04073281
251	0xbd6bd95c	-0.057580337
252	0x3d21f899	0.03954372
253	0xbcf95819	-0.030437516
254	0x3d9a693d	0.07539604
255	0x3d3acc19	0.0456048

convs.0.nn_module.0.bias f4 [128]
0	0x3c5d6002	0.01351166
1	0x3d6acfc5	0.05732705
2	0xbd6cfd55	-0.057858784
3	0x3c963fd6	0.018340986
4	0x3caad0e6	0.020851564
5	0x3c3d7462	0.011563392
6	0x3d35b85c	0.044365272
7	0xbd23fc1a	-0.040035345
8	0xbd2f7ec3	-0.0428455
9	0x3b5965b3	0.003317219
10	0x3d5a9712	0.053366728
11	0x3d487d79	0.048947785
12	0xbd456ced	-0.048199583
13	0xbd5fdb6d	-0.05465262
14	0xbd0773d6	-0.033069454
15	0xbc1abd22	-0.009444507
16	0xbd38c2e4	-0.045107737
17	0x3d6a4e82	0.057203777
18	0x3c224f5a	0.009906614
19	0x3d276aba	0.040873267
20	0xbc584659	-0.013200366
21	0x3c2fbba5	0.01072589
22	0x3c852729	0.016254025
23	0x3c33397c	0.010938998
24	0xbb3999e7	-0.0028320493
25	0x3d80b08f	0.06283676
26	0xbd45af59	-0.048262928
27	0xbbae85de	-0.005326017
28	0xbb559fc0	-0.003259644
29	0xbb767229	-0.0037604666
30	0x3cbfe031	0.023422332
31	0x3d806c87	0.062707
32	0xbd642dff	-0.055707928
33	0xbb3487c2	-0.0027546738
34	0xbd163cff	-0.036679264
35	0x3d125e60	0.035734534
36	0x3d369c75	0.044582803
37	0x3c60a58f	0.013711347
38	0x3c9daff9	0.01924895
39	0x3d2e8ca2	0.042614587
40	0xbda8fd6b	-0.08251461
41	0x3d6c1f23	0.05764688
42	0xbc93a643	-0.018023616
43	0xbc9e9c70	-0.019361705
44	0xbc183083	-0.00928891
45	0xbcfb1999	-0.030651854
46	0x3d30820c	0.043092772
47	0xbc42542d	-0.011860889
48	0xbd4d91e0	-0.050187945
49	0xbc5eafc6	-0.013591712
50	0xbd63e2d8	-0.055636257
51	0xbd801465	-0.0625389
52	0x3b8ded0a	0.004331236
53	0xbc353c69	-0.011061766
54	0x3d3a9073	0.045547914
55	0x3d2c8b69	0.04212514
56	0x3d4bff3a	0.04980395
57	0x3d1987f0	0.037483156
58	0x3d2e0e74	0.042494252
59	0xbca84469	-0.020540433
60	0xbd7dfcb3	-0.06200857
61	0x3c77ee3b	0.015132482
62	0xbd464c3c	-0.048412547
63	0xbd1ad464	-0.037800208
64	0xbd3b44fd	-0.04572009
65	0x3b4fb35c	0.00316926
66	0x395699a0	0.0002046586
67	0x3cc2e805	0.023792276
68	0xbd1da33d	-0.038485754
69	0x3d3d97bd	0.046287287
70	0xbd68af87	-0.05680802
71	0xbd8dff6b	-0.06933483
72	0xbd65ae89	-0.056074653
73	0xbc3cce59	-0.0115238065
74	0xbccdbb73	-0.025113797
75	0xbd238e6a	-0.03993074
76	0xbc9475a7	-0.018122507
77	0x3c206842	0.009790482
78	0x3cb6df10	0.022323161
79	0xbcf7b541	-0.030237796
80	0x3b76def0	0.0037669502
81	0xbd5f65d2	-0.054540463
82	0xbd306e95	-0.04307421
83	0x3d3ce71b	0.046118837
84	0x3c41a41e	0.011818914
85	0xbd791eb9	-0.060820315
86	0xbccf28e0	-0.025288045
87	0xbc92940f	-0.017892865
88	0x3d194ac3	0.037424814
89	0x3d5c0fae	0.05372589
90	0xbd5f367b	-0.054495316
91	0xbd30853c	-0.043095812
92	0x3d48e7ec	0.049049303
93	0xbd163209	-0.03666881
94	0x3d82b040	0.06381273
95	0xbc59831b	-0.013275887
96	0x3d1d524a	0.038408555
97	0xbbc979dd	-0.0061485604
98	0xbd69467b	-0.05695198
99	0xbd14f86d	-0.03636973
100	0xbd5afa36	-0.053461276
101	0xbc51ddce	-0.01280923
102	0x3c4cf1d6	0.01250883
103	0x3cbd109b	0.023079207
104	0x3d6f2ff8	0.058395356
105	0xbca625d6	-0.020281713
106	0x3993ced2	0.00028192118
107	0x3cc1b6a4	0.02364666
108	0x3d157315	0.036486704
109	0x3c53f5f2	0.012937056
110	0xbd47a3eb	-0.04874031
111	0x3d26aea1	0.040693883
112	0x3d27eea4	0.04099907
113	0x3daac995	0.0833923
114	0x3d1fda47	0.039026525
115	0xbcd9b911	-0.026577504
116	0xbd85d344	-0.06534436
117	0x3c807a2b	0.015683254
118	0x3cecb6e2	0.0288958
119	0x3c2e455f	0.010636657
120	0xba80b327	-0.0009819017
121	0xbc95e1fb	-0.018296232
122	0xbd06a30d	-0.03287034
123	0x3c8b2c39	0.01698886
124	0x3d3a0f64	0.045424834
125	0x3d2997d2	0.041404553
126	0xbd2ed3b5	-0.04268237
127	0x3d19f6e6	0.037588976

convs.0.nn_module.2.weight f4 [128]
0	0x3f81cdbf	1.0140914
1	0x3f8123d4	1.0089059
2	0x3f7e33ec	0.99297976
3	0x3f810646	1.008004
4	0x3f809fa3	1.0048717
5	0x3f8001cb	1.0000547
6	0x3f82119b	1.0161623
7	0x3f7fb33b	0.9988286
8	0x3f7bfd3c	0.9843328
9	0x3f7de3b5	0.9917558
10	0x3f82d13e	1.0220106
11	0x3f7f882f	0.99817175
12	0x3f81dbfe	1.0145261
13	0x3f85780f	1.0427264
14	0x3f80834e	1.0040071
15	0x3f81dacc	1.0144897
16	0x3f81a0d2	1.0127203
17	0x3f806131	1.002966
18	0x3f7e21be	0.99270236
19	0x3f8245ab	1.0177511
20	0x3f828659	1.019725
21	0x3f7e962b	0.9944789
22	0x3f807784	1.0036473
23	0x3f801909	1.000764
24	0x3f805840	1.0026932
25	0x3f822e25	1.0170332
26	0x3f8042f2	1.002043
27	0x3f7d8418	0.99029684
28	0x3f82abe4	1.0208707
29	0x3f80f0fb	1.0073541
30	0x3f7eb1be	0.99489963
31	0x3f846d94	1.034594
32	0x3f7e79a2	0.99404347
33	0x3f7c34f0	0.98518276
34	0x3f7f234b	0.9966323
35	0x3f81649e	1.0108831
36	0x3f800421	1.000126
37	0x3f7f7589	0.9978872
38	0x3f7c5c46	0.985783
39	0x3f7e3f94	0.9931576
40	0x3f84218b	1.0322737
41	0x3f817020	1.0112343
42	0x3f81d46b	1.014295
43	0x3f8205af	1.0157984
44	0x3f8225d2	1.0167792
45	0x3f7f77f3	0.99792403
46	0x3f8396c2	1.0280383
47	0x3f7f812e	0.9980649
48	0x3f7b1c61	0.9809018
49	0x3f82a373	1.0206131
50	0x3f8099ec	1.0046973
51	0x3f80c193	1.0059074
52	0x3f83d8d3	1.0300545
53	0x3f80e1b1	1.0068876
54	0x3f834e36	1.0258243
55	0x3f7f10f6	0.99635255
56	0x3f806d09	1.0033275
57	0x3f7fc931	0.9991637
58	0x3f8014fd	1.0006405
59	0x3f7ddf63	0.99168986
60	0x3f7e466a	0.99326193
61	0x3f80a39c	1.004993
62	0x3f813cd7	1.0096692
63	0x3f7b7a9c	0.9823396
64	0x3f81be33	1.0136169
65	0x3f804b1f	1.0022925
66	0x3f81eb77	1.0149983
67	0x3f7c1cb8	0.9848132
68	0x3f829b22	1.0203593
69	0x3f82f30d	1.0230423
70	0x3f7d9121	0.99049574
71	0x3f7bad16	0.98310983
72	0x3f80f535	1.0074831
73	0x3f81ba5b	1.0134996
74	0x3f7c5895	0.98572665
75	0x3f814362	1.0098689
76	0x3f7cfcbd	0.9882315
77	0x3f7d6e27	0.98996204
78	0x3f81af55	1.0131632
79	0x3f83ee5f	1.030712
80	0x3f81c7ac	1.013906
81	0x3f7f17a9	0.9964548
82	0x3f82304c	1.0170989
83	0x3f7bcbbc	0.9835775
84	0x3f7ed58c	0.99544597
85	0x3f7ebec0	0.9950981
86	0x3f7dc346	0.9912609
87	0x3f800380	1.0001068
88	0x3f808a65	1.0042235
89	0x3f833015	1.0249048
90	0x3f813f65	1.0097471
91	0x3f802db8	1.0013952
92	0x3f8234d0	1.0172367
93	0x3f7ac4a1	0.9795628
94	0x3f7d975d	0.9905909
95	0x3f8078c9	1.0036861
96	0x3f80bf85	1.0058447
97	0x3f7e919e	0.99440944
98	0x3f84a89c	1.0363955
99	0x3f827456	1.0191753
100	0x3f7fa234	0.9985688
101	0x3f84c831	1.0373594
102	0x3f7bb4fb	0.9832303
103	0x3f7f9507	0.9983677
104	0x3f80829f	1.0039862
105	0x3f7fd92f	0.9994077
106	0x3f81c527	1.0138291
107	0x3f8119c8	1.0085993
108	0x3f8091d0	1.0044498
109	0x3f83cb39	1.0296394
110	0x3f8445a0	1.0333748
111	0x3f80ed93	1.0072502
112	0x3f7c2754	0.9849751
113	0x3f83454d	1.0255524
114	0x3f7ea508	0.9947057
115	0x3f7fe251	0.99954706
116	0x3f7fe181	0.99953467
117	0x3f809b56	1.0047405
118	0x3f8020e1	1.0010034
119	0x3f7f8e90	0.9982691
120	0x3f7ed06b	0.9953677
121	0x3f80df95	1.0068232
122	0x3f7eb0e7	0.9948868
123	0x3f7dde9a	0.9916779
124	0x3f7fbd4b	0.99898213
125	0x3f7ccab7	0.9874682
126	0x3f80e845	1.0070883
127	0x3f80df24	1.0068097

convs.0.nn_module.2.bias f4 [128]
0	0x3bd06c56	0.006360571
1	0x3c10fbf3	0.008849132
2	0x3b8872a5	0.0041640573
3	0xbc04329f	-0.00806871
4	0xbbb4993f	-0.0055114324
5	0xba96d9d5	-0.0011509011
6	0xbaaba7bf	-0.0013096257
7	0xbb53ffc9	-0.0032348505
8	0x3ae8a416	0.0017749097
9	0xbb3b7d75	-0.0028608714
10	0xbbcb0a7e	-0.006196319
11	0x3a9a4789	0.0011770587
12	0xba829624	-0.0009962958
13	0x3c13fbd8	0.009032212
14	0x3b987fa0	0.004653886
15	0x3ae7a14c	0.0017671972
16	0xbb890247	-0.0041811797
17	0x3c1b0f15	0.009464045
18	0x3ba0f222	0.004911677
19	0xbb11398e	-0.002215955
20	0x3af6137f	0.0018774121
21	0xbc044068	-0.008071996
22	0xbb440d61	-0.00299152
23	0x3ba5a1df	0.005054697
24	0xbb7e82f0	-0.003883537
25	0xbb5fc089	-0.003414186
26	0xbc24bf35	-0.010055353
27	0x3c025ef0	0.007957205
28	0xbc459273	-0.012058842
29	0x3b902ecf	0.0044001113
30	0xbc29f0c2	-0.010372343
31	0xbb02504f	-0.0019884293
32	0x3b8e8a4a	0.0043499814
33	0xba7577ec	-0.0009363878
34	0xbbd7225c	-0.0065653753
35	0xbb8614ec	-0.0040918496
36	0x3b84385f	0.0040350403
37	0xbb2b4542	-0.002613381
38	0xbae5bfde	-0.0017528494
39	0xb9a2dc27	-0.00031063074
40	0xbb87a7c1	-0.004139871
41	0xbc0597d5	-0.008153875
42	0x3c0135e4	0.007886384
43	0xbbe3d184	-0.0069524664
44	0xbc60a245	-0.013710563
45	0xbbc7fd54	-0.006103197
46	0xbc1785d1	-0.009248213
47	0x3bede568	0.0072600134
48	0x3cd09f06	0.025466453
49	0xbc36033a	-0.011109168
50	0x3bd2b5f6	0.006430383
51	0xbca90fc8	-0.020637408
52	0x3c341b47	0.010992832
53	0xbc74e8f4	-0.0149481185
54	0xbc29d69d	-0.010366109
55	0x3bde9651	0.0067928215
56	0x3c1a5805	0.0094204
57	0x3a8e8bb1	0.0010875372
58	0xba9e3077	-0.0012068887
59	0x3c63533a	0.013874823
60	0xbbdda3f8	-0.0067639314
61	0x3c7323b4	0.014840055
62	0xbb2233dc	-0.002475015
63	0x3b224f3c	0.0024766466
64	0xbbdf2d89	-0.006810848
65	0x3c2c59dc	0.010519471
66	0xba7b4728	-0.0009585493
67	0x3b4d9247	0.0031367706
68	0xb88b530a	-6.643504e-05
69	0xba88840a	-0.0010415327
70	0xba8bb7d7	-0.0010659647
71	0x3b913f72	0.004432612
72	0x3bbe6590	0.005810447
73	0xbb1da175	-0.0024052535
74	0x3b937bfa	0.004500863
75	0x3abe95a4	0.0014540446
76	0x3a27a8c7	0.0006395694
77	0x3b5cdc8f	0.00337008
78	0x3ca172b5	0.019708017
79	0xbbe234ee	-0.0069032824
80	0xbbc4a231	-0.00600078
81	0x3b4d0a2e	0.0031286585
82	0x3bcd1035	0.0062580355
83	0x3b823d71	0.0039746095
84	0xbc7e9888	-0.015539296
85	0xb9eabf2c	-0.00044774392
86	0xbb78797e	-0.0037914212
87	0xbb02f8df	-0.0019984765
88	0xbb5d5ede	-0.003377847
89	0x3b9fefd3	0.004880884
90	0x3bc3699a	0.0059635164
91	0x3aa281c8	0.0012398297
92	0x3c48ef4a	0.012264082
93	0x3bdf9d04	0.0068241376
94	0xbc14eccf	-0.009089663
95	0x3c461b16	0.012091419
96	0x3b9e5e52	0.004833021
97	0x3ccbd1f4	0.024880387
98	0xbbf5c197	-0.0074998843
99	0x3c3d394d	0.011549306
100	0xbac87f49	-0.0015296723
101	0x3bd04810	0.006356247
102	0x3c460285	0.012085562
103	0x3b2ae6eb	0.002607758
104	0xbb126d6c	-0.0022343053
105	0x3a99249a	0.0011683882
106	0xbae45486	-0.001742021
107	0xbc227045	-0.009914462
108	0x3bb851f6	0.005625005
109	0x3b3e61f7	0.002905009
110	0xbc117b48	-0.00887949
111	0x3bf81861	0.0075712656
112	0x3a7e0ea1	0.0009691511
113	0xbbea27f3	-0.0071458756
114	0xbbdbdc96	-0.0067096455
115	0xbb0bc57c	-0.0021327427
116	0xbb667934	-0.0035167458
117	0x3953cdea	0.00020199237
118	0xbb4c8174	-0.003120509
119	0xba068d12	-0.00051327155
120	0x3b89e5ba	0.0042082937
121	0xbbbd71a0	-0.0057813674
122	0x3ad97f77	0.0016593774
123	0x3c79cc70	0.015246496
124	0xbc2871f2	-0.010281073
125	0xbc8a2f14	-0.016868152
126	0x3c17e31a	0.009270454
127	0xbb695a0c	-0.003560665

convs.0.nn_module.2.running_mean f4 [128]
0	0x401bf9a4	2.4371119
1	0x410955e9	8.583474
2	0x4095cbae	4.6811132
3	0x41306077	11.023551
4	0x41bba5f9	23.456041
5	0xbf7fff78	-0.9999919
6	0x401ea18a	2.4786096
7	0xbf7ffffc	-0.99999976
8	0xbf7fb70f	-0.998887
9	0x40ed3103	7.412233
10	0x418bcdc2	17.475468
11	0x41299306	10.598394
12	0x40eb480e	7.3525457
13	0x4100ba2a	8.04545
14	0x41737b64	15.217625
15	0xbf7fff68	-0.99999094
16	0xbf7ffffc	-0.99999976
17	0x4165264b	14.321849
18	0x3c3c9004	0.011508945
19	0x41ca2aac	25.270836
20	0xbf7ffffc	-0.99999976
21	0xbf7fffbd	-0.999996
22	0x410ef0a9	8.933755
23	0x408ef2d3	4.4671416
24	0x408ee1e8	4.4650764
25	0x410d10d2	8.8166065
26	0x41641d18	14.257103
27	0x408a5d79	4.32391
28	0xbf7d5c8a	-0.9896933
29	0x418d4258	17.657394
30	0xbf7ff304	-0.9998019
31	0x40e2acbc	7.0835857
32	0x41dc8360	27.564148
33	0x40b06e21	5.5134435
34	0x4173d164	15.238621
35	0x4106d22e	8.426313
36	0x3f282258	0.65677404
37	0xbf7ffffc	-0.99999976
38	0x40efc5e9	7.492909
39	0x41ab59fc	21.418938
40	0x41bf37de	23.902279
41	0x418bfbcc	17.497948
42	0x409d68b0	4.919029
43	0xbf74d92e	-0.9564389
44	0x41c1dfa4	24.2342
45	0x405d3df8	3.4569073
46	0x410ed700	8.92749
47	0x3f59434b	0.84868306
48	0xbf7fffc9	-0.9999967
49	0x41ce93ee	25.822231
50	0x3e964dda	0.2935627
51	0x41345381	11.270387
52	0x3fb55be2	1.4168665
53	0xbf057576	-0.52132356
54	0x41387f1d	11.5310335
55	0x406ebb83	3.7301948
56	0x4173a414	15.227558
57	0x409e9c2e	4.956565
58	0x418bb799	17.464647
59	0x41681155	14.504231
60	0x4160d32d	14.051557
61	0xbf7fc45f	-0.99909014
62	0xbf7ffffc	-0.99999976
63	0x4050150b	3.2512844
64	0x3d99d79a	0.07511826
65	0x411970bf	9.590026
66	0x416e500d	14.894544
67	0xbf2e85fc	-0.68173194
68	0x40eb061d	7.3444963
69	0x4149328a	12.574839
70	0xbf7f6fcf	-0.9977998
71	0xbf7ffffc	-0.99999976
72	0x40449cf0	3.0720787
73	0x41917018	18.179733
74	0x40d8f202	6.779542
75	0x41084c65	8.518651
76	0x3fb89472	1.4420302
77	0xbefd277c	-0.49444187
78	0x4187594d	16.918604
79	0x41b19acf	22.20059
80	0x41a274f3	20.307104
81	0xbf4a3a1a	-0.78994906
82	0x40bbf33a	5.8734407
83	0x4057d08f	3.3721044
84	0x3f4aa2b2	0.79154503
85	0xbf7ffffb	-0.9999997
86	0x4017cb9b	2.371802
87	0x40ecdb0a	7.401738
88	0x40138e89	2.3055747
89	0x400876cf	2.1322515
90	0x40ce1e53	6.4412017
91	0xbf7714c1	-0.9651604
92	0x410c052e	8.751265
93	0x41a941f1	21.157198
94	0x4095ea39	4.6848416
95	0x412d48bf	10.83026
96	0x4192285a	18.269703
97	0x415ff5b6	13.997488
98	0x413803a3	11.500888
99	0x418236b7	16.276716
100	0xbf7a7cbe	-0.9784659
101	0x418a215d	17.26629
102	0x4134265d	11.259366
103	0xbf7ffef2	-0.9999839
104	0xbf7b809e	-0.9824313
105	0xbf7ffffc	-0.99999976
106	0x4182c740	16.34729
107	0x40ada1b1	5.4259877
108	0xbf7ffffc	-0.99999976
109	0xbec56e03	-0.38560495
110	0x405c1a6d	3.439113
111	0x41509562	13.03647
112	0xbf7ffffc	-0.99999976
113	0x40ba6357	5.8246264
114	0xbf7ffffc	-0.99999976
115	0xbf238eb4	-0.6388962
116	0x41c896b6	25.07359
117	0xbf7ffffb	-0.9999997
118	0x3db64f6d	0.08901868
119	0x40de0009	6.9375043
120	0x411cbef2	9.7966175
121	0x40c223e8	6.066883
122	0x401adc0f	2.4196813
123	0xbef46186	-0.47730654
124	0x4151916a	13.0980015
125	0x418fbbe3	17.966742
126	0x4185b1ab	16.711752
127	0x41b93a46	23.153454

convs.0.nn_module.2.running_var f4 [128]
0	0x4181fb23	16.247625
1	0x42098f78	34.390106
2	0x4184a98a	16.582783
3	0x4285fdae	66.99547
4	0x4144f02b	12.308635
5	0x30acdd3c	1.2577526e-09
6	0x40e72573	7.2233214
7	0x296b686e	5.227106e-14
8	0x3bf77037	0.007551219
9	0x417f20df	15.945525
10	0x418d01f9	17.625963
11	0x4200b08b	32.172405
12	0x420a426e	34.564873
13	0x4149626a	12.586527
14	0x417e3155	15.887044
15	0x33710ae0	5.6122076e-08
16	0x28e8205d	2.577121e-14
17	0x418e4be0	17.787048
18	0x4185e91c	16.738823
19	0x41c7ca48	24.97377
20	0x323bcd05	1.0931449e-08
21	0x3524cf57	6.139648e-07
22	0x4201bd78	32.435028
23	0x41fc162b	31.510824
24	0x4198f47a	19.119373
25	0x41cf6a5a	25.92693
26	0x41b4ee52	22.616367
27	0x41a7e389	20.986101
28	0x3cddff65	0.02709932
29	0x416e26b6	14.884451
30	0x39e5366d	0.00043718834
31	0x4220f3d4	40.238113
32	0x41a2dd18	20.357956
33	0x412bbf8e	10.734266
34	0x40a8657a	5.2623873
35	0x412d3fe6	10.8281
36	0x40b08c88	5.5171547
37	0x256aeed6	2.0377185e-16
38	0x4182973f	16.32385
39	0x422a9634	42.646683
40	0x4235d910	45.461975
41	0x41f2705f	30.304869
42	0x4140bbc4	12.045841
43	0x3f00853d	0.50203305
44	0x42803bc7	64.11675
45	0x41a1d6b7	20.229841
46	0x41b20f90	22.257599
47	0x410f7dae	8.9681835
48	0x32012fc5	7.51965e-09
49	0x41c1611f	24.172422
50	0x409f9b14	4.9876804
51	0x41e9a3a5	29.204905
52	0x4116934e	9.410963
53	0x40743bb0	3.816143
54	0x421b2d42	38.794197
55	0x4203b5b1	32.927433
56	0x4158c1fd	13.54736
57	0x415670a1	13.402497
58	0x41bf9732	23.948826
59	0x41eb74b2	29.43198
60	0x416c3948	14.763985
61	0x3b6b0bd5	0.0035865207
62	0x29583ac0	4.8012592e-14
63	0x41d4c704	26.597176
64	0x40cbdaa0	6.3704376
65	0x40e7b22e	7.2405005
66	0x416cfa3a	14.81109
67	0x401626a9	2.3461096
68	0x41daf31f	27.368711
69	0x41c18385	24.189219
70	0x3c7ea5bf	0.015542447
71	0x283b3180	1.0391319e-14
72	0x41fe290a	31.770039
73	0x4152da7b	13.17834
74	0x422604c8	41.50467
75	0x418234e2	16.275822
76	0x41e857e1	29.04291
77	0x4039cd40	2.9031525
78	0x42138d0d	36.887745
79	0x421e135e	39.518913
80	0x417cd488	15.8018875
81	0x40107c87	2.2576005
82	0x41b77311	22.931185
83	0x41d4765a	26.557789
84	0x41c47408	24.556656
85	0x2c862e02	3.813617e-12
86	0x40ebdad1	7.370461
87	0x4255f9ca	53.493935
88	0x40ed845f	7.4224086
89	0x4193c3fd	18.470697
90	0x428aee1c	69.46506
91	0x3df387e0	0.118911505
92	0x4107112f	8.441695
93	0x420ef25f	35.73669
94	0x41446626	12.274939
95	0x4153eefb	13.245845
96	0x41a1498c	20.160912
97	0x41d36539	26.424425
98	0x41da6116	27.297405
99	0x420b4b45	34.823505
100	0x3d83ba76	0.06432049
101	0x41950fe9	18.632769
102	0x42099155	34.391926
103	0x3510db19	5.396301e-07
104	0x3d0104bf	0.031498667
105	0x1403dfdc	6.657958e-27
106	0x41fc2c11	31.521517
107	0x42629066	56.641014
108	0x2a95eff7	2.6634226e-13
109	0x407b25ed	3.9241898
110	0x4191dd65	18.233103
111	0x42842b9d	66.08518
112	0x301a5264	5.614196e-10
113	0x41b426a5	22.51887
114	0x1f33e336	3.809267e-20
115	0x3fbc5ff3	1.4716781
116	0x42c0fc6e	96.49303
117	0x2dce6d74	2.3468096e-11
118	0x41305088	11.019661
119	0x417282c9	15.15693
120	0x422458ca	41.086708
121	0x41235051	10.2071085
122	0x4104c24f	8.297439
123	0x40926856	4.5752363
124	0x422751dd	41.829945
125	0x41db657b	27.424551
126	0x41cf759f	25.932432
127	0x4142227b	12.133418
