TracksterFormation/Mixed/NegativeMining/runs/hd128nl3cd128k24/best_model.pt (torch, 488162 bytes, 28 tensors)

lc_encode.0.weight f4 [32, 8]
000000 88 28 04 3e e1 77 75 3d 91 65 0e be dc d4 f9 be
       0.12906086 0.05992878 -0.13905932 -0.4879521
000010 93 e9 a7 bd 28 c0 b5 be 18 35 30 3c 32 4e 09 3d
       -0.081988476 -0.35498166 0.010754846 0.03352184
000020 c2 16 35 3e 4a 93 96 be 91 6b 38 be e4 0e ae bc
       0.17684463 -0.29409248 -0.18009783 -0.021247335
000030 4e 37 59 bd 05 50 ae be d4 f4 62 3a 95 7f e1 3e
       -0.05303126 -0.34045425 0.0008657698 0.4404265
000040 cc 68 dc bd f1 09 53 3e 53 a8 ef bd f1 5f c7 be
       -0.10762176 0.20609261 -0.11702027 -0.38940385
000050 0f ba 23 bd 23 ec 03 bf b1 16 6b be 88 f1 b5 bc
       -0.03997236 -0.5153219 -0.22957875 -0.022209898
000060 c7 c9 17 3e f1 e6 21 be fe 7e f1 bd fa d5 aa be
       0.14823066 -0.15810753 -0.117918 -0.33366376
000070 76 f3 b8 bb c6 ac 90 be 86 15 db bd 87 b2 9c 3e
       -0.005644257 -0.28256816 -0.10697465 0.30604956
000080 a0 2e 58 bc 4d 8c 30 3d 88 a4 9f 3c 13 e4 c7 3e
       -0.01319471 0.04310255 0.019487634 0.39041194
000090 56 a1 8c 3d 28 74 0a be 06 02 26 be e9 35 26 bd
       0.0686671 -0.13520873 -0.1621171 -0.040578756
0000a0 a8 4e 2a 3c 17 0d a8 bd e9 1f 1b 3d 73 ff 7e bd
       0.01039473 -0.08205622 0.03787223 -0.062255334
0000b0 47 33 cd 3d 10 65 8a bd 11 b5 28 bf 6d 69 da be
       0.10019546 -0.067575574 -0.65901285 -0.42658558
0000c0 2f 50 99 be 78 ac 91 3e 33 55 88 be 83 d5 71 be
       -0.29943988 0.28451896 -0.26627502 -0.23616605
0000d0 b0 21 b3 3d 8c ff a1 bd 14 33 23 3e e7 41 99 bd
       0.0874666 -0.0791007 0.15937454 -0.07483273
0000e0 46 2d aa bc 79 2e f1 bd d2 33 43 3d df fc 41 bf
       -0.020773541 -0.11776442 0.04765684 -0.75776476
0000f0 c7 ef b1 bc 7e 70 89 3e c8 22 ab 3d 5c a9 61 3e
       -0.02172078 0.26843637 0.08356243 0.22037262
000100 66 1c 02 3d 05 a5 4d 3e 4e a0 a3 3d ac 80 88 bc
       0.031765364 0.20082481 0.0798956 -0.016662918
000110 f0 34 b5 bd e6 d7 80 3a 0b c5 bf be 3e c4 9d be
       -0.08847988 0.0009829968 -0.3745502 -0.30813783
000120 58 3a 85 3e fe 0b de 3c cf 75 d2 bd 55 1b c2 3d
       0.26021075 0.027105328 -0.102763765 0.094778694
000130 11 b8 3a 3e 75 5a cb be 46 43 51 be 9f 44 a3 be
       0.18234278 -0.3971745 -0.20435819 -0.3188829
000140 82 e2 c7 39 4c b5 45 3a 25 1e 82 bc 81 be 62 3f
       0.00038125 0.0007541969 -0.015883515 0.88571936
000150 a4 60 ab 3e 6c 18 d9 3d 45 0d 5a bd cf e1 90 bb
       0.33472168 0.10600361 -0.05323531 -0.0044214497
000160 eb 65 e9 3c 71 04 cf 3e a2 56 df bc 1b 0c 6f 3b
       0.028490981 0.40433076 -0.02726299 0.0036475721
000170 b2 f0 67 3c 15 fd 1d 3a 40 9f e5 bc 10 51 47 3f
       0.014156507 0.0006026787 -0.028030038 0.77858067
000180 00 24 53 bc 41 c4 d5 3c 19 26 42 3d 9a ef be be
       -0.012887001 0.026094558 0.047399614 -0.37292176
000190 87 6c 7d 3d 80 c9 1f be 9a 3d ed be f8 36 be 3e
       0.061871078 -0.1560421 -0.4633606 0.37151313
0001a0 4a 37 f9 3c bd 91 e5 bd 43 2d 2e 3d 6c f2 06 3f
       0.030421872 -0.11209438 0.042523634 0.52713656
0001b0 44 ce d7 3d 2b 1b a4 bd 21 87 56 be 4d f6 3c 3e
       0.10537389 -0.080129944 -0.20949985 0.18453331
0001c0 48 8a ae bd c9 48 0b 3d 1e a4 4f be 95 91 b7 bd
       -0.08522469 0.03400496 -0.2027745 -0.089633144
0001d0 92 13 a3 be ff e7 a2 be 4e 2c ed bd cc 22 1a bd
       -0.31850868 -0.31817624 -0.11580716 -0.03763084
0001e0 4b e3 f5 bd 95 1a 32 bc 31 44 e5 be e8 e7 e6 bd
       -0.12006243 -0.010870595 -0.44778588 -0.11274701
0001f0 f7 57 be bd d4 de ad 3d 37 6b 20 3e af 16 3a 3d
       -0.09294122 0.08489767 0.15665899 0.04543179
000200 01 02 85 3d 61 bb 0c be 3f ba a6 3d 1c 3e 24 3f
       0.06494523 -0.13743354 0.081409924 0.6415727
000210 4f 70 b6 be 94 e3 df 3d 3c 81 5d bf 83 f1 d5 3c
       -0.3563256 0.10932079 -0.8652532 0.026116138
000220 f1 8a 21 3c 98 0f 72 3d fe 25 0f bd 1f cf ce be
       0.009859786 0.059096903 -0.03494834 -0.40392396
000230 fc ee e3 be 46 67 77 be fe 95 86 be 2a a9 5b 3e
       -0.44518268 -0.2416049 -0.2628631 0.2145125
000240 c0 3c fa bd 00 01 33 3d aa 37 40 3d 80 55 d7 3e
       -0.122186184 0.043702126 0.046928085 0.4205742
000250 a1 f7 18 bd dc 90 9f 3e 82 49 ec bd d2 be 13 3e
       -0.037345532 0.31165206 -0.11537458 0.14428261
000260 6f 3e 77 bd 4b ea 1c be 09 de 98 be be c1 04 3e
       -0.060362276 -0.1532375 -0.298569 0.12964532
000270 4c 36 b7 3c 22 15 8b bd 53 bb 79 bd 3f 2a 12 be
       0.022364758 -0.0679114 -0.060969662 -0.14273928
000280 c4 9b a2 bb fe 29 b9 3c d4 5d 77 3c 94 c7 bf bd
       -0.0049624164 0.022603031 0.015098054 -0.093642384
000290 4f fb 29 be fc 74 0c 3d bb 1b ad 3e bb e8 87 3c
       -0.16599773 0.034291252 0.3381022 0.016590467
0002a0 b8 3e f0 3d 67 be 15 3d 71 0a 8b bd f0 94 60 bd
       0.11730713 0.036558535 -0.06789101 -0.054829538
0002b0 4a 56 53 bd f2 73 1f bf aa f1 19 bc 9b dd 97 be
       -0.051595964 -0.62286294 -0.009395996 -0.2966126
0002c0 bf f0 5b bb e8 45 e7 bb eb c1 4e bc 48 e0 4d bf
       -0.0033560244 -0.007057894 -0.012619476 -0.8042035
0002d0 63 b9 23 be 92 cf 2b bf 4f dc 3c bc 1e 4d 80 3e
       -0.15988688 -0.671136 -0.011527135 0.25058836
0002e0 ee 1f c5 bd 04 63 04 3d a0 e9 39 3d 0c b6 10 bf
       -0.09625231 0.03232099 0.045388818 -0.5652778
0002f0 d2 81 e7 bd d1 7d 6c 3e a2 88 bb bd 14 12 26 be
       -0.11304058 0.2309487 -0.0915692 -0.16217834
000300 c2 4d 65 3d 88 b2 2f 3d dc f2 24 bd 75 29 66 3d
       0.05598236 0.04289487 -0.04027067 0.05619188
000310 ab b1 58 be 87 63 5b bf 31 98 0b bc 99 27 40 bd
       -0.21161525 -0.8569874 -0.008520172 -0.046912763
000320 42 7f 84 3e 5d 4b cf 3e 36 ce 7c be 4b e0 a4 3d
       0.2587834 0.40487185 -0.24688038 0.08050593
000330 fc 21 ab b9 f5 e6 96 bd 6b d8 d9 bd 06 d3 90 bd
       -0.00032640982 -0.0736827 -0.106369816 -0.070714995
000340 fc 92 b1 be be 85 54 bc 2f 93 2c be 56 ea 7c 3e
       -0.34682453 -0.01297134 -0.16853021 0.24698767
000350 d8 3c 8d 3e 7b 0a ed be 15 56 b1 be 05 d7 a5 3e
       0.27585483 -0.46297058 -0.34635988 0.3239061
000360 44 d4 58 3e 69 ce 14 3d b1 00 7b be ee 6e a7 3e
       0.21174723 0.03632966 -0.24511983 0.3270182
000370 34 5f 73 3e ad 16 6a 3e a5 2a 78 3e 46 af d6 3d
       0.23766786 0.22860213 0.24235018 0.104826495
000380 dc c8 1d be ed 4c 69 bb f6 56 7f 3d af 79 c8 3e
       -0.15408653 -0.003559883 0.06233879 0.39155337
000390 a5 e8 90 bd 9b f9 02 be b3 8f bb 3e 7f 92 05 3e
       -0.070756234 -0.1279053 0.3663307 0.13044165
0003a0 d9 91 ad 3c ba 4e b9 bb b2 38 a8 bc ec 62 24 be
       0.02118771 -0.005655137 -0.020534847 -0.1605336
0003b0 c5 0b 1a be 05 0e 0f bf 62 65 56 3c e1 d8 58 be
       -0.15043552 -0.5588077 0.013085695 -0.21176483
0003c0 6e 0e d9 be 86 45 b6 3d 79 0c 88 bb a7 d6 a3 bb
       -0.4239382 0.08899979 -0.0041518775 -0.004999954
0003d0 58 9f 81 3b fa fe 81 3a 46 3e 82 be 2d ce 89 3e
       0.003955763 0.0009917908 -0.25438136 0.26915112
0003e0 a7 52 2c 3e 6e 72 a7 3d 67 77 8d 3d 13 06 85 bd
       0.16828404 0.081761226 0.0690754 -0.06495299
0003f0 f6 11 8c bc 29 a4 83 3e 25 9a de bd 07 1d dd bd
       -0.017098408 0.25711182 -0.108692445 -0.10796552

lc_encode.0.bias f4 [32]
000000 1b b2 95 be d1 47 a8 be 45 18 09 bf e3 6e e6 be
       -0.29237446 -0.32867292 -0.5355266 -0.45006475
000010 67 1b 8e bd c6 78 f0 bd 07 98 90 be 6f 3a 37 be
       -0.0693882 -0.11741786 -0.28240988 -0.17893384
000020 cf 0a 60 3d 00 5e 0f bc 6c f8 9f 3e 16 1f 51 be
       0.054697808 -0.008750439 0.31244218 -0.20422015
000030 b9 b2 e7 be a9 87 2b bf 7e 06 75 3d e8 61 e4 bd
       -0.45253542 -0.67003876 0.059820645 -0.11151487
000040 b1 59 28 3e 42 a4 4b bf d9 dc f9 bd 4c ed 2a 3e
       0.16440465 -0.7954751 -0.122003265 0.16692084
000050 eb 23 08 bf a0 ac 51 be e8 cd f4 be ee 96 ef bd
       -0.53179806 -0.20476007 -0.47813344 -0.116987094
000060 d2 5e b8 be f5 8f 84 3d b6 9c 11 3e d7 77 23 be
       -0.36009842 0.0647277 0.14219937 -0.15963684
000070 3b 8b 07 be fb cb 3e bf 8a ab c1 3e 17 ab 0c be
       -0.13236706 -0.7453 0.37826186 -0.1373714

lc_encode.2.weight f4 [128, 32]
000000 28 3f 8f 3d db 58 06 be f8 71 29 3c a1 7b db 3c
       0.06994468 -0.13119833 0.010342114 0.02679235
000010 1c b5 01 be 66 80 31 be 5e 31 0a 3e 96 d9 48 be
       -0.12666744 -0.17334136 0.13495395 -0.19614252
000020 39 7c fb bd ee b1 c4 bd f3 3e 4d be 78 0b 45 be
       -0.12279553 -0.0960425 -0.20043544 -0.19242656
000030 dc 8e 38 bd a8 cf 8c be 0f 66 5b bd 36 02 c6 bd
       -0.045058116 -0.2750218 -0.053564128 -0.096683905
000040 12 1c 2b be 02 99 26 be c6 11 92 bd 77 07 3c be
       -0.16709927 -0.16269305 -0.07132296 -0.18362223
000050 a2 da 19 be 82 a5 58 bc b2 2e 47 bd 38 38 3c 3d
       -0.15024808 -0.013223054 -0.048628516 0.045952052
000060 8c 2d 36 bb 86 a7 d1 bd 64 ea b7 3d 41 3d c0 3d
       -0.0027798144 -0.10237031 0.08980253 0.09386683
000070 bb 3a 0a bd a1 ba a2 bc 47 34 bf 3c ff 4a 93 3d
       -0.033747416 -0.019864382 0.023340357 0.07192039
000080 ed 8f 8a 3d aa 7b a1 3c bd 8e a7 3d 97 d6 ca bc
       0.06765733 0.019712288 0.08181522 -0.024760528
000090 60 cc 1c be fc da 60 be 04 9e 14 3d bb 88 18 be
       -0.15312338 -0.21958536 0.036283508 -0.14895909
0000a0 15 55 3e 3d 8a 21 f7 3c 15 58 fa 3d 59 ac 03 be
       0.04646786 0.03016736 0.122238316 -0.12858714
0000b0 a0 dd 07 bf d7 9a 5e 3d 54 a9 df 3d 4c ee 85 bd
       -0.5307255 0.054346886 0.10920969 -0.06539592
0000c0 1d 38 a0 bd ac 9e 35 bd c2 24 b9 bc 38 cb 13 3d
       -0.07823203 -0.044340774 -0.022600535 0.036082476
0000d0 a8 13 49 be 5d 44 35 bd 10 f2 e4 bd b4 36 d7 be
       -0.19636405 -0.04425465 -0.11178982 -0.42033923
0000e0 fe d1 56 3c b6 50 0c be 3d f8 aa bd 0b 8d 00 be
       0.0131115895 -0.13702664 -0.08348129 -0.12553804
0000f0 a2 b9 92 be 5c a9 0f 3e 58 ec 9e bd 13 6a 50 bc
       -0.28657252 0.14029449 -0.07759923 -0.012720603
000100 a6 9e 0e be 45 cc 0d be 0b a6 ed 3c ca 2d 9a bc
       -0.13927707 -0.13847454 0.02900984 -0.018820662
000110 f0 7b 94 3d 88 50 1c bc 36 80 80 bd 9f 7e 89 bc
       0.07250202 -0.0095406845 -0.06274454 -0.01678401
000120 01 83 30 be 69 84 c3 3d a6 89 6e be 8e 29 56 3d
       -0.17237474 0.095467396 -0.23294696 0.052285723
000130 4d a4 d9 bd b3 ff 01 be ce 50 03 be 2f 0a d2 3d
       -0.10627041 -0.12695198 -0.12823793 0.102558486
000140 d4 21 44 be 69 cd f7 3d 06 9c dc bd 29 88 60 bb
       -0.1915353 0.12099726 -0.107719466 -0.0034260845
000150 2d b6 70 be 29 56 96 3d ac 45 3b 3e e6 f4 90 be
       -0.23506995 0.073406525 0.18288296 -0.28311843
000160 d1 bb 0b be 9f ce 31 be f3 1f 9d 3d d6 02 92 bc
       -0.13645865 -0.17363976 0.076721095 -0.017823618
000170 fc 89 d6 bd 20 8a e9 bd 64 e6 d2 bb 33 c8 b4 3d
       -0.10475537 -0.114032984 -0.006436156 0.088272475
000180 c8 df 3f 3e 29 af 0a 3e e0 79 cc 3d 6b d7 d9 bc
       0.1873771 0.13543381 0.09984183 -0.026591977
000190 8a 11 b8 bc 36 ac 10 bd a1 27 d7 3d 47 90 57 be
       -0.0224693 -0.035320483 0.105056055 -0.21051131
0001a0 50 2f 2b 3d dc 16 f1 3c c5 95 f0 3b 24 04 80 bc
       0.041793168 0.029429846 0.0073420727 -0.015626974
0001b0 e8 75 e0 bc f7 13 53 3e fa 9e 2b bd b5 ef fe bd
       -0.027399972 0.20613085 -0.04189966 -0.12448064
0001c0 2d a8 8e 3d 06 be 7d bd 5b 10 33 3e 28 f6 51 3e
       0.06965671 -0.0619488 0.17486708 0.20504057
0001d0 74 88 21 3e 1a d8 1c 3e 47 d9 92 bc 5b 27 d8 bd
       0.15774709 0.15316811 -0.017925872 -0.105543815
0001e0 ac b2 0c 3e ff 04 de bd 77 27 59 bd 8d 52 0c 3e
       0.13740033 -0.10840797 -0.053016152 0.13703366
0001f0 ba 26 65 bd f5 16 69 bd 88 8c 83 bc 9a ac be bd
       -0.055945136 -0.05690666 -0.016058221 -0.09310265
000200 46 5c db 3d 5e 8b 0e 3d f1 f1 78 3e 1a fc a4 3e
       0.10710959 0.03480088 0.24311043 0.32223588
000210 62 4b 68 bd 99 5d 94 3d ed 26 7c 3e 74 da 2b bb
       -0.056712516 0.07244415 0.24624224 -0.0026222738
000220 8f 67 8f 3d 5b 7c 88 3d 5e 9c 2c be a7 d8 8e bc
       0.07002174 0.06664344 -0.16856524 -0.017437292
000230 92 e9 df 3c 19 6b 19 3d fa 68 a8 3e ca b8 05 3e
       0.027333055 0.037455652 0.3289259 0.13058773
000240 cc 1d 43 3c 3c 45 08 3d 16 f2 35 3e 56 a0 8d 3d
       0.01190896 0.033269152 0.1776813 0.06915347
000250 b9 d2 8e bd fd 69 56 3e 36 32 72 3e cf cf c1 bd
       -0.06973786 0.20938869 0.23651966 -0.094634645
000260 b3 b6 9a 3e fd 4f 09 3e ed d2 46 3e c3 bb f7 3d
       0.30217513 0.1340942 0.194164 0.120963596
000270 f9 6d d7 3b af 9a b5 3e c5 d3 13 bd 2c 3d 2b 3c
       0.006574389 0.35469577 -0.03609063 0.010451596
000280 d4 6f 53 3d ed 55 0b 3e ba 38 2e 3e 30 3f a6 bc
       0.05162032 0.13606997 0.17013827 -0.020293802
000290 ef 86 e0 bc 58 63 89 bb 98 bb fe 3c 10 1e d1 3c
       -0.027408091 -0.004192751 0.031095311 0.02552703
0002a0 12 30 3c bc 8c 28 98 3d b8 0d a5 3d cd 9b ad 3c
       -0.01148607 0.07429609 0.08059257 0.021192456
0002b0 c3 34 67 bd f3 bc e3 3d fd 33 3e 3d 4e bd ed bc
       -0.056446802 0.111200236 0.0464363 -0.029020932
0002c0 f1 b2 b6 bd 5d ba e3 3d db 9d a5 bd ec 01 21 3c
       -0.08920849 0.1111953 -0.08086749 0.009827118
0002d0 8d bd 56 3d 3b 63 c5 3d 6c d7 09 be c5 0e 21 3e
       0.052426863 0.09638067 -0.13461083 0.1572829
0002e0 d3 9a cf 3d 08 c1 45 3e 8b f9 50 3d ab 3c 03 be
       0.10136952 0.19311917 0.051019233 -0.12816112
0002f0 a7 10 d5 3c 43 44 a5 bd 42 8f 51 bc 34 d1 12 3d
       0.026008917 -0.080696605 -0.012790503 0.035844043
000300 16 1b 68 bd c4 7c 31 be 87 c1 70 be 73 75 8c be
       -0.056666456 -0.1733275 -0.23511325 -0.27433357
000310 3d 07 8f 3d bf d6 bf 3c 1a 54 81 be 86 66 c0 bd
       0.069838025 0.023417829 -0.25259477 -0.09394555
000320 40 68 b3 bd dd a3 2b be fa cd 24 bd 85 a9 b7 bc
       -0.087601185 -0.16761728 -0.040235497 -0.0224197
000330 35 98 9d bb 63 0c 75 3c 33 b8 a6 be 43 26 b3 be
       -0.0048094043 0.0149565665 -0.32562408 -0.3499013
000340 cb 5a 21 bd b8 03 89 be f3 19 fd 3d 75 d3 bf be
       -0.039393228 -0.2676065 0.12358465 -0.37466016
000350 b3 9b 1f 3c 64 68 bc bd 85 ef 89 bd 82 38 2e 3e
       0.009741711 -0.091995984 -0.06735138 0.17013744
000360 24 3d 4a bd ed 47 6b be 2b 52 4f be e0 4f b2 be
       -0.049374714 -0.22976656 -0.20246188 -0.34826565
000370 30 0b b1 bc c1 d8 4d be c2 00 ed bd 18 ac 27 be
       -0.02161178 -0.20102216 -0.1157241 -0.16374242
000380 21 65 0e be 99 2c 09 3c de 20 5e 3e a6 b9 35 be
       -0.13905765 0.008372449 0.21692225 -0.177466
000390 11 a7 ed bd 05 64 89 3d 6b ab 12 3e a0 6b 11 be
       -0.11604131 0.0670853 0.14323203 -0.14201212
0003a0 c2 a5 61 be ac 7e 86 3d 6e e7 e1 bd 40 70 91 bd
       -0.22035888 0.065671295 -0.1103047 -0.07101488
0003b0 b0 b6 46 be 20 86 86 3d 8a 6a c6 3d 9d ff 20 3e
       -0.19405627 0.06568551 0.096882895 0.15722509
0003c0 38 3a ad 3d 14 14 92 bd a2 89 ff 3d b3 b3 1f 3e
       0.0845837 -0.07132736 0.12477423 0.15595894
0003d0 8d df cf bd cb d9 1a 3c be 05 8f 3c 1a c0 ed bd
       -0.10150061 0.00945134 0.017458793 -0.11608906
0003e0 ba af 8f 3d df 0d 43 bc 5c c8 09 be 46 82 87 3d
       0.07015939 -0.011905163 -0.13455337 0.066166446
0003f0 97 b1 fc bd 0d 4e ab bd 47 64 57 bd 08 74 45 be
       -0.1233856 -0.083644964 -0.052585866 -0.19282544

lc_encode.2.bias f4 [128]
000000 99 5c 93 bd 9c 9f 49 3c e7 14 5c be 57 be ef 3d
       -0.07195396 0.01230612 -0.21492349 0.11706226
000010 0f bd c9 be 35 93 44 be 83 27 24 3e cb 23 a1 be
       -0.39402053 -0.1919678 0.16030698 -0.3147262
000020 16 b6 8a bd 3c 8d 41 3e f6 8d 9a bd 87 83 bf bd
       -0.067730114 0.18901533 -0.07546608 -0.09351259
000030 bb 47 19 bd 5e 64 5e be 34 63 40 3d df ba 17 3e
       -0.037421923 -0.21717975 0.046969607 0.1481738
000040 55 49 24 be 5d 00 8b 3d 4d 6e 8c bb 0f e8 33 3e
       -0.16043599 0.06787179 -0.00428561 0.17568992
000050 e3 81 0e 3d a4 aa 88 bb 9f 9c b1 bd 9c 96 86 3e
       0.03479184 -0.0041707326 -0.08672451 0.2628678
000060 29 31 cf bd e5 cb 41 3d 9e 69 84 be 4f 86 56 be
       -0.101167984 0.04731359 -0.2586183 -0.20949672
000070 e0 0f 16 be c2 26 8d 3d b8 2b 0d 3d 7c f5 48 3d
       -0.14654493 0.06892158 0.03446552 0.049062237
000080 62 d0 51 3e 99 05 2f be 14 9c bd be 3e 23 4d be
       0.20489648 -0.17091979 -0.3703314 -0.20032975
000090 72 81 47 be ed f4 35 3e 12 f5 1e be 7f 94 9a 3d
       -0.19482973 0.17769213 -0.15523174 0.07547855
0000a0 cc 1b ad be 95 b1 d8 bd de b2 69 bd 52 99 9d bd
       -0.3381027 -0.10580746 -0.057055347 -0.07695259
0000b0 42 65 39 3e 38 34 12 be 13 0c 58 3d 57 b8 45 3e
       0.18105033 -0.14277732 0.05274589 0.19308601
0000c0 a4 37 40 3e 4a 31 ec 3d 6c 40 22 bc f2 48 8f bd
       0.18771225 0.11532839 -0.009903055 -0.06996335
0000d0 fc 6e a3 3d 28 71 4a 3d a7 c4 4f 3d 3d 3d fb 3d
       0.07980153 0.04942432 0.05072465 0.1226754
0000e0 0b ce 19 3e a3 db af bd 0a 3f 9a be 4e 65 a3 3c
       0.15020005 -0.08586814 -0.3012622 0.019945767
0000f0 3b ac bc bd f6 b6 23 bd 7f 4a 5b 3c 70 3a 1c 3e
       -0.09212538 -0.039969407 0.0133844605 0.15256667
000100 87 0b 55 3e dc 9c 15 be 88 36 b1 3d bc e1 48 be
       0.20805179 -0.14610618 0.08652979 -0.19617361
000110 d0 43 18 3e 6a 1a a0 3c a8 43 f9 bd db 0b 93 be
       0.14869618 0.019543845 -0.121711075 -0.28719983
000120 62 d3 be bd 6b 74 3c 3d 88 b6 7c 3e f8 fb da bd
       -0.09317662 0.046009462 0.24679005 -0.106925905
000130 b7 e4 c3 3c 76 87 7c bc c0 70 1c 3e 5a 75 2d bd
       0.02391277 -0.015413156 0.15277386 -0.042348243
000140 fa 5c d3 bc 0b 2c 9a be d0 e9 b0 bc cb 0e 1f be
       -0.02580117 -0.30111727 -0.021595865 -0.15532987
000150 fa 79 1a be 5b 1e 67 bc dc 30 ff 3c 0d b8 6f be
       -0.15085593 -0.014106358 0.031151228 -0.23410054
000160 f2 2e 0d be 47 5a 8f bc 6c 74 9a bd 21 c5 09 3e
       -0.1378744 -0.017499102 -0.07541737 0.13454105
000170 01 15 a1 bd 5d 28 f7 bd a3 91 67 be ee 3e aa 3e
       -0.07865334 -0.120682456 -0.2261415 0.33251137
000180 bd 53 bc bd 57 ba 87 bc 04 56 91 bc cb 09 1d bd
       -0.09195659 -0.016568346 -0.01774121 -0.038339417
000190 39 e7 ec 3c 9c 82 4b be fd be a7 3c bd 41 39 be
       0.02891885 -0.19874042 0.020476812 -0.18091483
0001a0 4d 06 8f 3d 75 c5 22 bb f4 66 de bd a1 19 02 3e
       0.06983624 -0.0024836932 -0.108594805 0.12705089
0001b0 6b e4 0f 3d 0c de 75 3d b5 db ab be c4 b0 04 bd
       0.035129946 0.060026214 -0.3356606 -0.03239514
0001c0 a9 37 49 be 17 44 c2 3d 1b 5a 17 3e e7 ad dc 3c
       -0.19650139 0.09485643 0.14780466 0.026938392
0001d0 43 98 04 3e bc 49 50 be b2 d7 13 3d 99 44 02 bc
       0.12948708 -0.20340627 0.036094375 -0.007950925
0001e0 0c 1f ad 3d 8a 2c 29 bd a8 18 8d bd d7 dd 2c be
       0.08453187 -0.04130224 -0.068894684 -0.168815
0001f0 12 07 42 bd a6 96 a6 bc 5d 89 26 be f1 af 85 bc
       -0.047370024 -0.020335507 -0.16263337 -0.016319247

convs.0.nn.0.weight f4 [128, 256]
000000 81 07 1e 3e d8 c9 a8 3d 1e fe 0e 3e 04 fa 19 bc
       0.1543255 0.08241624 0.13964126 -0.009397987
000010 88 da ae bd 4c 1d db bd 71 12 01 3e b4 cb 28 3d
       -0.08537775 -0.10698947 0.12604691 0.04120989
000020 b6 b7 6c bf ae b8 57 3e 8d b5 ff 3d 6b e3 04 3e
       -0.9246782 0.21066543 0.124858 0.12977378
000030 11 4f 4e 3d d8 b0 86 bc 6a f2 51 3c 53 19 80 3d
       0.050368372 -0.016441748 0.012814144 0.0625483
000040 d1 3c e0 3d f6 5d a1 3d 23 19 8c 3d 32 a2 8a 3d
       0.109491 0.0787925 0.06840732 0.067692176
000050 06 96 5c 3d cf dd 18 3e 93 99 94 bd 06 aa 11 bd
       0.05385401 0.14928363 -0.072558545 -0.035562538
000060 20 15 14 3e 26 ff d8 3d 75 40 80 3d cd 34 21 3e
       0.14461184 0.10595541 0.06262294 0.15742798
000070 ad c5 2c 3e a4 dd 67 bd b3 df 1d 3e 3f df ad 3d
       0.16872282 -0.056607857 0.15417366 0.084898464
000080 89 80 13 bd ab 4a af 3d 5b 50 01 3d e1 a4 85 3c
       -0.036011253 0.08559164 0.031570774 0.016313972
000090 ea 76 4c 3d a1 84 02 3d 2a ed ac be 77 04 4e bd
       0.049918093 0.031864766 -0.33774692 -0.050297227
0000a0 a6 1b ad bb 0b 1e bb 3d 35 83 cb bd 5b dd 6f 3d
       -0.005282837 0.091365896 -0.09937135 0.05856071
0000b0 95 4f 2c bd aa 52 da bb f7 dd ca 3c 49 d4 60 3e
       -0.042068083 -0.0066626864 0.024764044 0.2195598
0000c0 13 1e 08 3d 30 de e5 3d 2a b0 e8 bd 68 27 2c 3e
       0.033231806 0.112240195 -0.11361726 0.16811907
0000d0 c6 91 aa 3d c6 07 04 3e eb 7c db 3d 5b cb be 3d
       0.08328585 0.1289359 0.107171856 0.09316131
0000e0 ce 7b 95 be 47 f8 f0 3d b0 c3 40 3e 99 04 db bb
       -0.29196018 0.11766105 0.18824649 -0.0066838977
0000f0 b9 60 dc 3d 0b 06 03 3e d2 19 0e 3d 01 91 08 bd
       0.10760636 0.12795274 0.034692593 -0.03334141
000100 54 43 b2 3d 4d 5c 5d 3d 2f ca 68 bd 7b f8 69 3d
       0.08704248 0.054043103 -0.056833442 0.057121735
000110 62 16 db 3d 4f 7d 1a bc 2e 50 ca 3d 8f d4 3b bb
       0.106976286 -0.00942929 0.09878574 -0.002866063
000120 d9 12 15 bd cd 9b 20 3e 8f c5 6c 3c 40 5e d3 3d
       -0.036394928 0.15684433 0.0144513985 0.10320711
000130 3f 41 2c 3e a4 b3 c0 3d 8e c6 94 bd 42 ab 79 bd
       0.16821764 0.09409264 -0.07264434 -0.06095434
000140 1d f3 93 3e 8e 3f 12 3b 02 af 45 bc 4f 8d de 3c
       0.28896418 0.0022315714 -0.012065651 0.02716699
000150 36 0e 31 3e b8 ce 3a 3d 49 9e 8d 3d 81 e3 ac 3d
       0.17290577 0.0456073 0.06914956 0.084418304
000160 b4 5b 86 3d c1 dc b1 b9 ad a9 31 3e ce d1 09 3d
       0.0656046 -0.00033924545 0.17349882 0.03364735
000170 a9 d7 e6 bb fd 4c 0d 3d 9b 1d 7f b8 a9 3c 04 be
       -0.0070447517 0.03449725 -6.082431e-05 -0.12913765
000180 4b c5 14 3d cb ce fe 3d 79 1e 1b 3e cb e8 d5 3d
       0.036320966 0.124417864 0.15148343 0.10444792
000190 e5 61 09 3d a7 9c 64 3c d8 ed 67 bb f8 7f 85 bd
       0.033540625 0.013953364 -0.0035389569 -0.06518549
0001a0 a3 e3 03 bf b5 ca 5d be 26 93 12 bc 1d 37 16 3e
       -0.5151922 -0.21659358 -0.008946216 0.14669462
0001b0 0f e4 97 bd d9 cb 20 3e d9 8b de 3d 63 e0 2f 3e
       -0.074165456 0.15702762 0.108665176 0.1717544
0001c0 36 cd d0 3d d9 71 16 3e 7a d7 a5 3d 01 f5 15 3e
       0.10195391 0.14691867 0.080977395 0.14644243
0001d0 b9 42 a5 be a9 98 d9 3d 82 bb c3 bc 37 37 86 3d
       -0.32277468 0.10624821 -0.023893122 0.065535
0001e0 43 f5 10 bd bc 44 76 3d d9 75 c2 3b b0 db 3d bc
       -0.03539015 0.060124144 0.0059344587 -0.011588022
0001f0 41 01 27 3e d5 3e f0 3d 2c 30 a0 3d 68 c6 eb 3d
       0.16309072 0.11730734 0.07821688 0.11512452
000200 d4 9f e9 bc 74 e9 60 3d 93 6e 9f 3c f5 a4 6f bb
       -0.028518595 0.05491014 0.019461906 -0.0036566828
000210 3b e9 27 3d f2 be 62 bd bd 7c 07 3d d7 cd 1c 3e
       0.04099391 -0.05535788 0.033077944 0.15312897
000220 dc 8f 1b be b2 52 b6 bd 79 b5 83 3d b1 39 5e 3d
       -0.15191597 -0.08902492 0.064310975 0.054254238
000230 d0 8d b6 3d 44 d5 55 bd 6b 1f 14 3d a4 63 16 bd
       0.08913767 -0.05220534 0.036162775 -0.03671612
000240 3a f4 a1 bd cf e6 88 3d 8d a4 99 3c 7c 66 b5 3e
       -0.07907911 0.06684648 0.018755222 0.35429752
000250 e0 d5 20 3c fe 77 06 3d 69 4e 79 3d 78 b9 6a 3d
       0.009816617 0.032829277 0.060865793 0.057305783
000260 32 b1 02 3d ac de 68 bd cc af fd bb ca 60 ec bc
       0.031907268 -0.05685298 -0.007741904 -0.028854746
000270 40 e3 a5 bd 90 44 2d 3d 1f 0e 1d bd d8 6f 69 bf
       -0.08099985 0.042301714 -0.038343545 -0.91186285
000280 57 8f 29 bd a0 ef 44 bd f7 9f bc bb 76 66 87 3c
       -0.041396465 -0.048080087 -0.005756374 0.01652835
000290 bc 7b f8 bb 4d 64 ed bb 7f 3c 50 3c d3 61 10 bb
       -0.0075831097 -0.007244623 0.012709736 -0.0022030964
0002a0 90 0b f7 3c 6f 96 5c 3c a2 72 51 bb ec 5a 8e bb
       0.03015688 0.013463601 -0.0031959196 -0.004344335
0002b0 c2 2e e4 bb e8 d7 78 bc d1 26 a0 3c 2b 54 2e bc
       -0.006963582 -0.015188195 0.01954976 -0.010640184
0002c0 15 5a 08 3d 02 e2 6e 3d 37 e8 49 3d 63 e4 98 bc
       0.033289034 0.058321007 0.049293723 -0.01866359
0002d0 b6 5c 80 3d 69 1d 7e 3e 8e 0e 35 bc 1f b1 f7 3c
       0.06267683 0.24815907 -0.011050833 0.030235825
0002e0 82 11 eb bb e8 f3 b1 bc ce 86 97 bc 84 b8 0b 3d
       -0.007173718 -0.021722749 -0.018496897 0.034111515
0002f0 a6 cd a3 3d 87 64 91 3c 83 ff 3c bd 7f 18 4a 3d
       0.07998209 0.01774813 -0.046142112 0.049339768
000300 3e ac 15 3d 65 18 1a be 27 4c e6 3c ba 25 16 3d
       0.036541216 -0.15048368 0.028112484 0.036657073
000310 09 8b ca 3c c3 93 8f 3a 2f 9f 6d 3d fa 5f 61 bc
       0.0247245 0.0010954071 0.058013137 -0.013755793
000320 46 35 01 3e 4e 08 a7 3d e8 02 f9 3c fd ad d0 3c
       0.12617978 0.08155881 0.030396894 0.02547359
000330 55 02 be bc 3f 84 a3 3d 80 85 ea 3c 26 dc b0 bd
       -0.023194471 0.07984208 0.02862811 -0.0863574
000340 54 5b 2f 3d 51 3c 29 bc 41 81 d4 bc 7c af aa 3d
       0.042811707 -0.010329322 -0.02594054 0.08334252
000350 0a c6 ec bc a6 e7 36 3d 2e cd fd bc ef e6 bc bd
       -0.028903026 0.04465451 -0.030981626 -0.092237346
000360 32 c4 a8 3b 93 0b 39 3c b0 76 c9 bc 92 b5 80 3b
       0.0051503414 0.011294263 -0.024592727 0.003927895
000370 77 56 83 ba 87 77 07 bd a5 a5 08 bb 09 2b 42 3e
       -0.0010020275 -0.033072975 -0.0020850685 0.18961729
000380 4e e8 ce bc d9 df 0b bc f3 dc 3e 3c 69 c3 81 3d
       -0.025257256 -0.008537256 0.011649358 0.063361
000390 d9 1a bf 3d b4 23 d7 3c b8 23 89 bc 89 cc 14 bc
       0.09331293 0.026262142 -0.016740665 -0.009081968
0003a0 0c ce e2 bd 63 4d e9 3c 85 41 17 ba 66 b2 35 bb
       -0.110744566 0.028479284 -0.0005769956 -0.0027724742
0003b0 a3 81 2b bd b1 31 d0 3c 46 28 7b 3d 14 66 a3 3c
       -0.041871678 0.02541432 0.061317705 0.019946136
0003c0 15 68 a9 3e 05 f5 a1 3e 9f bd f2 3d 15 7d 57 bc
       0.3308722 0.31632248 0.118525736 -0.0131523805
0003d0 5e c6 0c bd e2 ca 8e 3b c2 38 ac 3d 50 86 1a 3d
       -0.034368865 0.0043576816 0.08409263 0.037725747
0003e0 05 6b 8b be dd 66 da 3c bf ea 60 3e e6 be 99 3b
       -0.27230087 0.026660377 0.21964549 0.0046919463
0003f0 ff db 54 b9 c4 a7 17 3c 98 81 26 3e c4 82 6d 3a
       -0.0002029985 0.009256307 0.16260374 0.0009060318

convs.0.nn.0.bias f4 [128]
000000 7d 31 fd bd d2 2b 82 3e b5 80 1d 3f 6a 7b 21 3e
       -0.12362955 0.25424057 0.61524516 0.15769735
000010 8e a2 25 bd 68 04 37 be 96 60 9f bd de 0f 88 3e
       -0.040438227 -0.17872775 -0.07782094 0.26574606
000020 f0 70 ec bd 7d c3 38 be 4a ea da bc f5 0d 9b 3d
       -0.115449786 -0.18043323 -0.026723046 0.075710215
000030 51 5e 17 be 91 98 5e 3e 13 52 30 3e cc ac 09 3f
       -0.14782073 0.21737887 0.17218809 0.5377929
000040 b1 42 ea 3e 17 80 09 3f f8 37 db 3e a4 a2 b6 3e
       0.45754007 0.53711075 0.42816138 0.3567096
000050 80 db e0 3e d8 f3 98 3e 27 bc a7 3e 52 a1 07 be
       0.43917465 0.29873538 0.32760736 -0.13245133
000060 5e b2 ff 3d 4b c6 09 be 05 a5 ed bc 3d 48 07 be
       0.12485193 -0.13454549 -0.029009352 -0.1321115
000070 39 5b ed 3e 4f 2a b6 bd c2 43 5c 3e 92 b0 d1 bd
       0.4635866 -0.088947885 0.21510223 -0.10238756
000080 51 51 a6 3e 90 18 fe 3e fa 5e 78 3e 90 d7 7a 3b
       0.32483914 0.49628115 0.2425498 0.0038275458
000090 90 ff ea 3e 47 ae 71 3e 74 6e b4 bd d2 42 06 be
       0.45898104 0.23601638 -0.0881013 -0.13111427
0000a0 be d5 24 3e 52 59 45 3e 00 4f 80 bd 00 85 28 be
       0.16097161 0.19272354 -0.06265068 -0.16456985
0000b0 c6 7b f6 bd 9a e3 ba 3e 5b a2 0d bd 15 98 35 bd
       -0.12035327 0.3650177 -0.034578662 -0.04433449
0000c0 f2 17 d9 3e 14 f2 25 be 3d 17 ba 3e 65 21 de bd
       0.4240108 -0.16205627 0.36345854 -0.10846213
0000d0 5e 48 4d 3f 08 79 2b be 26 86 e0 3e 97 84 97 bc
       0.8018855 -0.16745389 0.43852347 -0.018495841
0000e0 91 c3 4b 3d 58 7b 2c be fa 69 f0 bd 4f c9 7e 3e
       0.049747054 -0.16843927 -0.117389634 0.2488148
0000f0 15 26 89 bc 2b ef 46 be 42 5c b7 3e 8e 81 0f 3f
       -0.016741792 -0.19427173 0.35812575 0.5605706
000100 85 5f 01 be 0e 6b e1 3e 6e 55 12 bd fc b1 ec bd
       -0.12634094 0.4402699 -0.035726003 -0.11557385
000110 b0 df 45 be 77 d4 d6 bd f6 71 af bd 5e b8 db bd
       -0.19323611 -0.10489743 -0.08566658 -0.107285246
000120 d8 00 3d be 81 7c f4 3c c5 22 c0 3e 71 e9 1f be
       -0.18457353 0.029844524 0.37526527 -0.15616395
000130 15 bb 08 3f ea df a1 bd df 6f ea 3e 37 9b 59 3d
       0.53410465 -0.07904036 0.45788476 0.05312654
000140 c3 89 8b 3e a4 96 52 be 11 7b 15 bd e3 6b 2c be
       0.2725354 -0.20565277 -0.03649432 -0.1683803
000150 2d 30 07 3f 90 23 95 3e c1 0d a5 3e 77 da 3e be
       0.52807885 0.29128695 0.32237056 -0.18638025
000160 99 e6 d4 3e a4 2e 96 3e 1b 2e 4e 3e 5b 20 51 bd
       0.41582182 0.2933246 0.20134775 -0.051056247
000170 a8 9e a2 3e 89 93 2d bd f4 67 a0 bd 88 ad 3e be
       0.3176167 -0.04237703 -0.078323275 -0.18620884
000180 59 c9 47 3d fe 82 55 3d b3 ca a6 bd 0c bc d9 bd
       0.048776004 0.052126877 -0.081441306 -0.1063157
000190 de 25 34 3d ea 6f c2 bc 79 c2 75 bd 24 66 c9 bd
       0.043981425 -0.023735005 -0.059999917 -0.09833935
0001a0 d2 03 1a be a0 60 2a be 05 d0 a8 3e f0 c2 81 3d
       -0.1504052 -0.16638422 0.32971206 0.063360095
0001b0 30 e4 01 be 0c 33 ec 3e 68 98 d6 bc 49 b1 22 be
       -0.12684703 0.46132696 -0.02619572 -0.15887941
0001c0 71 8d 0c be 66 fa 09 be 69 a4 0d 3e 4a fe 0c be
       -0.1372583 -0.13474426 0.13832249 -0.13768879
0001d0 5a 0c 3d be 34 c6 69 be 97 28 0a 3f c7 1e ec 3e
       -0.18461743 -0.22829515 0.53968185 0.4611723
0001e0 bb 2a f3 bd 86 f8 7b 3d 04 1d 10 be 3b b1 f6 3e
       -0.118733846 0.061516307 -0.14073569 0.4818209
0001f0 1e 3f 3a be b8 fe 65 3e 3d 46 0c bd d0 24 73 bd
       -0.1818814 0.22460449 -0.034246672 -0.05936128

convs.0.nn.2.weight f4 [128]
000000 f1 eb 71 3f 8e d0 24 3f 10 49 a3 3e 4f 98 18 3f
       0.94500643 0.6438073 0.3189168 0.59607404
000010 fd 22 ec 3e e2 65 17 3f 69 b8 4e 3f 62 79 af 3e
       0.46120444 0.59139836 0.8075014 0.34272295
000020 fb a6 c4 3e 74 50 46 3f 35 fe 7f 3f 29 b1 de 3e
       0.38408646 0.7746651 0.99997264 0.43494537
000030 80 8d 86 3f 3d d7 c2 3e 95 0f ac 3e 47 52 a8 3e
       1.0511932 0.3805484 0.33605638 0.32875273
000040 44 bb d1 3e fd 7a c6 3e b8 1d d1 3e 17 51 c4 3e
       0.40963185 0.38765708 0.40842986 0.38343117
000050 0b 44 e1 3e 3f 24 a5 3e 7e bc a3 3e ed f4 2d 3f
       0.43997225 0.32254216 0.31979746 0.6795185
000060 15 e1 af 3e ea da f4 3e 89 61 20 3f 86 f4 1c 3f
       0.3435141 0.47823268 0.62648827 0.61310613
000070 c9 2c be 3e b6 b3 d0 3e bb 5b 34 3e cb 95 01 3f
       0.37143543 0.4076211 0.17613117 0.5061919
000080 7a 10 ba 3e 83 b8 ad 3e d0 3c a8 3e bc 68 c8 3e
       0.36340696 0.33929834 0.32858896 0.39142406
000090 29 6c b6 3e d6 5e 5b 3f 54 a7 ec 3e 80 51 45 3f
       0.35629395 0.85691583 0.4622141 0.77077484
0000a0 db 0b a8 3e c8 4b eb 3e 87 90 20 3f 55 ee 64 3f
       0.32821545 0.45956254 0.6272053 0.89426166
0000b0 d0 9f 51 3f 62 62 a5 3e e2 b8 b2 3e 53 58 03 3f
       0.8188448 0.32301623 0.3490668 0.5130665
0000c0 d3 c8 b5 3e cf 8c 23 3f 77 db b2 3e 6d e1 3f 3f
       0.3550478 0.6388673 0.34933063 0.7495335
0000d0 a4 42 c5 3e 4a 8c 22 3f 9d 6f a7 3e 32 2f 58 3f
       0.38527405 0.63495314 0.32702342 0.84447014
0000e0 99 62 06 3f 9d 53 38 3f 57 80 3e 3f 03 05 d7 3e
       0.524942 0.72002584 0.7441458 0.4199601
0000f0 18 52 16 3f 01 2a 02 3f 58 9e dc 3e 06 a8 bb 3e
       0.58719015 0.5084534 0.43089557 0.3665163
000100 1c 27 10 3f 4b e4 02 3f bc bd ba 3e 27 58 3c 3f
       0.56309676 0.511296 0.3647288 0.7357201
000110 b7 bc 08 3f ca 76 21 3f 25 81 18 3f e2 71 19 3f
       0.53412956 0.6307188 0.5957206 0.59939396
000120 6c 7d 51 3f 72 d5 04 3f f4 74 a0 3e 68 ba 43 3f
       0.81832004 0.5188819 0.31339228 0.7645631
000130 34 0a b0 3e c9 7e 39 3f 87 87 a9 3e 04 f2 02 3f
       0.34382784 0.72459084 0.33111212 0.51150537
000140 92 d3 c4 3e 58 ce 1d 3f f4 50 bc 3e 33 2c 88 3f
       0.38442665 0.6164298 0.36780512 1.0638489
000150 6a 62 ce 3e dd 32 91 3e 5c e1 c4 3e e4 00 2e 3f
       0.4030946 0.28359118 0.38453186 0.6797011
000160 9f 44 95 3e d9 74 07 3f e2 7b 54 3e 8f 0b 64 3f
       0.29153916 0.5291267 0.20750383 0.89080137
000170 4b 7b a5 3e 02 bd fc 3e 72 3b 00 3f b3 e6 1b 3f
       0.32320628 0.49362952 0.50090706 0.60898894
000180 cb 08 3b 3e dd 34 b4 3e 7e d4 f9 3e df b9 2f 3f
       0.18265073 0.3519658 0.4879493 0.6864299
000190 91 b5 40 3f 4e 6f 16 3f 93 71 4d 3f 35 40 1d 3f
       0.7527705 0.5876359 0.80251426 0.614261
0001a0 eb 59 26 3f a0 3a db 3e 68 94 45 3f fb ec 76 3e
       0.64980954 0.42818165 0.77179575 0.24113838
0001b0 cd c8 8d 3f 0c a2 a8 3e 1c f6 20 3f bb 86 6b 3f
       1.1076905 0.32936132 0.62875533 0.9200246
0001c0 9d 5c 0f 3f 58 ad b9 3e bf 9c 1a 3f af 94 5a 3f
       0.5600069 0.36265063 0.60395426 0.85383123
0001d0 4f e2 98 3f b7 56 87 3f 1b 0c b6 3e 89 10 db 3e
       1.1944064 1.0573338 0.3555611 0.42786053
0001e0 d5 d4 73 3f ed d4 0c 3f 97 00 32 3f 99 49 dd 3e
       0.9524663 0.550124 0.6953215 0.43220213
0001f0 2c dc 46 3f 37 21 4d 3e 6e 11 95 3f 95 e0 0b 3f
       0.77679706 0.20032202 1.1645944 0.5463956

convs.0.nn.2.bias f4 [128]
000000 f0 67 de 3e 7b b1 7e be 3e 0c 73 be b7 c8 48 be
       0.43438673 -0.24872391 -0.23735139 -0.19607817
000010 b3 36 6d 3e ea 15 53 3e c5 2f e2 3e 64 72 e2 bd
       0.23165397 0.20613828 0.4417707 -0.110569745
000020 56 3a 58 3e 94 8e 0d 3e 3f d4 2d 3f 16 b1 12 3f
       0.21116003 0.1382392 0.67901987 0.5730146
000030 7a 2c b4 3c 28 1e 70 3e 12 0c f5 3e 10 6d 25 be
       0.021993864 0.23449004 0.4786077 -0.16154885
000040 a0 ad 44 be c2 42 04 be af e1 8e bd 92 3b 25 be
       -0.19206858 -0.12916091 -0.069766395 -0.16136006
000050 ac e2 1e be 4b be dc bd e7 da e8 3d ba 92 63 3d
       -0.15516156 -0.10778483 0.11369877 0.05555985
000060 34 54 6c bc 67 7b b2 3e 4d ce a4 3e f3 5f 3b 3e
       -0.014424372 0.34859774 0.32188645 0.1829832
000070 c0 ae 1d be 56 16 dd 3e 3d a3 43 3e cc fc 03 bd
       -0.15398693 0.43181103 0.19105239 -0.032223508
000080 82 19 67 3e 96 72 0d 3e 98 72 f6 3e 59 29 14 3f
       0.22568324 0.13813242 0.48134303 0.5787559
000090 7b a3 e3 bd ea ec 82 3f 55 1b 50 3d 0b e0 02 3e
       -0.11115166 1.022855 0.050807316 0.12780778
0000a0 aa 4e 93 3e cf a5 27 be a8 be f7 3d 97 76 0d 3e
       0.28770953 -0.16371845 0.12096912 0.1381477
0000b0 09 ee 16 3e ed 1f 1c 3e 17 3e 81 3e 37 88 8e 3d
       0.1473924 0.15246554 0.25242683 0.06959575
0000c0 6f db 8b bd 4e 42 fd 3d f4 e8 b0 bd e1 a3 17 3e
       -0.06828963 0.12366162 -0.08638182 0.14808609
0000d0 66 d0 fd bd 44 7a 3b 3c 38 c9 ae bd 93 78 3b 3f
       -0.123932645 0.011442725 -0.08534473 0.73230857
0000e0 a5 11 d4 3e b9 58 fa bb bc 99 87 3e 06 d9 ca 3e
       0.41419712 -0.007639971 0.26484478 0.396187
0000f0 99 fa 1f 3e 49 ef 83 3e 9c 4b 01 bc 55 96 e5 bd
       0.15622939 0.25768498 -0.007891562 -0.11210314
000100 29 86 a5 3d e7 5f ea 3e d9 55 a2 3e 2f 5f 31 3e
       0.0808223 0.45776293 0.31706122 0.17321466
000110 05 c9 91 3d f8 d9 1c 3e 27 17 8e 3e da 61 01 3f
       0.071184196 0.15317523 0.2775204 0.50539935
000120 40 e5 00 3f 54 43 bc 3d a8 a8 d6 3d 1f 0e 97 3b
       0.5034981 0.09192529 0.104813874 0.0046098377
000130 f0 40 fc bd 4a b0 0f 3e 04 91 ce bd c0 c1 97 3e
       -0.12317073 0.14032093 -0.10086253 0.29640007
000140 93 39 e4 3e ae ba 0c 3f 33 ee 65 3e da eb 86 3e
       0.44575176 0.5497235 0.22454147 0.26351815
000150 92 dc f5 bd e2 ff 6d 3e 74 1d 21 be 14 cb 7d 3d
       -0.12004961 0.23242143 -0.15733892 0.06196125
000160 59 5f 79 3b 84 6a 15 be 7a 7c 41 3e 61 8c 31 3f
       0.0038051216 -0.14591414 0.1889514 0.69354826
000170 bc 7a 3d be cf 56 d5 bb df 64 73 3e 33 73 60 3d
       -0.1850385 -0.0065105925 0.23768948 0.054797363
000180 91 65 65 3e 69 d4 93 3e f5 e3 20 3e 92 44 ea 3c
       0.22402026 0.28872994 0.15711959 0.02859715
000190 23 12 87 3f 5d 80 47 3e 4a 65 18 3e 7c 8d e8 3e
       1.055241 0.1948256 0.14882389 0.45420444
0001a0 5b 03 6f 3e bc 85 8b 3e 4c 91 34 3e 89 d5 b8 bd
       0.23341124 0.2725047 0.17633551 -0.090251036
0001b0 bc f1 63 3f 3c db 0b 3c ef 5a c7 3e c2 4a ef 3c
       0.8904073 0.008536156 0.38936564 0.029210452
0001c0 54 e6 a0 3e 5a 94 5e 3d 42 09 34 3f 5d 45 06 3f
       0.31425726 0.054340698 0.70326626 0.5244959
0001d0 67 30 08 3f bc 0c 15 3f 75 42 d5 3e cd ee 27 be
       0.53198856 0.58222556 0.41652265 -0.16399689
0001e0 70 aa 41 3e ed 7d b8 3e 6d 4c 08 3e 67 f8 d1 3e
       0.18912673 0.36033574 0.13310404 0.41009828
0001f0 32 3f 90 3e 9e 70 5e 3d 04 d1 64 3f 48 99 81 3e
       0.28173214 0.05430662 0.8938143 0.25312257

convs.0.nn.2.running_mean f4 [128]
000000 f7 6c 7f bf 13 6e 2b 41 70 9c bc 41 fd 24 ff 40
       -0.9977564 10.714374 23.576385 7.973265
000010 a2 0f 4b bf fd 7b 7f bf 44 f6 7e bf 02 8e 66 41
       -0.7932073 -0.99798566 -0.9959452 14.40967
000020 50 20 7e bf f9 e6 7f bf 25 46 3e bf a7 1a 47 be
       -0.99268055 -0.9996181 -0.7432578 -0.19443761
000030 ac fb 7f bf 45 94 ee 40 16 5d e4 40 87 c9 74 41
       -0.99993396 7.4555993 7.136363 15.299201
000040 30 ac 9e 41 ce c1 aa 41 bc e1 6e 41 e9 de 6c 41
       19.834076 21.344631 14.930111 14.804421
000050 af a3 7b 41 4a e8 87 40 3d 7c 1f 41 68 dc 7f bf
       15.727462 4.2471056 9.967832 -0.9994569
000060 4f 42 03 41 e3 89 7e bf 01 56 7f bf c4 92 7f bf
       8.203689 -0.9942915 -0.99740607 -0.9983332
000070 f9 83 8e 41 f3 07 42 bf bd d5 b4 40 7b dd 61 bf
       17.81444 -0.7579338 5.651091 -0.8822858
000080 f4 24 a8 40 b7 12 a0 41 24 49 4a 41 6b 3e 39 3f
       5.254511 20.009138 12.642857 0.7236087
000090 0d 11 3d 41 d3 24 cc 40 d3 e2 7f bf e6 cf 7f bf
       11.816663 6.379495 -0.9995548 -0.999266
0000a0 eb fe 46 41 51 de fa 40 24 de 7f bf 4b f9 7f bf
       12.437236 7.839638 -0.99948335 -0.99989766
0000b0 77 d7 7f bf 51 23 22 41 dd 0b 3a bf 7a f5 7f bf
       -0.9993815 10.133622 -0.7267435 -0.9998394
0000c0 f2 78 80 41 7c e5 7f bf ec 4a 66 41 a1 cb 7f bf
       16.059055 -0.9995954 14.393291 -0.9992009
0000d0 a4 82 d3 41 cb fc 7f bf f3 4a 97 41 4c f6 2b 3e
       26.43879 -0.99995106 18.911596 0.16793174
0000e0 22 ab 1d 3f af f9 7f bf 2c 89 7e bf 72 69 80 40
       0.6158925 -0.9999036 -0.9942806 4.0128717
0000f0 0c 5f 68 bf 1d 05 7f bf 54 59 5c 41 fc b4 b7 41
       -0.9077003 -0.9961718 13.771809 22.963371
000100 ed 73 7f bf c5 9e 77 41 19 90 30 bf 5a d2 7f bf
       -0.99786264 15.476262 -0.68969876 -0.99930346
000110 0d ed 7f bf db 68 7f bf 19 ae 00 bf 30 9c 7b bf
       -0.99971086 -0.9976937 -0.5026565 -0.982852
000120 8d de 7b bf ad a7 07 41 61 24 96 41 86 ef 7f bf
       -0.9838646 8.478436 18.767763 -0.9997486
000130 74 79 84 41 78 fc 7f bf 40 4f 93 41 9b 85 f6 be
       16.559303 -0.9999461 18.413696 -0.48148808
000140 18 c1 37 41 a4 f9 74 bf 89 f5 23 bf 7a 05 62 bf
       11.484642 -0.9569342 -0.6404653 -0.88289607
000150 1f 93 73 41 69 83 69 41 30 e0 6c 41 76 e7 7f bf
       15.223418 14.594583 14.804733 -0.99962556
000160 dd 25 8a 41 07 a1 0d 41 01 7a 3b 41 27 42 64 bf
       17.268488 8.851813 11.717286 -0.8916344
000170 74 b5 81 41 02 4b 4f bf 70 1a 73 bf 0f e6 7f bf
       16.2136 -0.8097383 -0.94962215 -0.99960417
000180 4d 89 80 40 14 85 95 3f f2 4f 7e bf 7e e8 7f bf
       4.0167603 1.1681237 -0.99340737 -0.9996413
000190 ed 7b a4 3f 01 99 26 bf 91 df 7f bf 48 55 71 bf
       1.2850319 -0.65077215 -0.9995051 -0.94270754
0001a0 40 5a 7f bf 0e 90 78 bf 35 f2 46 41 cd d9 dc 40
       -0.99747086 -0.9709481 12.434133 6.901587
0001b0 95 44 99 be 16 98 7d 41 9b 62 7e bf 16 f1 7f bf
       -0.29935136 15.84963 -0.9936921 -0.9997724
0001c0 00 d8 6a bf 3f d8 7f bf c4 7f 31 3f 83 41 7e bf
       -0.9173584 -0.9993934 0.6933558 -0.9931871
0001d0 d0 86 7f bf fc 15 7f bf 55 1a 02 41 9e d6 84 41
       -0.9981508 -0.9964292 8.131429 16.604794
0001e0 93 b3 7f bf 0e ff 92 41 cd c5 7f bf af 52 c5 41
       -0.99883384 18.374538 -0.99911195 24.665373
0001f0 ea 83 7f bf 1f 9e 79 41 41 e3 14 bf 02 77 7a bf
       -0.9981066 15.601104 -0.5815926 -0.9783784

convs.0.nn.2.running_var f4 [128]
000000 6c 88 c9 37 4f f7 95 3f 24 60 7e 3f 1e cf 62 3f
       2.4024594e-05 1.1716098 0.9936545 0.88597286
000010 f6 05 02 3e 70 9e 57 38 fb de 6a 38 2a a9 88 3f
       0.12697586 5.140755e-05 5.5997614e-05 1.0676625
000020 b5 58 42 39 ac 0b b2 34 91 d2 57 3e 29 cb 84 3e
       0.00018534328 3.3163576e-07 0.21076418 0.2593625
000030 5c 7c 67 32 8d d5 2d 3f a7 b4 05 3f 26 ef 4a 3f
       1.3474246e-08 0.6790398 0.5222878 0.7927116
000040 98 fa cb 3f 3b 3f 9a 3f c4 1d 9f 3f f9 05 4f 3f
       1.593585 1.2050546 1.2430959 0.8086849
000050 d5 70 7b 3f bf 73 be 3f 6d a2 68 3f 99 ad 2a 34
       0.98219043 1.4879073 0.9087284 1.5895638e-07
000060 6c 92 5b 3f 97 b5 80 38 dc 47 4a 38 d3 df 5d 36
       0.857703 6.1373394e-05 4.8227477e-05 3.306185e-06
000070 b7 4e 0c 40 80 2a 04 3d 12 74 3e 3f e8 3e a9 3e
       2.1923044 0.032267094 0.7439586 0.33055806
000080 10 46 83 3f f7 44 c6 3f 8e 48 8c 3f 50 a3 6b 3f
       1.0255756 1.5489796 1.0959642 0.9204607
000090 03 01 66 3f 2f 3c 39 40 f5 e2 0d 3d 31 7f 2e 34
       0.89845294 2.8942983 0.03464027 1.6251285e-07
0000a0 70 9f 88 40 e0 3a b5 3f 84 54 a2 34 e6 16 3b 3c
       4.2694626 1.4158592 3.0236345e-07 0.011419034
0000b0 36 76 c8 34 91 cc 0e 3f fb 5f c1 3d 78 aa 15 34
       3.7338913e-07 0.55780894 0.09442135 1.3938723e-07
0000c0 f0 90 94 3f f0 a5 5d 37 17 1d 53 3f 8e dd a2 34
       1.1606731 1.3211262e-05 0.8246626 3.0336054e-07
0000d0 2b 17 74 3f 92 fc 80 31 8e 70 eb 3e 0d f4 e3 3f
       0.9534785 3.754004e-09 0.4598431 1.7808853
0000e0 b1 6f 8e 40 63 c2 14 3c 5d 60 b7 39 4e 15 e1 3f
       4.451134 0.0090795485 0.00034976276 1.7584627
0000f0 96 1d b7 3d ba 2c 09 3a 08 c7 2d 3f 38 a5 8e 3f
       0.0894119 0.00052328 0.6788182 1.1144171
000100 6b e3 d2 35 90 17 e2 3f e3 18 e2 3d a8 c6 98 34
       1.5712407e-06 1.7663441 0.11039903 2.8456748e-07
000110 eb 8f 0f 34 93 1a 0c 39 53 5e 9d 3f 51 83 2e 39
       1.337027e-07 0.0001336134 1.229441 0.00016642852
000120 28 26 45 3a ee 66 c5 3f 24 be 86 3f fa a4 23 34
       0.00075206393 1.5422037 1.0526776 1.5240576e-07
000130 25 36 46 3f 8f d9 5d 32 34 19 6a 3f 46 72 2d 3f
       0.7742637 1.291336e-08 0.91444707 0.6775249
000140 81 e1 c2 3f f2 2a 2d 3b d6 1e 21 3e 17 fc 12 3f
       1.5225068 0.0026423302 0.15734419 0.5741591
000150 c8 28 99 3f e0 90 de 3f b7 2d 5a 3f 97 57 bc 3b
       1.196557 1.7387962 0.85226005 0.005747746
000160 b3 00 88 3f 46 d0 45 3f 0d f4 06 40 9c 01 80 3c
       1.0625213 0.77270925 2.1086457 0.015625767
000170 28 20 d0 3f ac df 42 3e 59 27 1e 3c 4a a0 cb 3c
       1.6259813 0.19030637 0.009652936 0.024856705
000180 8d 50 a0 3f 77 ef 05 40 17 68 6d 3a 2c d2 0e 3c
       1.2524582 2.0927408 0.0009056343 0.008717101
000190 16 9f d7 3f 24 21 41 3f ae bf 2f 34 9b 92 11 3c
       1.6845424 0.75441194 1.6367878e-07 0.008885051
0001a0 1a e3 93 38 0a 78 2d 3b 0c f8 2a 40 8c 14 16 3f
       7.051807e-05 0.0026469254 2.6713896 0.586251
0001b0 d9 41 83 3f 61 38 5f 3f bd bc c0 38 a3 0b 77 33
       1.025447 0.871954 9.190429e-05 5.7519753e-08
0001c0 f7 82 31 3d 20 5f 33 37 3a 54 a7 3f 1b af e1 38
       0.04333779 1.0691379e-05 1.3072579 0.00010761452
0001d0 4c 85 dd 37 9b 42 22 38 dd 85 19 40 ba 6c ee 3f
       2.6407324e-05 3.868584e-05 2.3987954 1.8626931
0001e0 fb 9b c3 37 09 1a a9 3f ee 57 9e 34 10 ba 9b 3f
       2.3318446e-05 1.321107 2.949377e-07 1.2166157
0001f0 3b 8d a5 38 54 5d 41 40 8c 41 b1 3e 44 a3 19 3c
       7.894119e-05 3.0213213 0.3462032 0.009377304

convs.1.nn.0.weight f4 [128, 256]
000000 ff 76 4d be a0 45 bb 3d 9f 33 9d be 0d 27 4c 3d
       -0.20064925 0.09144139 -0.30703446 0.04984193
000010 0c 8a 98 3b cb b6 aa 3d 51 ba c0 bd eb 4d 7b be
       0.0046551283 0.08335646 -0.09410537 -0.24541442
000020 28 49 53 3d 22 bb 47 bd af 4b f3 3d 2b 74 a2 bd
       0.05158344 -0.048762448 0.1187967 -0.079323135
000030 f4 9f fc bd fa 7d 0c 3d e8 92 61 bb a7 ee d1 3e
       -0.12335196 0.034299828 -0.0034419838 0.4100239
000040 29 25 6e be d8 12 91 bd 49 0d d7 bd 31 f9 45 be
       -0.23256363 -0.07083672 -0.10500581 -0.1933334
000050 14 f5 5b be 11 89 8a 3d 76 38 f0 bc 8f c4 69 3d
       -0.21480209 0.067644246 -0.029323798 0.05707222
000060 e7 56 46 bd 62 c9 74 3b d3 ae 91 bc b8 95 db bc
       -0.04842272 0.0037351479 -0.017783558 -0.02680479
000070 34 55 29 be b5 99 eb 3c 35 62 24 3e a4 27 1f be
       -0.16536409 0.028759817 0.16053088 -0.15542465
000080 6a 06 d4 bb 3c 27 08 bd 3f db 34 3d 1e 79 96 3c
       -0.006470491 -0.03324054 0.044154402 0.0183683
000090 96 02 85 be 61 56 5d bc f4 bd e3 bc d9 0e 7a 3c
       -0.25978535 -0.013509364 -0.027800538 0.015262329
0000a0 a6 64 0c 3e 40 f4 b6 3e 79 c6 88 3c 5f 70 cd be
       0.1371027 0.35733223 0.016696202 -0.40124795
0000b0 2d 4c fa 3c 07 41 8b bd 6e 21 c7 bd 64 22 41 3d
       0.030553902 -0.06799512 -0.09723173 0.047151938
0000c0 84 28 11 3c cd 71 e5 bd c8 e8 35 3e b0 4f 5b 3e
       0.008859757 -0.112033464 0.1776458 0.21417117
0000d0 79 e5 40 be c9 2a 4c be b7 bd 67 3d b0 8e 4a 3d
       -0.18837537 -0.19938196 0.05657741 0.049452484
0000e0 10 07 c1 3c 7f 2d a5 be 3f 5d c3 bc 2b e6 a3 bd
       0.023562938 -0.32261273 -0.023848174 -0.080028854
0000f0 a5 ad b8 bd 6e d4 ad bc 74 1c 8e bd 39 38 87 be
       -0.09017495 -0.021219458 -0.06939021 -0.26410082
000100 72 1f 1b 3b 1a 0f b9 bd 0c 1e 69 bc 84 bd 49 3e
       0.0023669866 -0.090360835 -0.014228355 0.197012
000110 5b dc 99 bc 08 45 35 3d d3 af 62 bd 7e e2 98 3d
       -0.018781831 0.044255286 -0.05534346 0.07465075
000120 1a ee 28 3c ac 37 93 bc 59 19 1f 3e da f0 06 bd
       0.010310674 -0.017970882 0.15537013 -0.032944538
000130 50 b3 28 bd b0 ff 99 bc bb db e3 3d fd 26 f6 bc
       -0.04118663 -0.01879868 0.11125895 -0.030047888
000140 6e 8a 19 bd e3 97 92 3c b6 d5 27 bd ac 22 d0 3d
       -0.037485532 0.01789469 -0.040975295 0.10162863
000150 d7 40 9c 3e 84 79 23 bc 13 10 c9 bd 1e c1 0d be
       0.3051822 -0.009977702 -0.09817519 -0.138432
000160 ac be f1 bd c8 40 82 bd e1 6c d3 bd 80 ba a8 bd
       -0.11803946 -0.06360012 -0.103235014 -0.08238697
000170 1f ab f8 3c cc 1e 12 3c 92 eb a2 bb 12 62 2c bd
       0.030355034 0.008918475 -0.00497193 -0.042085715
000180 f7 69 1e 3d 3e 21 7e 3d 37 01 28 3e df 27 15 bd
       0.038675275 0.06204342 0.16406713 -0.036414977
000190 f5 f5 04 3e ac 86 21 3e fd 49 58 3d 4e 5c 14 bc
       0.1298445 0.1577403 0.052804936 -0.00905521
0001a0 92 52 b1 3d b2 2e d8 3d 67 ef 8d bd 72 e1 a6 bd
       0.08658327 0.105557814 -0.06930428 -0.08148469
0001b0 63 02 8c 3c 04 b6 25 be 0e 99 e9 bb 71 31 c1 be
       0.017090982 -0.16182715 -0.0071288412 -0.37733033
0001c0 6f 77 8a 3d 0c d6 6d bd 92 4e 44 3c 68 45 ba 3c
       0.067610614 -0.05806546 0.011981623 0.022738174
0001d0 de b0 8e 3c 0e 82 4e ba 30 0f ee 3d 97 ec 19 3d
       0.017418321 -0.0007877656 0.116239905 0.037579145
0001e0 76 96 09 3d ee 77 82 bd a0 19 08 3e 46 ba 0e be
       0.033590756 -0.06370531 0.13291025 -0.13938245
0001f0 48 f9 05 3e 72 55 0f be a3 e9 80 3e 32 83 d3 bc
       0.13083375 -0.13997439 0.2517825 -0.025819395
000200 19 55 ca 3e f8 f4 84 3c ce 0b b2 bd da 27 2b 3e
       0.3951805 0.016230091 -0.08693658 0.16714421
000210 b7 d8 a0 3b 60 7a 19 be 0a 93 88 3e ae 34 9e be
       0.004908647 -0.14988089 0.26674682 -0.30899566
000220 5a 37 1c bf b6 6c 0c bf 35 ce 0a be f3 2a b6 bd
       -0.6102196 -0.5485338 -0.13555224 -0.08894911
000230 b5 b7 e3 be 34 70 40 3d 7f bb 03 be 9a 27 df 3e
       -0.44476095 0.046982005 -0.12864493 0.435849
000240 f7 29 10 be 19 f7 18 3e 61 20 d3 bd 4b ff 6d bd
       -0.14078508 0.1493801 -0.1030891 -0.058104794
000250 11 69 06 be d5 64 85 3e 57 6c 84 be 74 66 32 bf
       -0.13126017 0.2605349 -0.25863907 -0.6968758
000260 fa e8 1b 3d 9b 99 a8 3d 39 e7 ff 3d e2 8c fe bd
       0.03806398 0.08232423 0.12495274 -0.12429215
000270 69 2c 33 be 37 36 89 bd 1e 18 47 3e 8c d5 7f bd
       -0.1749741 -0.06699794 0.19442794 -0.062459514
000280 13 15 92 3d b2 47 77 be e6 19 22 3f 8c 53 cf 3d
       0.07132926 -0.24148443 0.6332077 0.10123357
000290 f9 db 3e be 3d 3c c6 3e 13 5e a7 3c e0 66 8d 3e
       -0.186386 0.38717833 0.0204306 0.2761755
0002a0 42 f3 30 3e 24 a0 94 3e d2 d3 83 be 6f ee dd 3d
       0.17280295 0.29028428 -0.25747544 0.10836493
0002b0 80 ab 2e be 7d 27 8a be 0d a7 0a be a7 ab 2d 3f
       -0.1705761 -0.26983252 -0.13540287 0.67840046
0002c0 ad 56 b4 bd d2 98 86 3c 9e 86 ce 3d 67 6b 21 3f
       -0.088055946 0.016430292 0.1008427 0.6305451
0002d0 5d 87 c1 bd fe 81 49 3e 14 57 49 3d 7f 77 37 be
       -0.094496466 0.19678494 0.04915531 -0.17916678
0002e0 80 14 61 3d de 55 bc 3d 07 c2 06 be c9 cd b4 3d
       0.05495119 0.09196065 -0.13159953 0.08828313
0002f0 cb c6 26 be 95 af 26 3d e6 52 a8 bd 90 49 2b 3c
       -0.16286771 0.04069479 -0.082189366 0.01045455
000300 e2 28 1a be 34 b4 b9 bd 57 97 3b be 0d db b5 3e
       -0.15054658 -0.09067574 -0.1831945 0.35518685
000310 c9 d6 f4 3e c3 a2 14 bd 08 01 ca bd 08 a2 7d bd
       0.47820118 -0.036288034 -0.09863478 -0.061922103
000320 9d 02 0a 3e e0 ab 48 bd 5f c4 b7 3e b1 13 00 bb
       0.1347756 -0.048992038 0.35892007 -0.0019542987
000330 24 c2 d9 bd 08 6e bb 3d 7a d7 36 be 69 9a f6 3c
       -0.106327325 0.09151846 -0.17855635 0.030102925
000340 e2 e0 b7 bd c9 c3 1d 3f df 65 c8 3c 6a ea 97 bc
       -0.0897844 0.6162687 0.024462638 -0.018544395
000350 d0 bd a8 3e 72 41 10 be 3f c6 49 be 39 ce b5 be
       0.32957315 -0.14087465 -0.19704531 -0.35508898
000360 f4 a0 a2 3b 17 11 83 3c 80 cb c4 3d 6b 5a a1 3d
       0.0049630348 0.01599936 0.09609127 0.07878574
000370 00 62 23 be 7f 66 58 be 7e dd 6e 3e 07 57 27 bf
       -0.15955353 -0.21132849 0.2332668 -0.6536717
000380 7f ab 04 3f 4e 52 aa 3c fa c6 fc 3d 13 bb 20 bf
       0.5182418 0.020791199 0.12342639 -0.6278545
000390 87 07 93 3e 4b 69 18 3e b2 a7 83 be b3 94 27 3e
       0.2871668 0.14883916 -0.2571388 0.16365318
0003a0 1b e1 fc be 90 54 e5 be 6f dc b8 3b 95 49 b9 bd
       -0.49390492 -0.4479108 0.005641512 -0.09047238
0003b0 6d ce 8d be 2d 08 2c be 95 40 8b 3c 7b bd 2e be
       -0.27696553 -0.16799994 0.016998569 -0.17064469
0003c0 ed 3b 01 3e 96 80 1e 3e b5 0b 0b bd a5 b8 69 3e
       0.12620516 0.15478739 -0.03394671 0.22824343
0003d0 30 d5 cc bc f9 e0 8d be 52 32 0a 3e 5c 5c 57 3d
       -0.025004 -0.27710703 0.13495758 0.052578315
0003e0 ec b7 2f 3d 6d 8c f1 bd b7 a3 98 3e 58 d2 be bd
       0.04290001 -0.11794362 0.29812405 -0.09317464
0003f0 e9 c3 65 3d f1 3b ca 3e aa 2c 23 3d 0a 07 39 3d
       0.056095038 0.39498857 0.039837517 0.04517273
