TracksterFormation/Mixed/Split/runs/DEC/best_model.pt (torch, 517026 bytes, 33 tensors)

lc_encode.0.weight f4 [32, 8]
00000000: 1d55 c33d 34de f33d 8592 79bc 4fb1 28be
00000010: f882 bc3d 55a5 ccbc 5d06 0ebe ea60 0f3e
00000020: f504 dbbd 4456 053e aa34 84bc 8aa5 28bc
00000030: 209a b43d ead5 e6bd a081 483e 96fb febd
00000040: 9e4c bfbc 10fe 52bd cb98 453d 0e77 8c3d
00000050: b2cf 093e 32eb 7fbe 0138 00be c00e 2b3d
00000060: e461 573e 6617 723e 3dea 3b3e b787 65be
00000070: ac76 f73c 8131 c43e 047b 4cbb 4d92 123c
00000080: b4ce c8bd 1871 c43d e5aa 343d e8de 8b3e
00000090: 1bdc c9be c3bc 25bc f551 843e 3182 b03c
000000a0: e06b a93a cd9c c0bd 0185 7c3e 00c8 12bf
000000b0: 74aa 94be fcf9 89be 71d5 3fbc 223b d33d
000000c0: f52d 06bd 749a 053e bffe 0dbc fa77 ea3a
000000d0: a7ea 54be 2e8d 373c 9836 00bd 7e37 723e
000000e0: cbeb 06be ffe3 a7bd 3102 cebd b77c 33bd
000000f0: 7680 853e 32d9 65be bc7c cdbd 46df 90be
00000100: 6ceb 293e eab0 363d 86c8 fdbd 006d 503e
00000110: 6d02 853e c9a8 b43e 50ce 023e 71df 53bd
00000120: f04a 0ebe 1fd9 6bbe 01d4 99be 71a2 5ebc
00000130: 0c10 90be 1863 bcbd 4ebe 38be b13e 8fbe
00000140: 6ade 233e 959a b23e c58c 98be 181a 14be
00000150: 45ad b83e 6b20 9a3e abc4 913e d836 2bbe
00000160: 1f66 a2bc 938e 7abe 181a 023e 185e 113f
00000170: 9deb 573e 4ced 17be 355c a5bd 5473 0839
00000180: 634b 523d 3734 653e 84fe 32be 7693 503e
00000190: 0c5a 583e 60a8 483d db22 473e 0d8f 34be
000001a0: a8ce 5c3b 76e7 c73d b8df 463d a439 1e3f
000001b0: 89b0 e3bd b5cf 38be 02ff 3ebe d36a bb3c
000001c0: f66a 51be 63e9 2fbc 1d5d b53d 1a9a b9be
000001d0: 4f71 14bd f714 4b3e 4d2e 42be 425f 96bd
000001e0: 9f93 993b 17a6 963a 047b a3bc e905 e93d
000001f0: c5a7 b03d 3c72 133f 3de9 62be b27c 993b
00000200: 2dbd 793c bba9 943d db1c 41bb 13a1 9f3e
00000210: e602 473e 5e90 b7bd e5b7 5b3e 986d 04be
00000220: cbee 8dbc 88f3 233e fea8 95bd 1a93 1b3d
00000230: 1397 cfbe 7867 963d aec0 99bd aa3f 55be
00000240: a747 da3d 7236 3dbe b5be 8ebe 442b e93b
00000250: 8483 2ebe c4a7 7e3e 86d8 423d bf88 8f3e
00000260: f0ec 1abe 9c22 133e 6a7b 96ba 22db 6d3e
00000270: 2150 d3bd 2f74 febd 8adc 93be c075 623d
00000280: 0596 a23d 508b 193e a19e 893d 4f3e 033f
00000290: 77eb e13d 5405 1bbc 17da 85be ebd6 60bc
000002a0: d70f 01be f2ba eabd 6d89 52be a440 b2be
000002b0: deef 973e 24ac 843e c527 6c3c 193c 3cbe
000002c0: b57f 1b3e cec0 243e cb6e 1e3e de82 0cbf
000002d0: b8c1 29be 9c1f afbe 7a7e d9bd 0057 4f3e
000002e0: 65d9 33be 9f00 0a3e 7b7f 013e 5479 443f
000002f0: 642a 9fbd bb4e 3a3e a1db 4ebc e609 113e
00000300: c967 5b3e 0672 503e 051e 5bbe 7250 c1bc
00000310: 7413 9cbd e648 a6bd 73a7 0e3d a34a 9dbd
00000320: 6a52 203e 971a 333e 06b2 54be ee14 a13a
00000330: c775 a2bc b451 84be e284 a4be 7157 9b3e
00000340: 1751 2f3e 1034 58bd bf59 ccbc 8c8c bbbe
00000350: 5044 76be ceb3 08be 8156 2ebe f6c4 3e3d
00000360: b08b ba3d 31a4 12be 256f bf3d a48f e03e
00000370: 46aa c7be 3a73 c83e 92b4 81ba a42e 64bc
00000380: 6eb0 1d3e e457 1d3e ea4a dc3d d58c 263f
00000390: 5971 8abe 4cc6 0dbe afa6 7f3d b036 26be
000003a0: d442 c6bd 803a 39be 1290 683e f3b6 c83e
000003b0: df02 00bf f9d3 86be 3365 0aba 94f2 5b3d
000003c0: 079d 44bd 51f4 a73d dc35 ff3d 148d 31bf
000003d0: 3e44 e1bd 202e aebe 861f 47be 6024 05be
000003e0: ff9d 073e 2b57 913e 521e 93be 43eb 61bc
000003f0: 6920 81bb 71be 423d eb91 8f3e 6848 94bc
0.095377184 0.11907616 -0.015232687 -0.16473888 0.09204668 -0.02498118 -0.13869615 0.14001814
-0.10694305 0.13021189 -0.016138393 -0.010293374 0.088184595 -0.112712696 0.19580698 -0.1245033
-0.023351964 -0.051511824 0.048241418 0.068586454 0.13458136 -0.24992064 -0.12521364 0.041762114
0.21033436 0.23641738 0.18351074 -0.22415052 0.030207954 0.38319018 -0.0031201253 0.008946014
-0.098050505 0.095918834 0.04410829 0.273185 -0.3942574 -0.010115805 0.25843778 0.021546455
0.0012925826 -0.094049074 0.24660112 -0.57336426 -0.29036295 -0.26948535 -0.011708603 0.10314013
-0.03275867 0.130472 -0.008666693 0.0017888539 -0.20792638 0.011203093 -0.031302065 0.23653981
-0.13175885 -0.08197784 -0.10059012 -0.04382011 0.2607457 -0.22446135 -0.10033557 -0.28295344
0.16593713 0.044602312 -0.123917624 0.2035408 0.25978413 0.35285023 0.12774014 -0.051726762
-0.13895774 -0.23032044 -0.3004456 -0.013588534 -0.28137243 -0.09198588 -0.18041345 -0.27977517
0.16002813 0.34883562 -0.297949 -0.14463079 0.36069694 0.30102858 0.28470358 -0.1672014
-0.019824086 -0.2446845 0.12705266 0.567842 0.21085973 -0.14836615 -0.08074228 0.00013012934
0.051341426 0.223832 -0.17479903 0.20368752 0.211281 0.0489887 0.1944689 -0.17632695
0.0033692513 0.097609445 0.0485532 0.618067 -0.11117656 -0.18047984 -0.18651965 0.022878086
-0.20450959 -0.010736796 0.088556506 -0.36250383 -0.036240872 0.19832216 -0.18962975 -0.07342388
0.0046867873 0.001149359 -0.01995612 0.113780804 0.086257495 0.5759618 -0.22159286 0.0046840543
0.015242857 0.07258936 -0.0029466662 0.31177577 0.194347 -0.08963083 0.21456869 -0.12932432
-0.01732578 0.16010869 -0.07307623 0.037982084 -0.40544948 0.07343954 -0.07507454 -0.20825067
0.10658198 -0.184778 -0.27879873 0.0071157534 -0.17042357 0.24868685 0.047569774 0.28034016
-0.15129447 0.14368671 -0.0011480872 0.23228124 -0.10318018 -0.12424504 -0.28879195 0.055288076
0.0793877 0.1499455 0.06719709 0.5126695 0.110312395 -0.00946172 -0.26142952 -0.013723115
-0.12603699 -0.11461438 -0.20560236 -0.34814942 0.29675192 0.25912583 0.014413779 -0.183823
0.15185435 0.16089174 0.15471952 -0.5488719 -0.16577804 -0.34203804 -0.106198266 0.20248032
-0.17563398 0.134768 0.12646286 0.7674763 -0.07771757 0.18194096 -0.012625606 0.14163932
0.2142631 0.20355996 -0.2139817 -0.02359793 -0.07620898 -0.08119373 0.03482766 -0.076802514
0.15656438 0.17490612 -0.20771036 0.0012289563 -0.019831551 -0.25843585 -0.32132632 0.3034015
0.17120777 -0.052784026 -0.024945138 -0.36630666 -0.24049497 -0.1334984 -0.17025186 0.046574555
0.091086745 -0.14320447 0.09347371 0.4385959 -0.38997096 0.3915041 -0.0009895733 -0.013927136
0.15399334 0.15365559 0.10756476 0.6505864 -0.27039602 -0.13845176 0.06241482 -0.16231799
-0.09680715 -0.18088722 0.22711208 0.3920208 -0.5000438 -0.26333597 -0.0005279362 0.053698137
-0.048001315 0.082008965 0.12461445 -0.69355893 -0.10999344 -0.34019566 -0.19445619 -0.13002157
0.13243864 0.28386816 -0.2873407 -0.013789001 -0.003940631 0.0475449 0.28041014 -0.018100932

lc_encode.0.bias f4 [32]
00000000: 4bcc 113e 6a52 68bd 1442 42be 7ce7 bfba
00000010: b36f a6be 28ad 3e3e 52fa 363e 116e 183e
00000020: 7c7f 33be 8440 98be 7787 b53e 2f98 aebe
00000030: 5d5d 983d 6ae3 45be 5fb6 f03c 4d18 873e
00000040: 9a99 00be 3186 cd3c 678e 04be 7171 583d
00000050: 2036 2f3e 953a 95be 9700 94be 0c18 283e
00000060: 8da8 48bd dd4e 4ebe 5002 8abd deda 20be
00000070: e445 81be 6fd7 823d 3800 01be bd3f 2e3d
0.14238088 -0.05671922 -0.1897052 -0.0014641131 -0.32507095 0.18620741 0.17868927 0.14885737
-0.175291 -0.29736722 0.35454914 -0.34100482 0.07439683 -0.19325033 0.029383836 0.26385728
-0.12558594 0.025088402 -0.12944947 0.05284256 0.17110491 -0.29146257 -0.289067 0.16415423
-0.048988868 -0.20147271 -0.06738722 -0.15708491 -0.25248635 0.06388747 -0.1259774 0.042541254

lc_encode.2.weight f4 [128, 32]
00000000: d4da 573b 5eab 8b3d 9789 f1bc e7b1 713d
00000010: 2b9d 4c3d 585c f63d c335 6abd 182d 7fbc
00000020: 4de6 053d 4a06 a1bd 428d 8ebb 38e9 a7bd
00000030: 1011 df3d b806 5fbc 26c4 ef3c fb8a fbbb
00000040: 9a56 4f3e b010 47be d2c0 963d 6e56 06bd
00000050: b060 d7bd e4fc 01bd 143c d7bd 0873 05be
00000060: fb91 193b cb5a 1cbe 6e9c aabd c4e0 9fbd
00000070: eab7 3bbe 9477 96bd c4fe 4c3c 31d9 8dbd
00000080: 389c 8abd ee88 ae3d a3b3 2e3d 2635 593d
00000090: 32f3 8fbd cc40 02be eb09 383d deff c2bd
000000a0: caba 07be 004b e4bd e9e0 eb3d a5c4 0abe
000000b0: c96a ea3d 256e 7b3d c4dd 1e3e 7109 13bd
000000c0: 67b2 21be a27b 8b3d a3d9 9fbd bd42 9b3c
000000d0: ed71 e4bd e0ab 0c3e 8625 8e3a 49a4 0f3e
000000e0: db73 3d3c 77ad 4cbd 7878 2a3b 5371 82bd
000000f0: 91d4 043d e618 60bd e3ae 453d 6f01 eebd
00000100: 5b13 1f3d 84b6 673c b7dc 5ebd 009b 2e3c
00000110: 7f28 e33d dbc0 b9bd 6fac febc 6aca 13be
00000120: 2924 173e 8336 0f3e 5e66 923d 5471 acbd
00000130: a250 893d d1ff df3c 218a bbbd d289 e63d
00000140: 9629 a53d e927 0ebd df87 f2bb a1fc e3bd
00000150: c923 87bd c5d6 b33d 159b efbd 525d e3bd
00000160: a58c 36bd 3b88 d13d 880d 31bd ac03 a0bd
00000170: 1f20 2f3e e8b2 1f3e 7d50 a63d 8462 a8bc
00000180: d9b9 25bd c783 173e 08b3 66bd 9e5d fe3d
00000190: 20ee 8b3d 5434 22be 75ce 92bd 2dd5 a7bd
000001a0: fb9c edbd 973e babd b2f0 3b3d 3ac7 1e3e
000001b0: b74e b6bc 05bf e03d b8fe b0bd de8c 78bc
000001c0: fe51 133d b168 62bd f223 d7bd 5d7f e8bc
000001d0: cc16 1abd 4aaa 38be ec93 b2bc f428 b5bd
000001e0: fed3 f3bd cce7 093d de26 ab3d 73fa 59bd
000001f0: 2794 5ebd c422 da3d 12c3 3d3d 56fa 12be
00000200: 48e9 0a3e e481 88bd db18 463b 1e67 01bd
00000210: 06be cabd f188 03be 96e0 90bb 5bff b2bd
00000220: 1b4e 2abd 7566 76bc 4825 87bd ad20 aebd
00000230: 3543 05bd 133e 613d 546d 05be 7fe4 6cbd
00000240: c174 31be 7b9a 5f3d 0653 1abe 3480 11be
00000250: fdf9 a93d 97c4 9a3d 97ba c13d 195c f33d
00000260: 74dc fbbd babe 46bd 104f 963c a4f4 0a3e
00000270: 8624 c93d 71e2 573d 3cf6 083d ff42 1dbd
00000280: 53d9 2e3c 0121 d03d b244 f0bd 3275 b9bd
00000290: 30ad cabd ba60 393d 2157 5fbc d961 0abe
000002a0: b23b ca3d eb08 fc3c 3ddc 80bd f975 30bd
000002b0: 57bf 813d d0b3 c0bd 1cce 97bc 7c05 9d3d
000002c0: 3831 7e3d 66b4 5b3d 1c16 15be 2c85 6fbc
000002d0: 09e8 003e 535a ffbc 6d52 1abe 8f31 f5bc
000002e0: 1859 0d3e 43a4 e7bd 1744 82bd 81f4 29bc
000002f0: b87f 073a c1f7 f83d 7449 933d c9f5 d33d
00000300: 3a0e abbd f6f1 743c 046b 573d dde2 41be
00000310: 80c8 eabd c010 4bbe 3c8a 573e 645a 953b
00000320: 0edc 01be 4668 e93d 1cd7 dbbd f626 553d
00000330: 4577 193d 8ff5 68bd 5ce0 5cbe c579 2abe
00000340: 3c9c b53d fbb7 463e 6b1b b9bd 45f2 0bbe
00000350: 70d1 55be f9bb d8bd e012 073e 1021 e23d
00000360: d4d7 edbd b82b c8bd eb7f c53d aa85 5bbd
00000370: 9b0c f23d 6fd6 d13c feb0 f23c b6ec cd3c
00000380: 9eae c03d 13b3 dab8 75cf a3bc ba10 f9bc
00000390: 8f92 e33d 9d2a 053e 6f5e 3d3d 31a0 213e
000003a0: 67be 1d3d 0a7f 493d 38fa a3bd f98d 373c
000003b0: 433b 3d3d 39f6 0fbd 82fa 1bbb f1b0 c63d
000003c0: eb40 083e 2bcd e03d f9b1 99bc ff97 aebd
000003d0: 760f 45bd 2bfd 763d 6811 d93c 9445 40bd
000003e0: 2fb8 c23d bf41 fd3d 8ddf 4bbc ed7c ca3d
000003f0: 4b0d f3bd 3b2c 2a3e 970b 0dbe 79ec d83d
0.0032936828 0.06819795 -0.029484553 0.05900755 0.049954575 0.12029332 -0.057180177 -0.015574716
0.032690335 -0.07862528 -0.0043503353 -0.0819878 0.10891926 -0.013612442 0.029268336 -0.00767648
0.2024788 -0.1943996 0.07360996 -0.03279727 -0.105164886 -0.031735316 -0.10509506 -0.13032162
0.0023432958 -0.1526901 -0.08330618 -0.078065425 -0.18331876 -0.073470265 0.012511913 -0.069261916
-0.067680776 0.08522211 0.042651784 0.053029202 -0.07028808 -0.1272003 0.044931334 -0.09521459
-0.13254848 -0.111471176 0.115175076 -0.13551576 0.11446149 0.06138434 0.15514284 -0.035897676
-0.15790711 0.068106905 -0.07805183 0.018952722 -0.11154542 0.1373744 0.0010844923 0.14027514
0.011563267 -0.049970116 0.0026011746 -0.06369271 0.03242928 -0.054711245 0.048262488 -0.11621367
0.03883682 0.014142636 -0.05440971 0.010657072 0.110917084 -0.090699874 -0.031088082 -0.14432684
0.14759888 0.13985638 0.07148431 -0.08420053 0.067048326 0.027343662 -0.091572054 0.11256756
0.080645725 -0.03470603 -0.007401451 -0.111321695 -0.06598622 0.087811984 -0.116995014 -0.11101784
-0.044567723 0.10231062 -0.043225795 -0.078132 0.17102097 0.15595591 0.08120821 -0.020554788
-0.04046044 0.14796363 -0.05632308 0.124202 0.06832528 -0.15840274 -0.07168285 -0.08194957
-0.11602207 -0.09093969 0.04588384 0.15505686 -0.022254331 0.10973934 -0.08642334 -0.015170304
0.035966866 -0.055275623 -0.10504903 -0.028381044 -0.037619397 -0.1803371 -0.02179905 -0.08845702
-0.11905669 0.033668324 0.08357023 -0.053217363 -0.054340508 0.10651162 0.04632861 -0.14353308
0.13565552 -0.066654 0.0030227217 -0.03159248 -0.09899525 -0.12845208 -0.004421304 -0.087401114
-0.041578393 -0.015039076 -0.06598908 -0.08502326 -0.032534797 0.05499084 -0.13029987 -0.0578351
-0.17329694 0.054590683 -0.15070733 -0.14209062 0.082996346 0.07557028 0.09459417 0.118828006
-0.122979075 -0.048521735 0.018348247 0.13569885 0.098214194 0.052706186 0.033437952 -0.03839397
0.010671931 0.10162545 -0.117318526 -0.09055556 -0.09896314 0.04525826 -0.013631613 -0.13513888
0.09874667 0.030765971 -0.06292007 -0.043081257 0.06335323 -0.094092965 -0.018530898 0.07667062
0.062058657 0.05363884 -0.14559215 -0.014619153 0.12588514 -0.031171 -0.15070505 -0.029930858
0.13803518 -0.11310627 -0.06360643 -0.010373236 0.0005168873 0.1215663 0.071917444 0.10349614
-0.08352323 0.014950266 0.052592292 -0.18934198 -0.114640236 -0.19830608 0.21048826 0.0045578945
-0.126816 0.11396842 -0.10734388 0.05203911 0.03746726 -0.056874808 -0.21569961 -0.16648014
0.0886769 0.1940612 -0.09038433 -0.13666637 -0.20880675 -0.10582728 0.13190794 0.110414624
-0.116134316 -0.09773964 0.09643539 -0.05359427 0.118188106 0.025614945 0.029625412 0.025137287
0.094083056 -0.00010428405 -0.019996384 -0.030403484 0.11111938 0.13004537 0.046232637 0.15783764
0.03851166 0.04919342 -0.0800671 0.0112032825 0.046199095 -0.035146926 -0.0023800437 0.09701718
0.13306014 0.10976633 -0.018761622 -0.08525085 -0.048110448 0.060300034 0.026497558 -0.046941355
0.095077865 0.12366056 -0.012443435 0.09887109 -0.1186777 0.16618435 -0.13773952 0.105919786

lc_encode.2.bias f4 [128]
00000000: 2986 3b3e e070 cebc 61b4 f63d fdc0 18be
00000010: 7880 4e3e a41b 4e3d aadc dbbd 28b7 77bd
00000020: 12e7 e53d 0b6e 05be ed07 59be 18b6 993d
00000030: 5a9e 13be 6147 1c3d 1fcc 8f3d 8917 3339
00000040: b305 5fbc 557b e43d d563 0fbe 1810 babd
00000050: 972d 493d 3c8c e3bd ddd1 c6bd 446a 05be
00000060: c068 23be f348 13be d66c 773d cf30 e13d
00000070: 77d3 bd3d 439c 163c ecf0 14be f495 6bbd
00000080: efcc f9bc 3f3d 1e3d 26e2 ad3d a669 bd3d
00000090: 03ec 44bd be41 50be 9ecd 11be 362a 953c
000000a0: b7a4 d7bc 00f8 be3b 2950 9abd 694f 4bbe
000000b0: cfe1 54bd a6cf 4dbd b3b2 56be 0e59 b3bd
000000c0: 1dee febd d6fa 4f3c 1dd1 2ebd d89f 873d
000000d0: 69d2 2abe a03b 993d 7225 263d 96c9 eb3d
000000e0: 9442 20be 4e04 36be 2598 b13d 091f 8cbd
000000f0: 62d1 ff3c 912e c6bd 3b36 25be 9ffc 9cbd
00000100: 7335 44be 2658 5e3d 6c35 a3bd 9c53 50bd
00000110: 6b16 abbc 7814 ea3c 701a 883d 4812 75bd
00000120: 6df2 0c3d 12f9 e83d 9f4f 98bb 101a 143e
00000130: d32b 553c 2115 d2bd 36e1 f63d 1712 b1bd
00000140: b7be 0fbe 88c5 8ebd 4152 eb3d 8f19 ac3d
00000150: 7f2c 3a3d 94ac 17be 5cc7 393e d5f9 343d
00000160: d41d 073e 6e54 bd3c c789 ffba 28bc e4bd
00000170: 8a6d 303c 79ed 3ebe 4336 3f3e 5246 aabd
00000180: 6cfe 0abe 8aba 3ebc 7018 ac3d bdfd bdbd
00000190: d327 b0bd 36c0 42bd 9555 2bbe 22c3 ca3d
000001a0: e250 4a3d 5dee 293e 70fc 8ebe 0acf e83d
000001b0: 3f5c 42be e4c9 903d efa9 34be 1049 b33d
000001c0: a335 ea3c 2d00 c03d df36 15be 40eb f23c
000001d0: 6f6a 15be 5db1 86bd 17a2 183d 5d95 0f3e
000001e0: ce33 5ebc 9a2e 47be 414c 163e 1b25 2d3e
000001f0: 53c6 b23d dac6 1abd 053c 16bd 206b 033e
0.18312897 -0.025200307 0.12046123 -0.14917369 0.20166194 0.05031933 -0.10735448 -0.060477406
0.11225714 -0.1303026 -0.2119443 0.07505435 -0.14415875 0.03815401 0.07021355 0.00017079538
-0.013612199 0.11156336 -0.14002927 -0.09085101 0.049115743 -0.11110732 -0.09707997 -0.13028818
-0.15957928 -0.14383297 0.06040653 0.109956376 0.09268849 0.009192529 -0.1454503 -0.057516053
-0.030493228 0.038632628 0.084904 0.092486665 -0.04807664 -0.20337579 -0.14238593 0.018208604
-0.02632366 0.0058279037 -0.075348206 -0.19854511 -0.05197316 -0.050246857 -0.20966606 -0.0875722
-0.1244776 0.012694081 -0.042679895 0.06622285 -0.16681828 0.07482076 0.040563054 0.11513059
-0.15650398 -0.1777508 0.086715974 -0.06841857 0.031227771 -0.096768506 -0.16133969 -0.07665371
-0.19161014 0.054283284 -0.07969174 -0.050860986 -0.020884713 0.028574213 0.066456676 -0.059831887
0.034410883 0.113756314 -0.0046481634 0.14463067 0.013010937 -0.10257936 0.12054674 -0.086460285
-0.14037596 -0.0697127 0.11490298 0.084033124 0.04545259 -0.14811927 0.18142456 0.04418357
0.13194972 0.023111548 -0.0019496017 -0.111687005 0.010768304 -0.18645276 0.18673043 -0.08314194
-0.13573617 -0.011641154 0.084030986 -0.09276912 -0.08601346 -0.047546588 -0.16731866 0.099005
0.049393542 0.16594835 -0.2792697 0.113676146 -0.18980502 0.070697576 -0.1764295 0.0875417
0.02859003 0.093750335 -0.14571713 0.029653192 -0.14591382 -0.06576798 0.037263956 0.14021821
-0.013562156 -0.19451371 0.14677526 0.16908686 0.087292336 -0.037787296 -0.036678333 0.12833834

convs.0.nn.0.weight f4 [128, 256]
00000000: 04bd 43bd 31cc 403d 2de4 2dbc fd22 e0bb
00000010: fd5a 2bbd 9355 dd3c c5d1 a5bd 7389 21bd
00000020: 375a 8dbc 1ac2 59bc 164a 0b3c 383e 1f3d
00000030: 4cfb 3b3d 395c 90bd 335c 973d 5220 bfbd
00000040: 83a2 2e3d dca9 f8bd ac54 8cbc fb24 943c
00000050: 44ae 423d 99d7 6b3d fca8 a93d 4b7b 883d
00000060: d361 65bd 5559 b5bd 05c7 b7bd 8294 5cbd
00000070: c33e 8abd 5b53 0fbd 8b1a cf39 370b 8cbc
00000080: 36d8 59bd 9bfd 8bbc e8e0 bcbd 9672 bbbd
00000090: 68a5 513d 2763 193c 9c38 b23b a2fe aebd
000000a0: fcb6 a63d 1d61 353d bc68 fabd 126d e4bd
000000b0: b619 543d 8770 433d 6fe7 7bbc 990c b9bc
000000c0: 13cc 18ba 1725 403c 4447 3b3d 43e0 0abd
000000d0: 19e9 03bd f2e9 99bc 9bec 6f3c 9b30 843d
000000e0: b63d fe3c 1383 a2bd 388c b53d 43b0 283c
000000f0: 6bea 9dbd 353d ddbd 8c48 29bb e36b 0bbc
00000100: bba1 3dbd 9e87 b0bb a10c 8abc 1094 c1bd
00000110: 757c 5abd 1847 193d be0f 2fbd 5234 d93c
00000120: 6bd4 5d3d ab22 e4bd 4a32 b0bd 0a34 90bd
00000130: 23ed cebd 9726 a63d 0600 e8bc 58ea 61bd
00000140: 9387 01be 1630 9bbd ef8e 48bd cdc8 80bb
00000150: 12ad 8cbd e7a8 d83b 4dfb 33bc ff8a 76bd
00000160: f52f 893d fae6 3bbd 18a3 81bc 51d8 693d
00000170: 9482 94bc 69ce 1bbd 167f 593d 643c f8bd
00000180: c5d1 20bd b609 cbbc 2976 863d 2707 6fbd
00000190: 3b43 aebd 2338 7fbd fa58 efbd 3cd3 94bd
000001a0: f9dc 0c3d 658c c73c 4d4e 103c 1606 e2bb
000001b0: d6dc e7bd fd13 183d 3673 b0bc 8655 f6bb
000001c0: 2b07 a2bd 019e 9dbb d19a 343d 6b9b a4bc
000001d0: e29a bdbc bf05 91ba ec60 7dbd 3e7b 263c
000001e0: f1bc 5e3d 394f 8b3b eee1 98bd 1935 7a3a
000001f0: 7bd0 c03c 7a4a 83bd ad3b 01bc a4dc 6b3d
00000200: 8ffa 9bbc 06fc 08bd 8bea b43c 3fe6 043e
00000210: e159 053e 8656 12bd 31ac 443d c31b 013c
00000220: 2c65 06bb 7eeb 22bd e405 c2bc 08cc c33d
00000230: 1adf b03b efca e93c 4bb5 8ebc 61ef a63b
00000240: 2260 c73c 678e 7f3c e992 8abc 4227 9e3b
00000250: 5f7d 59bd 0582 9ebd dc08 6fbd 6f09 4e3b
00000260: 4b8b 0cbb a317 7ebc a6f3 7e3d d470 4c3d
00000270: 8d5c 47bc 3587 913d 2d64 823c 00d4 53bd
00000280: 3fa4 fa3b aef2 bdbc a6e6 d13d 52d9 d1bc
00000290: f6bf 13bd 38a6 843d e371 cdbc 96b8 fc3b
000002a0: a2fa 263d 6364 cc3b caf4 203c 0fd7 dfbc
000002b0: 559f 9cbd 33d6 6fbd d5c8 2bbc afd8 2cbd
000002c0: 6c8c 8dbd b173 5b3c 8220 053d 2690 3f3d
000002d0: ac87 d73c e042 353d 94cf 1b3d 9134 733d
000002e0: 51d1 6f3d afde 14bd 9eaf 3c3d 41b5 92bd
000002f0: 6970 843c 3a21 ea3c c6c4 0d3c 742a 2a3d
00000300: 7f58 9c3d e3a2 27bd 226d 283d da0b 37bd
00000310: db91 673d a9dd 173d a25e a63d 5c61 853d
00000320: 49ac 643d 88f8 453b 2df2 31bd 05aa 583d
00000330: 709f 723d 285c a4bd ab9e 2f3d 7957 953d
00000340: 5c85 393b fe11 683c 2c9b ad3d 3079 25bc
00000350: 6d18 a0bc dfb8 febd b2c3 f13d be77 83bd
00000360: 96d8 e8bd abbf 37bd b267 d93d a9be aabd
00000370: 3b16 f63b 8235 8d3d 0694 92bb 0066 fab9
00000380: af76 0e3d e9bc 883d 931a c13c 6c7a 803d
00000390: ac27 6d3d bd2f 9b3d e5de afbc 6d03 3dbc
000003a0: 76c2 88bc 06ab 9fbc 6fa2 6c3d 7e42 d6bc
000003b0: 0ad3 653d ea17 a83c 3006 29bd 70fa 073d
000003c0: feb3 613d c29f d73c 958f 79bd 46cb 193a
000003d0: 658c 4b3d 0935 1d3d 9c69 ab3c 3d60 bf3c
000003e0: 4024 adbc 0bc9 393d 3fdc 06b8 7185 373d
000003f0: 5b88 33bd 3330 ef3c e08f e83b c7c4 eebc
-0.04778768 0.047069732 -0.010613483 -0.0068401084 -0.04183482 0.027018344 -0.08096651 -0.039437722
-0.017254932 -0.013290906 0.00850155 0.038877696 0.045893952 -0.0704884 0.073906325 -0.093323365
0.042635452 -0.12141773 -0.017130218 0.01808404 0.047529474 0.057578657 0.08284184 0.06664141
-0.056001496 -0.08854929 -0.08973507 -0.053852566 -0.06750252 -0.034991603 0.00039501893 -0.017095191
-0.05318471 -0.017088702 -0.09222585 -0.09152715 0.051183134 0.009362019 0.0054388773 -0.08544661
0.0814037 0.044282068 -0.12227008 -0.11153616 0.051782332 0.047714736 -0.015375002 -0.022589015
-0.0005828749 0.011727593 0.04572226 -0.03390528 -0.03220472 -0.018788312 0.0146438135 0.06454583
0.031035285 -0.07935157 0.08864635 0.01029593 -0.07710727 -0.1080269 -0.0025830595 -0.008509609
-0.046296816 -0.0053872606 -0.016851725 -0.09452069 -0.053341348 0.037421316 -0.042739622 0.026514206
0.054157656 -0.11139425 -0.08603342 -0.07041176 -0.10103824 0.08112829 -0.028320324 -0.05515513
-0.12649374 -0.07577531 -0.048964437 -0.0039301873 -0.06868948 0.0066119316 -0.010985208 -0.06019115
0.066986 -0.045874573 -0.01582484 0.05709106 -0.01812867 -0.038038645 0.053099714 -0.121208936
-0.03926255 -0.024784904 0.06565506 -0.05835643 -0.08508917 -0.062309396 -0.11686893 -0.07266852
0.034390423 0.024358938 0.008807731 -0.006897698 -0.11321418 0.037128437 -0.021539312 -0.0075175194
-0.079115234 -0.0048100953 0.044092957 -0.02009364 -0.023145143 -0.0011064335 -0.06186001 0.010161219
0.054379407 0.0042513874 -0.07464968 0.00095446553 0.023536911 -0.0641069 -0.007887763 0.057583466
-0.019040374 -0.033443473 0.022084495 0.12978457 0.13022567 -0.035727046 0.048015777 0.007880154
-0.002050708 -0.039775364 -0.02368445 0.095604 0.0053976895 0.02853915 -0.017420432 0.005094454
0.024337832 0.015597916 -0.016915755 0.0048264572 -0.05309808 -0.07739643 -0.05835806 0.0031438728
-0.002144533 -0.015508565 0.06224408 0.04991229 -0.012168062 0.07105867 0.015916908 -0.05171585
0.007648974 -0.023187008 0.10249071 -0.025616322 -0.03607174 0.06477016 -0.02507872 0.007712434
0.040766366 0.006237553 0.009823987 -0.027324228 -0.07647578 -0.058553886 -0.010484894 -0.042198833
-0.06911549 0.013394282 0.032501705 0.04676833 0.02630981 0.04425323 0.03803976 0.059376303
0.05854923 -0.03634518 0.04606592 -0.07163478 0.016166883 0.028580297 0.0086528715 0.041544393
0.07634067 -0.040926825 0.041119702 -0.044689037 0.056535583 0.037076626 0.081235185 0.065127105
0.055828366 0.003020795 -0.043443847 0.05289652 0.059234083 -0.0802539 0.042875927 0.07292075
0.0028308248 0.014164446 0.08476862 -0.010099694 -0.019542897 -0.12437605 0.11804904 -0.064193234
-0.113694355 -0.044860523 0.106154814 -0.08337147 0.0075099743 0.068949714 -0.004473212 -0.00047759712
0.034781154 0.06676657 0.023572242 0.0627335 0.057899162 0.07577465 -0.02146859 -0.011536461
-0.016694289 -0.01949073 0.057772096 -0.026154753 0.056109466 0.020519216 -0.041265666 0.03319782
0.055103295 0.026321296 -0.060927946 0.0005866777 0.049694438 0.038380656 0.020924382 0.02336132
-0.02113545 0.045357745 -3.215321e-05 0.044804994 -0.04383121 0.029197788 0.0070972294 -0.029146565

convs.0.nn.0.bias f4 [128]
00000000: a853 853d 7114 883d ba7a 01bc 1c6b c13d
00000010: b746 b6bb f94f 7c3e 0f56 403c b531 7c3c
00000020: 91ab 373d d9e3 af3d a22e 0bbc 1a23 78bd
00000030: af54 f43d 5549 1f3d e540 3e3c ad87 23bd
00000040: a828 e9bb 767a 063d 931e ac3d 417f bdbc
00000050: 7754 8ebd 7043 433e 1a26 6c3d 5aed 94ba
00000060: 3d83 0e3d 4165 2dbc c9af 5ebb 28ab a03d
00000070: da38 c4ba d6c5 80bc 7bbd a13d 83c4 563d
00000080: a37d 6f3d 751d 873d e1f6 193e 0435 98bd
00000090: f08f 253d 6410 8dbc 5d68 5d3e acf8 cc3c
000000a0: 9166 2cbb b045 9dbd f105 8f3c 6caa 7b3d
000000b0: 732d 54bd abd7 243d 1fc4 71bc fc0c 5f3e
000000c0: d6da 373c 34cb c1bd f0b0 aabb c208 533c
000000d0: 154c 203d 358f cdbb e08c 973d 45d7 7abd
000000e0: 78cb 5cbd 7078 f73d b301 90bc c756 7ebb
000000f0: 4699 6c3d 835b b13c 33ea 893d ba2e aabd
00000100: 6327 74bd 82e0 4d3d 1fe6 1c3e 3f1d cbbc
00000110: 42eb 6d3d 3d44 2f3d 7e23 693c b6ab fbbc
00000120: ec12 f0bc 3fdf 0c3d 749b 653c b6d2 dfbc
00000130: c6e6 4fbe 6f85 82bd a91d 99bd e958 373e
00000140: 4d86 daba d7ab 013d 30e1 913d 3aab 873d
00000150: f0a5 4e3d 97b2 bf3d e8e4 7b3d 2bbe d8bc
00000160: 138f 453d 9cff 88bd c82d 253e bf6b 053c
00000170: 3ecc a53d be78 293c 9efd 3e3e 2e53 e0bd
00000180: cc13 7f3d ab60 603d 4763 f83c 2cb2 80bd
00000190: 9486 373d 31d0 0fbd ecb2 983b bae2 21bd
000001a0: f45b 9bbd ea3b 9d3d 7e70 09bd 45d8 5a3d
000001b0: dfd8 733d 11ae 1a3d b670 f73b d31d 31bd
000001c0: e1c7 913b e2e0 983b add7 b03d e530 923d
000001d0: 2569 0d3e c4f8 053c f83b 48bd a68c 2b3c
000001e0: 7660 813c 0957 443d 17c0 e3bc 311c 3d3e
000001f0: bd6d 083d e0ce 933d 9fcc ac3c 8283 5a3d
0.06510097 0.06644524 -0.007902795 0.094442576 -0.005562629 0.24639882 0.011739268 0.01539271
0.044841353 0.0858838 -0.008495005 -0.06058035 0.119302146 0.038888294 0.011612152 -0.039924312
-0.0071154423 0.03283163 0.08404269 -0.023131968 -0.06949704 0.19068694 0.057653524 -0.001136224
0.034793127 -0.010583223 -0.0033979288 0.078451455 -0.0014970556 -0.015719336 0.07897469 0.052433502
0.058469426 0.06597415 0.15035583 -0.07431987 0.040420473 -0.01721973 0.21621843 0.02502092
-0.0026306252 -0.076793075 0.017458888 0.061441824 -0.051801156 0.04024474 -0.014756232 0.21782297
0.011221608 -0.09462586 -0.005209081 0.012880506 0.039135057 -0.006273175 0.07399917 -0.061240453
-0.05390498 0.120835185 -0.017578935 -0.0038809048 0.05776336 0.021650082 0.06734123 -0.08309694
-0.059607875 0.050262935 0.15322159 -0.024794219 0.058085687 0.042789686 0.014229653 -0.030721527
-0.029305898 0.03439259 0.014014114 -0.027322154 -0.20302877 -0.06373107 -0.0747636 0.1790501
-0.0016672105 0.03165802 0.07123029 0.06624456 0.05045122 0.09360235 0.0614976 -0.026457867
0.04823215 -0.066893786 0.16130745 0.008143364 0.08095597 0.010343729 0.18651435 -0.10953365
0.06227474 0.05477969 0.030320777 -0.062839836 0.044806078 -0.035110656 0.004660001 -0.039522864
-0.07585898 0.07677443 -0.033554547 0.053428907 0.059532996 0.03776366 0.007551278 -0.043241333
0.0044488763 0.00466548 0.08634887 0.07138232 0.1380964 0.008176986 -0.048885316 0.010470545
0.015793066 0.047934566 -0.027801557 0.18467785 0.03330778 0.07217193 0.021093665 0.053348072

convs.0.nn.2.weight f4 [128]
00000000: d495 523f ed6e 663f f461 803f 88a2 623f
00000010: c2ac 6b3f 447b 593f 8da6 823f c4b8 673f
00000020: 1eb6 b03f 0caf 6d3f 6bb6 5e3f 1295 693f
00000030: 0ef5 553f 0180 643f eabe 6c3f 2c05 583f
00000040: 36f6 793f 4e1a 823f 0a83 763f da33 783f
00000050: 2900 763f fa13 623f 2dd6 813f 21de 563f
00000060: 0a73 843f 4054 783f 96ca 863f 242a 6d3f
00000070: df9f 843f f1bf 693f 4639 5d3f e462 563f
00000080: 4241 753f ed1d 523f 349f 613f 80ce 703f
00000090: a2ad 593f 5611 753f e2cd 543f 4f31 873f
000000a0: 51f4 643f 255c 873f 1b5c 643f 9791 5e3f
000000b0: 8003 693f 2748 853f 0a73 b03f 7c3d 613f
000000c0: 4c0d 853f ddfd 703f 949b 763f 0de3 303f
000000d0: 9ee9 5f3f 4b47 663f e935 6b3f e6e9 633f
000000e0: 5de1 7f3f e15b 633f fde5 583f 41eb 5e3f
000000f0: d374 743f 4ce8 863f 3f45 813f 0283 763f
00000100: acdd 843f 3094 643f 4ae7 673f f37c 673f
00000110: 45bd 563f 93da 4b3f 39b7 703f 120b 693f
00000120: 6596 723f 9f67 843f e376 813f 150d 823f
00000130: 5e84 a93f 814d 713f 09cf 723f 5978 463f
00000140: f65c 8a3f bfe2 903f 82c0 4b3f 0bb9 583f
00000150: a383 803f 9714 753f 1799 693f 83aa 603f
00000160: 8efb 613f 9495 763f 745c 573f 93f9 793f
00000170: f4e1 673f 433d 633f 92fe 823f 7870 863f
00000180: fd1c 423f 6f46 4d3f 0485 793f 7bab 913f
00000190: 24b4 573f 637b 883f 28b4 723f 5bbf 943f
000001a0: 780d 843f 91a7 783f fd5c 673f 2aa7 5c3f
000001b0: d175 713f 31c3 6d3f 47ec 773f 408d 563f
000001c0: a4fa 833f a18a 813f 39ba 693f 611a 5c3f
000001d0: e841 723f b85b 643f 3fa8 2f3f 571c 833f
000001e0: 2991 4f3f e045 7c3f 0290 873f b747 523f
000001f0: 0128 813f ce11 863f b03e 893f aed7 833f
0.8225987 0.9001301 1.0029893 0.88529253 0.9206048 0.84953713 1.0207077 0.90516305
1.3805578 0.92845225 0.869971 0.9124309 0.8357705 0.8925782 0.9247881 0.8438289
0.97641313 1.0164278 0.962937 0.9695412 0.96093994 0.8831173 1.0143486 0.8393269
1.0347607 0.97003555 1.0530574 0.92642426 1.0361289 0.91308504 0.8641552 0.83744645
0.958027 0.82076913 0.8813355 0.94065094 0.8503057 0.9572958 0.8312665 1.0561923
0.894353 1.0574995 0.8920304 0.869409 0.91020966 1.0412644 1.3785107 0.8798444
1.0394683 0.94137365 0.96331143 0.6909645 0.87465847 0.89952534 0.91879135 0.89028776
0.9995325 0.8881207 0.84725934 0.8707772 0.9549076 1.0539641 1.0099257 0.9629365
1.0380149 0.89288616 0.90587294 0.9042503 0.8388255 0.7963039 0.94029576 0.91032517
0.94760734 1.0344123 1.0114406 1.0160242 1.324352 0.94258887 0.9484716 0.77527386
1.080962 1.1319197 0.7959062 0.84657353 1.0040172 0.9573454 0.9124922 0.8776018
0.88274467 0.9632199 0.8412545 0.97646445 0.9057915 0.8876535 1.0233939 1.0503073
0.7582548 0.801856 0.9746859 1.1380457 0.8425925 1.0662655 0.94806147 1.1620897
1.031661 0.97130686 0.90376264 0.8619257 0.943204 0.92875963 0.96844906 0.8380928
1.0310864 1.0120431 0.9129978 0.8597775 0.94631815 0.8920245 0.686161 1.0243024
0.8108087 0.9854412 1.0590823 0.8214068 1.0090333 1.0474184 1.0722256 1.0300195

convs.0.nn.2.bias f4 [128]
00000000: 49b6 cbbd b6df 17bd 2723 60bd a778 a3bc
00000010: abc1 1cbe f207 833d 6765 14be 72cb 223c
00000020: 53b9 c43e 19f1 ddbb 1831 11be f6df d7bd
00000030: a36c 453d 8649 febd 4dfc c2bd d4cc 9abd
00000040: 9cde debd 768c a53c 9f4c 8f3b bbcf 0abe
00000050: 7414 9cbd c417 acbd 4651 d1bd e983 c2bd
00000060: e132 3bbd f24d 4b3d 9653 77bc 0fc8 bfbc
00000070: 0398 d0bc 57bc 283d 31e1 0a3c 280b 03be
00000080: 4cbc 583c 10b1 9ebd ed35 9cbd c058 99bd
00000090: 0911 45bd 93c6 00bc 1ea2 ac3d 1ff6 9dbd
000000a0: 33a5 173b eacf f13d 56da 28be d323 f2bd
000000b0: f72d f8bb 5fd0 dfbd 2f44 febe 4885 a4bd
000000c0: ee77 67bc f781 a4bc ab9f 46be 6975 863c
000000d0: 8d01 a5bd 845f 04bc 5a6c a4bc bf6a 22be
000000e0: c287 96bd 4aa6 b0bd 9510 a8bd ccf4 82bd
000000f0: d56d b1bb ef91 38bd d327 4cbd ac50 173c
00000100: b254 22be c95d c8bc 4080 62bd 8966 30bd
00000110: a18d 93bd 3ee4 21be 8dc2 30be ec48 e2bd
00000120: 8e4a 90bc ef09 27bc 2a7b a9bd 0811 8b3c
00000130: 184a 5cbe 3ad4 a63b d7b1 6a3c 435d aebd
00000140: f4a4 233e f3b5 723d 34d9 54bd 7b2c 83bd
00000150: 8573 9fbc 3d8f 29bd 4d4f 3fbe c0a4 bfbd
00000160: 705a 28be 0468 803d 9427 22bd 9670 18bc
00000170: 5610 4fbe b4eb f8bd 88ad 3f3e de5c c93c
00000180: d67f adbd 3f0c 95bd 7273 51bd b809 2fbe
00000190: a45e 18be a513 5fbd a216 57bd 5be6 1fbe
000001a0: 95eb b4bd 2851 e6bd 8268 c7bd 20ca 2cbd
000001b0: 0128 92bd 96ea e9bd 6f47 173d dbea 2dbe
000001c0: b28b 94bc fabd 86bd 52d5 2a3d 6235 a7bd
000001d0: a630 49bc 599d dbbd 1b8b 0d3d 4fee a8bb
000001e0: 9289 4d3d 30d0 29bd 9454 eabc c0dc 62bd
000001f0: 64d3 eabc 44c2 b3bc 731b bbbd 3abc 0fbc
-0.099468775 -0.03707858 -0.054721024 -0.019954992 -0.15308253 0.06398 -0.14491807 0.0099362
0.3842264 -0.006773126 -0.14178884 -0.10540764 0.048199307 -0.12416367 -0.09520779 -0.07558599
-0.10882303 0.020208579 0.0043731476 -0.13555805 -0.076210886 -0.084029704 -0.1022058 -0.09497816
-0.04570282 0.04963488 -0.015095612 -0.023410825 -0.02546311 0.04119524 0.008476541 -0.12797225
0.013228487 -0.07748616 -0.07627473 -0.07487631 -0.04811195 -0.007859844 0.08429359 -0.077129595
0.0023139238 0.118072346 -0.16489539 -0.11823239 -0.007573839 -0.109284155 -0.49661395 -0.08033234
-0.014127715 -0.020081503 -0.19396846 0.016413407 -0.080569364 -0.008079413 -0.020071197 -0.15861033
-0.073501125 -0.08625467 -0.08206288 -0.063943475 -0.0054147043 -0.045061048 -0.049842667 0.009235542
-0.15852621 -0.024458783 -0.05529809 -0.043066535 -0.07204748 -0.15809724 -0.17261715 -0.11049065
-0.017613675 -0.010195239 -0.08275445 0.016975895 -0.2151264 0.0050912173 0.014324627 -0.08513882
0.15980893 0.05925555 -0.051964954 -0.06404968 -0.019464264 -0.04139637 -0.18682595 -0.093575954
-0.16440749 0.062698394 -0.039588526 -0.009304186 -0.20221075 -0.12154332 0.1871854 0.024580415
-0.084716484 -0.072777264 -0.051135488 -0.17093551 -0.14879853 -0.054462094 -0.05251182 -0.15615217
-0.08833996 -0.11245948 -0.0973673 -0.04218495 -0.071365364 -0.11421697 0.03693336 -0.16984122
-0.018133018 -0.06579204 0.041707344 -0.08164479 -0.012279665 -0.10723371 0.03455649 -0.0051553617
0.050180025 -0.04145831 -0.028604783 -0.055386305 -0.028665252 -0.021943219 -0.09136095 -0.008772904

convs.0.nn.2.running_mean f4 [128]
00000000: d04a 8140 2707 b040 6ffe 7fbf f3c8 7740
00000010: e8dd 2841 d1e1 1641 e5a0 c03f d5fa 7fbf
00000020: aa90 1e3f 259a 9540 3cb6 1340 4d1d c140
00000030: f37a 4d40 3d6f 9a3f 60ec a640 f721 ef40
00000040: 7bbe 7540 7e9d 1841 ddc3 3440 dcb8 2640
00000050: 59fd 7fbf 3845 a440 110f 8940 a557 f340
00000060: 5fa2 8d40 4dbd e040 f57c 5f3f 8013 ad40
00000070: 0ddb 35bf 0df2 7fbf df8f dd40 d520 d140
00000080: d670 3640 4af7 b840 9c2e 4340 18f7 76bf
00000090: 4bb6 d640 4af3 7fbf efe4 9c40 a8a4 9841
000000a0: 1f48 da40 67e7 3240 b0f5 3940 796b af40
000000b0: 9649 a8be ae9a b73f f1b1 a541 6ccb 8940
000000c0: fcc8 9440 d9f4 7fbf e890 5840 b19f 8040
000000d0: afbd ff3f 7ff0 7fbf 8000 9240 cbc0 2341
000000e0: 4e0a 3040 eea3 4540 28cd 0641 0eb5 8a40
000000f0: 769c 0340 2d04 1140 5943 9c40 67ff 7fbf
00000100: 214f b63f 89e1 3440 d717 8640 008e 2640
00000110: 1958 e240 3848 6241 03d5 ae3f 1d54 99be
00000120: cafd 7fbf eaeb 7bbe 95c7 2340 3cfe 5140
00000130: da17 a941 53ee 7fbf d2f2 7fbf 05d5 d040
00000140: 94af 5f40 b670 3440 2db8 6e40 fcf4 e940
00000150: 5182 3340 471d 8340 597a 2641 872b 3cbf
00000160: f080 0b41 46c5 7fbf a7fc c840 d0ff 7fbf
00000170: 2ae8 8b40 876d 2141 de27 8240 94ed 7fbf
00000180: f02c 1841 99db 1841 7580 5140 e7e8 b440
00000190: fcbd ed40 aac6 5c3f c6b1 8740 94d9 2141
000001a0: 5840 c03f 177e 1140 6872 3441 b0f1 0d41
000001b0: 1732 5d41 28dd ba40 fef7 7fbf 5993 3841
000001c0: 529d 1e40 f6a5 0340 1af0 3b40 6115 2940
000001d0: f21f 5a40 3f4d be40 9d39 7ebf 54fe 7fbf
000001e0: 3f1a 9f40 30be 4d40 7903 8240 095d b040
000001f0: d2d1 8f40 ae96 3140 7b83 3440 3d8c 8d40
4.0403824 5.500873 -0.9999761 3.87164 10.554176 9.430131 1.5049101 -0.99992114
0.6193949 4.6750665 2.3079977 6.0348268 3.2106292 1.2065197 5.2163544 7.472896
3.839751 9.53845 2.8244545 2.605033 -0.9999595 5.1334496 4.283089 7.604449
4.4260707 7.023108 0.87300044 5.4086304 -0.7103737 -0.99978715 6.9238124 6.535258
2.850637 5.7801867 3.0497198 -0.96470785 6.7097526 -0.99980605 4.902946 19.080399
6.821304 2.7953737 2.9056206 5.481869 -0.32868642 1.434408 20.711885 4.306082
4.649534 -0.9998298 3.3838444 4.0194936 1.9979762 -0.9997634 4.562561 10.234569
2.750629 3.0881305 8.425087 4.3346014 2.0564246 2.2658799 4.883221 -0.9999909
1.4242898 2.8262656 4.19041 2.602417 7.073254 14.142632 1.3658756 -0.29946986
-0.99996626 -0.24601713 2.5590565 3.2811422 21.136646 -0.9997303 -0.9997989 6.5260034
3.4950914 2.8193793 3.7299912 7.3111553 2.804829 4.097324 10.40487 -0.7350392
8.718979 -0.9991039 6.2808414 -0.99999714 4.3720903 10.08924 4.0673666 -0.9997189
9.510971 9.553613 3.2734654 5.6534305 7.4294415 0.8624064 4.240451 10.11562
1.5019636 2.273321 11.277931 8.871506 13.824729 5.8394966 -0.9998778 11.535974
2.478352 2.0570045 2.9365296 2.6419299 3.4081998 5.9469295 -0.9930666 -0.9999745
4.971954 3.2147331 4.062924 5.511357 4.494363 2.7748218 2.820525 4.423369

convs.0.nn.2.running_var f4 [128]
00000000: ae02 b640 0d70 a940 1ef5 b32f 7e00 5641
00000010: facb 6f40 7ef7 2640 7789 f13f 8b78 913a
00000020: 37cd 893f 6473 e63f 9e85 8640 2b22 2940
00000030: 0fc3 1441 15fb d640 938b 6540 96ba b540
00000040: 614d 4e40 0f80 2a40 268f 0e40 15ae 1240
00000050: 9b40 3430 372b d340 f95d 3340 5606 0c41
00000060: 4f32 0840 ba31 1f40 54fa 943f 810c 5340
00000070: a42e 1a3e 67e6 5d3b 6bdd 9d40 5599 da41
00000080: f9f5 ee3f 50cb 7340 3553 2741 00f7 193c
00000090: 674d 1840 93cf 2f3c 0603 b640 d9ec ed3f
000000a0: 97ad 0340 1f89 e23f faee 6b40 ae77 3a41
000000b0: 5117 433e 3cec f13f 8ee5 9040 66e0 ef40
000000c0: e7cf cf3f c484 0f3c 5bda fb3f f9ad e940
000000d0: b4ae 813f ca4e 2c3c 62db 2141 39f1 8c40
000000e0: b6b8 d93f 802f 9540 4873 8241 b925 0940
000000f0: 2ee3 e93f e00b e33f e1d5 2840 e9cb 4e2e
00000100: 76cb c13f af0e af3f 2592 4a41 1e3c f13f
00000110: 5dfd aa40 dacf c240 9697 f23f 80f7 2f3f
00000120: 9091 9530 51cf 5f3f a662 e13f 81c4 8b3f
00000130: 0197 0240 8682 b23c 41a7 0d33 013e b041
00000140: 5dff ae3f 3bac 0c40 d40b 0e40 024a 6e41
00000150: fa25 9c3f 2e5b 2140 600e f440 c09f 083e
00000160: 8c95 2c41 9b74 4534 1e97 d041 4836 ed2c
00000170: dab0 2040 96b6 c540 ec70 0240 5971 a13c
00000180: 90f8 b841 194f 0041 b122 873f a40f bb40
00000190: 743d 8540 8bc0 0640 d178 5940 fada 6140
000001a0: 841b f63f ec82 d73f 5859 9c40 77a5 2240
000001b0: 183f 9140 4755 0a41 4874 e532 df52 9d40
000001c0: 77f2 1940 de91 3c40 bca4 7c40 6485 5e40
000001d0: df1e b940 69ed fd40 9f45 643d 778d 3739
000001e0: d8f1 0941 84e7 0940 1db4 0940 0604 4a41
000001f0: 3d34 c83f 19bc 0e40 9b5f fa3f 2bd2 0640
5.687827 5.294928 3.2734077e-10 13.37512 3.7468247 2.6088557 1.8870076 0.0011098547
1.0765752 1.8003964 4.2038107 2.6427104 9.297622 6.7181497 3.586644 5.6790266
3.2234728 2.664066 2.227487 2.2918751 6.557543e-10 6.5990252 2.8026106 8.751547
2.1280706 2.48741 1.1638894 3.2976382 0.15056854 0.0033859254 4.9332786 27.32487
1.8668815 3.8092842 10.457814 0.009397268 2.3797243 0.010730642 5.687869 1.8587905
2.05747 1.7698096 3.686461 11.654219 0.19051863 1.8900218 4.528022 7.4961424
1.6235322 0.008759681 1.9676012 7.302487 1.013144 0.010516832 10.11606 4.404446
1.7009494 4.6620483 16.30629 2.1429274 1.8272455 1.7737999 2.6380541 4.7020086e-11
1.5140216 1.3676356 12.66068 1.8846471 5.343428 6.0878725 1.895251 0.6873703
1.0882548e-09 0.87425715 1.760823 1.0919343 2.0404665 0.021790754 3.2981237e-08 22.030275
1.3671681 2.198012 2.219472 14.893068 1.219909 2.5211902 7.6267548 0.1334219
10.78651 1.8389476e-07 26.073788 6.7419716e-12 2.5107942 6.1785383 2.0381422 0.019707369
23.121368 8.019311 1.0557462 5.8456593 4.1637516 2.105502 3.397999 3.5289903
1.9227147 1.6836829 4.885906 2.5413492 4.538952 8.64582 2.6711987e-08 4.916366
2.4054239 2.946403 3.9475546 3.4768915 5.7850184 7.9352307 0.05573046 0.0001750494
8.621544 2.1547556 2.1516182 12.625982 1.5640942 2.2302306 1.9560426 2.1065776

convs.1.nn.0.weight f4 [128, 256]
00000000: e669 41bd 7d37 f5bc 584e 72bd a8e3 4cbd
00000010: 2559 f6bc 4680 b63c ba30 6ebc 2f01 26bd
00000020: 26ef f23b a15a 9cbb fb71 2d3c 019e 603c
00000030: 8042 6c3d eddc 8abd 9319 22bc af58 6fbd
00000040: 82f7 70bc 63fd 14bd ae46 45bc 4bfb 523c
00000050: 6f71 a7bb 129d a7bd 31c3 81bc 0698 a0bb
00000060: 2e1f 29bd 13bc f03c f509 29bd 31fd f83c
00000070: e806 bdbd 381d 5d3c 568b bbbc d723 c33c
00000080: afa8 c23c d218 febc e8e2 133d 632d e1bb
00000090: bd24 0abd 78da dc3b c567 21bb dfd1 ecbc
000000a0: b935 ca3b 2434 08bd 73e3 a53c 1ea1 f1bc
000000b0: 0bcb 3bbd dfeb 84bd 5ba0 4d3d 219f 283d
000000c0: 6ff7 7d3d a04d c83c 34dd 57bd 477a 2c3d
000000d0: f26e 57bd 7f06 cd3c 6fc4 0c3c b854 183b
000000e0: 5e31 333c a937 b3bd 211b 213d 67d2 81bc
000000f0: 5712 0e3d de8d 38bd 3e31 f13c b576 7cbd
00000100: f4a0 d4bc bf35 bc3c 134d 8dbc cf3c 843c
00000110: 080a 513b ae30 f8bc 3b09 8e3b 2723 5f3d
00000120: 4078 1c3b 8653 473d 1760 1ebc f4dc f3bc
00000130: 520f 053d 0801 e1bc d8cf 063d 58c3 fabc
00000140: 2c75 87bd 4f05 d0bd 362e af3c 07b7 ef38
00000150: 2149 b4bc ff66 2abd c206 4a3d 7371 e7bc
00000160: b605 5ebc b77f 94bc fae7 2bbd 04c8 08bc
00000170: ccb0 0fbd eee6 f83c dd35 93bd f676 a9bd
00000180: 9b1c cebc e6ad 693d 8249 2e3d 0379 813d
00000190: 4512 6fbc b6b9 20bd 78b0 f93b 8d3a 4dbc
000001a0: 7e0c b13c 689d 44bd 3c25 e43c 0429 bbbc
000001b0: 036b 6dbc 8163 903d 2abc 7dbd 2dfb f2bc
000001c0: c5c2 a2bd 629e 853c 81f1 1abd 215c cd3b
000001d0: 8eaa 1f3b 2a87 d7bc 6d6e 4cbd d4de 15bb
000001e0: 2157 34bc 9714 953d 2d9e b3bc 6abe e33c
000001f0: 3fa5 34bc 5ddd 0abe 336d a8bc e94e f9bc
00000200: 8bfc 6ebb 6f30 88bd 93da 803d 4a62 103e
00000210: 83c1 783d d710 64bd 3e7c 28be 8bde a23d
00000220: 1db5 76bc 4a9b 783c dc2f a63c 902f b83d
00000230: 6d5f 97be d5e7 9f3d 3a36 d8bd c4b7 90bd
00000240: a198 463b 8635 c4bd 92f9 60bc c3ae 06be
00000250: 9a44 1dbe ea9a a9bd 2be2 00bd 42a2 cabd
00000260: 03d0 02be f65a ed3d 0dab ae3d 5ec1 013e
00000270: ae9e 5fbd 75c5 7dbb b5f4 7a3c 4fcc 09be
00000280: db35 053d 4ec9 523d 77fd 903e 13e7 77bd
00000290: 9405 9fbd 2837 d7bd 979c 023c b2e4 9a3d
000002a0: a2ee 043e dc27 82bd e5fe e1bb 25ea 21bc
000002b0: ecbd 7dbc d41d b8bd b16a acbd b6ea a8bc
000002c0: a5a8 17bd 1419 f8bd ca41 02bd 8d08 4e3e
000002d0: 21c3 8c3c 8376 38bd 8ce7 4c3d 5cb1 36bd
000002e0: 934d 49bd 4e16 a33b 68d4 e83d bba1 783c
000002f0: af3d 713c 0b0c d6bc 9fd7 853d 66c3 15bd
00000300: a93e 663d 8926 2cbd b2a9 e93d b3dc 073e
00000310: f5e7 083c 5641 04be 0878 babd db0f 873d
00000320: afda 1abe f379 fb3d 9534 a13d 99bd 8ebd
00000330: e1b8 a3bc 00c0 1ebe 0c53 9cbc a2c2 d3ba
00000340: 1142 4ebd ea34 10bd 1249 0e3e f6ef f1bc
00000350: 36fc 92bc 77ee 87bc 3d1f aabd f20e b8bd
00000360: 0069 5cbe 98b4 c63d e6b4 513e c840 9b3d
00000370: 5fa7 5c3c 3d6a 3a3e 197d 87ba aa8a a43d
00000380: e383 243e 8d69 2f3d c7d9 763d 762c 1abd
00000390: 3915 cd3d 5358 65bd 28c0 b7bd 1c58 2a3d
000003a0: 2fb3 573e 49b3 78bd 46fe afbc 5648 163d
000003b0: c39e 89bd c87d 463d 4f2e 51bd a084 febd
000003c0: d650 a7bd e786 d93d aed1 97bb fd1e 82bd
000003d0: 0e14 a1bc 213a c13c d7cb b8bc af14 cdbd
000003e0: d236 a43c e5f5 063e b677 79bd d70e 813e
000003f0: d2ff 73bd 0333 21be 7cf0 843d 0d7b dcbc
-0.047220133 -0.029933685 -0.059156746 -0.050021797 -0.030071804 0.022277962 -0.0145379845 -0.040528473
0.0074137626 -0.004771546 0.010586257 0.013709546 0.057680607 -0.067804195 -0.009893793 -0.058434185
-0.014707448 -0.03637446 -0.012040777 0.012877296 -0.005109958 -0.08184256 -0.015840145 -0.004900935
-0.0412895 0.029386556 -0.04126926 0.030394169 -0.09229833 0.013495736 -0.022893589 0.0238208
0.023762075 -0.031017695 0.036105067 -0.0068718656 -0.033726443 0.0067399107 -0.0024628502 -0.028908668
0.006170955 -0.03325285 0.020250058 -0.029495772 -0.045847934 -0.06490301 0.050201755 0.041167382
0.06200355 0.024451077 -0.05270119 0.0421088 -0.05259604 0.025027512 0.008591755 0.0023243856
0.010937063 -0.08750851 0.039332513 -0.015847398 0.03468546 -0.04505717 0.029442426 -0.061636645
-0.025955655 0.022974847 -0.017248666 0.016142277 0.0031896848 -0.03029665 0.0043345965 0.054476883
0.0023875386 0.04866364 -0.009666464 -0.029768445 0.032485314 -0.027466312 0.03291306 -0.030610725
-0.06614146 -0.101572625 0.02138434 0.000114304996 -0.022007527 -0.04160213 0.04932285 -0.028252339
-0.013551166 -0.018127305 -0.041969277 -0.008348469 -0.035080716 0.030383553 -0.07188008 -0.08274643
-0.025160125 0.057050608 0.04255057 0.06321909 -0.014591758 -0.039239608 0.0076199137 -0.012526167
0.021612402 -0.048001677 0.027849786 -0.022846706 -0.014490846 0.07050229 -0.061947025 -0.029660786
-0.079473056 0.016310874 -0.037827972 0.006267086 0.0024363133 -0.026309568 -0.049909998 -0.0022868412
-0.011007101 0.07279318 -0.02192601 0.027800757 -0.011025726 -0.13561006 -0.020559883 -0.030433135
-0.0036466445 -0.06649863 0.0629169 0.14099994 0.060731422 -0.055680122 -0.16453645 0.07952603
-0.015057829 0.015173743 0.020286493 0.08993447 -0.29564992 0.0780789 -0.10557218 -0.070663005
0.0030303376 -0.09580521 -0.013731377 -0.13152604 -0.153582 -0.08281501 -0.03146569 -0.098942295
-0.12774663 0.11589615 0.08528719 0.1267142 -0.054594688 -0.003872243 0.015317132 -0.13456844
0.032522064 0.05146151 0.28318378 -0.060523104 -0.07764736 -0.10508567 0.007971904 0.075631514
0.12981656 -0.06355259 -0.006896841 -0.009882485 -0.015487175 -0.08990064 -0.08418787 -0.020619731
-0.037026066 -0.12114158 -0.031801023 0.2012045 0.017182888 -0.045034897 0.050025508 -0.044602737
-0.049146246 0.004977024 0.11368638 0.015175278 0.014724179 -0.02612879 0.06535267 -0.0365633
0.0562121 -0.042028937 0.1140932 0.13267784 0.008356084 -0.12915549 -0.091049254 0.06594821
-0.15122484 0.12279119 0.07871357 -0.06969757 -0.019985618 -0.1550293 -0.019082569 -0.0016156028
-0.050355975 -0.035206713 0.13895062 -0.029533368 -0.01794253 -0.016593201 -0.083067395 -0.089872256
-0.2152443 0.09702414 0.20479164 0.075807154 0.013467639 0.18204589 -0.0010336965 0.080342606
0.16065936 0.04282527 0.060266282 -0.037640058 0.100138135 -0.055992436 -0.08972198 0.041587934
0.21064447 -0.060717855 -0.021483552 0.03669008 -0.067197345 0.048459798 -0.051069554 -0.1242764
-0.08169715 0.10621434 -0.00463315 -0.06353567 -0.019662883 0.023587288 -0.022558136 -0.10013711
0.020045672 0.13179739 -0.06090518 0.25206634 -0.05957014 -0.15742116 0.06491181 -0.026914144

convs.1.nn.0.bias f4 [128]
00000000: 1a5e 543c 0c79 903d e0fe 303d bbfb 593e
00000010: 9355 543e a993 1ebe 9193 073d 3288 543d
00000020: dd47 48bc b4e4 083d 27be b03c 64fa d0bc
00000030: 0197 ad3c 39fb a23d a2cd c23d abcb 3e3d
00000040: 3c20 29bd 8a53 27be fa78 9d3d 5c68 bd3d
00000050: d5b5 283e 2a72 083d d455 f23c a82d 803d
00000060: 901b 69bd 5374 973d c842 afbd 309c eabd
00000070: 390f 413d a5d9 b43d 9d7d 8a3d 4880 cf3b
00000080: 9062 45bd 4ced 5e3e ae03 a33c 8d0a 433b
00000090: 59eb f03a 4e2d f13d 5c51 e63d 0bce 293d
000000a0: 1334 393e 20d1 5b3c 77b5 99bc 7743 c63d
000000b0: fc8a e13d 9d8a c7bc a0a4 71bc b0ff 06bd
000000c0: a936 c63d 5dfc 103c 74cb c13d 516a 513d
000000d0: 0a88 153d 838d e43b 66c9 ae3d 0978 123e
000000e0: 8044 cabd 9930 873d 5612 213d bdb0 cbbd
000000f0: df1b 053d b1a8 933c 3cd9 263d 8eb4 a83c
00000100: e940 5b3d 6044 02bd 5b9c 9bbb ecaf 35bd
00000110: fbd2 43be 6ef6 dabd 8bc4 693d b151 a63b
00000120: 798c 783d 8551 83be 90ef 71bd 4876 503d
00000130: 2cae 1f3d c486 0cbd 512a debd 790b 5cbc
00000140: 7f89 1cbe 9def 30bb 7c4c 653d c9b1 b33d
00000150: 9e05 183d 2e31 36bd b3d1 01bd 448e 97bd
00000160: a90e e03d 7250 c13c 7291 263e e0ea 7cbd
00000170: 34a6 88bd 8477 7a3d f9ae b53d 5ad6 0937
00000180: 8fae bb3d 905a 683e 3005 64bd aabe a2bc
00000190: 7fc2 6dbd e5ab df3c 7a40 2bbd 7519 74bd
000001a0: 0ef9 65bd 75be c43d ee28 dc3c 3ab7 dcbd
000001b0: 8c27 79bd acc0 7c3a 17b6 733e 082f a23d
000001c0: c99d 4d3d 5a30 a5bc 1ed8 3b3d 8248 9dbd
000001d0: 2415 8b3b 5dc0 45bc bc9f afbd ac97 a73d
000001e0: 0c80 c13d 2a1e b0bd 2bdb c93d ade9 343d
000001f0: 0941 bc3d 5378 d03d 1a3d 6d3b 2256 203d
0.012961889 0.07054338 0.043211818 0.21287434 0.20735769 -0.15486015 0.033099715 0.0518877
-0.012224165 0.033421233 0.021575047 -0.02551002 0.021190168 0.07958073 0.095118776 0.04658095
-0.041290507 -0.16340461 0.0768909 0.092484206 0.16475613 0.033312 0.029581942 0.06258708
-0.05691105 0.07395234 -0.085576594 -0.11455572 0.047133658 0.08830575 0.0676224 0.006332431
-0.0481897 0.21770209 0.019899216 0.0029760927 0.0018380686 0.11776219 0.11245987 0.041456264
0.18086271 0.0134165585 -0.018763287 0.09680837 0.11012837 -0.024358088 -0.014748722 -0.032958686
0.09678394 0.008849231 0.09462634 0.05112678 0.03650669 0.0069748773 0.085345075 0.14303602
-0.098763466 0.06601066 0.039324127 -0.099458195 0.032497283 0.018024774 0.040734515 0.020593908
0.0535287 -0.03180349 -0.0047488636 -0.044357225 -0.19123451 -0.10691534 0.057072204 0.0050756563
0.06068084 -0.25648132 -0.059066355 0.05089405 0.038984463 -0.03430821 -0.10847915 -0.01343047
-0.15286826 -0.002699829 0.055981144 0.08774144 0.037114732 -0.044480495 -0.031694125 -0.07400182
0.10940296 0.02359793 0.1626642 -0.06174743 -0.06672326 0.061149135 0.08871264 8.215744e-06
0.09164154 0.22690797 -0.05566901 -0.019866306 -0.058046814 0.027303645 -0.041809537 -0.05959459
-0.05614572 0.09606639 0.026874986 -0.10777135 -0.06082873 0.00096417475 0.2379993 0.07919127
0.050199304 -0.020164657 0.045860402 -0.076798454 0.0042444635 -0.012069789 -0.08575389 0.08183226
0.09448251 -0.08599503 0.09856256 0.044168163 0.09192092 0.101792 0.003619975 0.039144643

convs.1.nn.2.weight f4 [128]
00000000: a4ca 9e3f 0ace 6d3f e3d8 893f 74a4 5c3f
00000010: 322c 5f3f b829 c13f 94aa 8a3f 6472 393f
00000020: b081 873f a886 7f3f 2d82 753f 77f5 793f
00000030: 93ce 383f 923e 823f a8c1 5f3f bc29 873f
00000040: 2999 873f 90ef ac3f e805 703f a8d8 773f
00000050: dc92 4e3f 5ed6 7f3f 8de6 833f a6f3 513f
00000060: d919 903f 4aa6 973f 360d 8a3f 3396 763f
00000070: 6d86 773f 81a2 343f 3705 833f fb0d 3f3f
00000080: 3ed7 863f 16bf 393f f863 563f e990 873f
00000090: 6cc6 623f a358 643f a09b 553f 9212 933f
000000a0: e69a 5c3f b3b1 6d3f a216 893f e670 643f
000000b0: 7716 813f 0294 9a3f 4c50 693f fa82 743f
000000c0: c2dc 873f 4178 733f 7bc2 833f f5ab 523f
000000d0: 3bc3 923f 250b 803f 22f9 6b3f 86b2 6f3f
000000e0: e05e 7c3f 7ac3 883f 7e44 783f 85a6 a83f
000000f0: ce92 853f c51a 853f e35e 943f 4d9c 993f
00000100: 2ffb 7c3f e7e4 883f c60e 613f c47b 7f3f
00000110: 1aec 993f a100 563f 7f4d 663f e049 5c3f
00000120: 1fdf 753f bd32 a53f d8fd 793f 565f 793f
00000130: f1eb b43f a3e1 b73f 7198 963f 892b 443f
00000140: 30f5 913f 1b63 8e3f 4628 5c3f 16ec 4e3f
00000150: c332 943f c4f5 863f 4a23 7f3f c293 843f
00000160: 54fb 533f 606f 9b3f bf16 603f 52a7 723f
00000170: d19a 7b3f cd75 733f d87f 8d3f 2118 7a3f
00000180: 4df4 5b3f 9159 633f f9a0 873f 6319 873f
00000190: 621a 853f c0f3 893f 528a 853f 2853 733f
000001a0: 0d6b 8d3f 4216 743f 3c32 713f 5067 663f
000001b0: 070c 823f 2797 7a3f d3e6 6d3f 2326 513f
000001c0: 81c5 8f3f 1cc4 813f 0d4e 7f3f 5162 6e3f
000001d0: 0993 723f 02bd 863f c614 743f 8ce7 653f
000001e0: 1922 493f 7dcf 793f f791 853f 8fe9 403f
000001f0: c71f 813f 8327 6d3f 7876 7c3f 5a3c 853f
1.2405591 0.92892516 1.0769314 0.86188436 0.8717681 1.5090857 1.0833306 0.7244017
1.0586452 0.99814844 0.9590176 0.97640175 0.7219021 1.0175345 0.8740487 1.0559611
1.0593616 1.3510609 0.9375901 0.96814966 0.8069284 0.99936473 1.0304734 0.82012403
1.1257888 1.1847622 1.0785282 0.96322936 0.9668949 0.7056046 1.0235966 0.7463071
1.0534437 0.725572 0.8374629 1.0591098 0.8858402 0.8919775 0.8344059 1.1490042
0.86173856 0.9284927 1.0710032 0.8923477 1.0084981 1.2076418 0.9113815 0.95512354
1.0614245 0.9510537 1.0293726 0.82293636 1.146583 1.0003401 0.9217702 0.9363178
0.9858227 1.0684655 0.9697951 1.3175818 1.0435426 1.0398794 1.1591457 1.2000824
0.98820776 1.0694855 0.8791317 0.99798226 1.2025177 0.8359471 0.89962 0.86050224
0.9604358 1.2906109 0.9765296 0.97411096 1.4134504 1.4365734 1.1765271 0.7662893
1.140295 1.1123995 0.8599895 0.8082899 1.1577991 1.0543752 0.9966322 1.0357592
0.8280537 1.2143364 0.8753471 0.9478656 0.98283106 0.95101625 1.105464 0.9769307
0.8591965 0.8880854 1.0596 1.0554622 1.0398676 1.0777512 1.0432837 0.9504876
1.1048294 0.9534646 0.94217277 0.9000139 1.015992 0.9788689 0.92930335 0.81698817
1.1232148 1.0137973 0.9972847 0.9311877 0.9475561 1.0526431 0.953442 0.8980644
0.78567654 0.97582227 1.043517 0.7535638 1.0087823 0.92638415 0.9861827 1.0409043
