TracksterLinking/Mixed/Split/test/split_best_model.pt (torch, 9378 bytes, 5 tensors)

net.0.weight f4 [32, 16]
-0.063477695 0.28858858 -0.1654801 0.03925515 0.15537791 -0.15676934 -0.06324539 -0.04319324
-0.120174766 -0.2221324 -0.17500405 0.12822898 -0.18167572 -0.08014697 -0.2520831 0.011893862
0.07919719 0.051292304 0.16215451 0.009225077 -0.14180326 -0.027943578 -0.2555148 -0.12409406
-0.06841993 0.03240055 0.11809454 -0.059281632 0.18012862 0.049381442 -0.07289771 0.10860432
0.046893463 -0.16703062 0.12224616 -0.15621676 -0.56830025 0.021087721 -0.016456582 -0.038818702
0.22722588 0.033666167 0.14608388 0.11394902 0.032284804 -0.15467846 0.21851207 -0.035694234
0.08454942 0.06302129 -0.31724152 -0.3034289 0.068659075 0.29011214 0.0016515742 -0.3489781
0.053800438 -0.02301856 -0.17360021 0.23723628 0.24154936 0.12713644 -0.04992486 0.058930807
-0.3317688 0.08630058 0.046438977 -0.25958803 0.041542646 -0.08305628 -0.5191336 -0.00857081
-0.07260437 -0.07860851 0.040301118 -0.21795161 -0.02723999 0.09908092 -0.24615276 -8.46589e-05
-0.14881247 -0.28817332 -0.030117601 -0.19713587 -0.069303475 0.18300843 0.31456414 -0.130576
-0.015542993 0.21998006 -0.15296929 0.31762883 0.10229268 -0.1579834 -0.07534473 -0.024278773
-0.070778884 -0.016568843 0.21667692 -0.21599557 -0.012389125 0.05804676 -0.25456598 0.24248017
0.09845042 0.10369006 0.21449172 0.05606939 -0.09871316 0.12660804 -0.0822108 -0.15110038
0.029607221 -0.12230148 -0.062489994 -0.19366474 -0.49653026 -0.0926854 -0.19442117 -0.20913292
-0.051006828 -0.0003110835 0.08632724 -0.022812188 0.10467874 0.05210118 0.011954612 0.13441783
-0.09095641 -0.1072703 0.12442734 0.12447186 -0.13957025 0.15960807 -0.14305516 0.029432507
-0.007479366 0.17083386 0.30402303 0.21769825 -0.24737649 -0.06931425 0.09323274 -0.04189863
0.087634854 -0.010691476 -0.41177604 -0.21573094 -0.23224516 0.23623809 -0.30377838 -0.15269089
-0.002168866 -0.09278047 -0.36956787 0.2487694 -0.13381778 -0.09693621 -0.18777442 -0.019376948
0.23546644 0.004763827 0.20247197 0.17762789 -0.2963092 -0.022920793 -0.028739829 0.02314206
-0.019216685 0.023984503 0.05162099 0.03006657 -0.09495374 -0.11039377 -0.16324899 0.14719787
-0.21323134 -0.21659577 -0.2518655 0.1825323 0.301911 -0.06804118 0.16876478 0.37299976
0.22091499 0.3293414 -0.19484843 0.14510155 -0.089809135 -0.035900727 -0.0090524135 0.08964137
-0.152089 0.1420259 -0.10984572 0.018538268 0.05757099 -0.14262873 0.041380793 -0.21290992
0.19156365 -0.088625886 -0.040311165 0.17526802 -0.06721132 0.08493935 0.22031817 -0.19889183
0.09445737 0.0072787097 -0.25738442 -0.07488727 -0.16980782 -0.010162271 0.10421307 0.15775608
-0.09942985 -0.07941342 0.107411884 -0.052543145 -0.023571773 -0.14413908 0.21924068 0.17686394
0.10010801 -0.3510583 0.009795548 -0.059374645 0.13042268 0.40219948 0.22315586 -0.09924201
-0.14878292 0.26817086 0.0033680026 0.13983196 0.18203193 -0.042279415 -0.21624123 0.119229406
0.07434661 -0.031082826 -0.005332171 0.19008458 -0.0757443 0.09073386 0.028993322 -0.10055441
0.30249268 0.11818877 0.0030216475 0.07557036 -0.009763766 0.062174253 -0.19531251 -0.06200167
00000000: 9800 82bd e2c1 933e 9e73 29be 02ca 203d
00000010: 631b 1f3e 2488 20be cd86 81bd 65eb 30bd
00000020: 301e f6bd ad76 63be 4334 33be 754e 033e
00000030: 3309 3abe 1824 a4bd 0911 81be 79de 423c
00000040: 2332 a23d e117 523d d50b 263e c724 173c
00000050: e034 11be eee9 e4bc d6d2 82be 0725 febd
00000060: c01f 8cbd 70b6 043d 8ddb f13d 4cd1 72bd
00000070: a373 383e 3244 4a3d 654b 95bd f16b de3d
00000080: 5c13 403d 130a 2bbe 325c fa3d 49f7 1fbe
00000090: 207c 11bf 28c0 ac3c f4cf 86bc 5c00 1fbd
000000a0: e7ad 683e 89e5 093d 0397 153e 1b5e e93d
000000b0: 123d 043d 0864 1ebe a1c1 5f3e 1e34 12bd
000000c0: 3f28 ad3d 4e11 813d 7b6d a2be 085b 9bbe
000000d0: 219d 8c3d 9489 943e a279 d83a 42ad b2be
000000e0: d95d 5c3d 6b91 bcbc 41c4 31be 11ee 723e
000000f0: b758 773e 0e30 023e 037e 4cbd 6e61 713d
00000100: 9add a9be 5cbe b03d cc36 3e3d b9e8 84be
00000110: 9f28 2a3d 6919 aabd f1e5 04bf 956c 0cbc
00000120: 9ab1 94bd 80fd a0bd c912 253d b52e 5fbe
00000130: 6626 dfbc f0ea ca3d 780f 7cbe e78a b1b8
00000140: 4c62 18be 748b 93be 30b9 f6bc fcdd 49be
00000150: fbee 8dbd 9066 3b3e 8d0e a13e b7b5 05be
00000160: 0aa8 7ebc 7442 613e fba3 1cbe 3fa0 a23e
00000170: d37e d13d 67c6 21be 564e 9abd 47e4 c6bc
00000180: 85f4 90bd 62bb 87bc 8ee0 5d3e f12d 5dbe
00000190: c2fb 4abc 70c2 6d3d 7956 82be b94c 783e
000001a0: 60a0 c93d 745b d43d b8a3 5b3e 04a9 653d
000001b0: 202a cabd 8aa5 013e 235e a8bd 0fba 1abe
000001c0: d88a f23c 3379 fabd 82f5 7fbd 0d50 46be
000001d0: 3739 febe d8d1 bdbd 5816 47be f126 56be
000001e0: 89ec 50bd ec18 a3b9 56cc b03d a0e0 babc
000001f0: cf61 d63d 0c68 553d 47dd 433c d4a4 093e
00000200: 5b47 babd 88b0 dbbd c3d3 fe3d 1aeb fe3d
00000210: 81eb 0ebe 4c70 233e 0d7d 12be 711c f13c
00000220: 7815 f5bb 12ef 2e3e e8a8 9b3e 4aec 5e3e
00000230: 4350 7dbe a1f4 8dbd cff0 be3d e69d 2bbd
00000240: e779 b33d 4d2b 2fbc 4fd4 d2be 92e8 5cbe
00000250: add1 6dbe 66e8 713e d788 9bbe 005b 1cbe
00000260: 8923 0ebb b003 bebd 0038 bdbe 68bd 7e3e
00000270: 8707 09be 7e86 c6bd f047 40be 68bc 9ebc
00000280: 1d1e 713e e119 9c3b d054 4f3e 16e4 353e
00000290: d7b5 97be 63c4 bbbc ca6f ebbc 6b94 bd3c
000002a0: 4f6c 9dbc 267b c43c 8870 533d 2b4e f63c
000002b0: 1b77 c2bd 2116 e2bd be2a 27be 0abb 163e
000002c0: 5159 5abe 48cb 5dbe 84f4 80be bfe9 3a3e
000002d0: 1494 9a3e 2d59 8bbd add0 2c3e d3f9 be3e
000002e0: 8a37 623e 709f a83e 5986 47be 8095 143e
000002f0: daed b7bd a40c 13bd 9350 14bc e595 b73d
00000300: 38bd 1bbe 3d6f 113e cbf6 e0bd 91dd 973c
00000310: 8fcf 6b3d 440d 12be e87e 293d 0f05 5abe
00000320: 4329 443e 7d81 b5bd 521d 25bd 7679 333e
00000330: 17a6 89bd aff4 ad3d 169b 613e 4daa 4bbe
00000340: de72 c13d 3e82 ee3b e4c7 83be 7f5e 99bd
00000350: 1ae2 2dbe a77f 26bc a96d d53d cf8a 213e
00000360: e1a1 cbbd 81a3 a2bd c3fa db3d 7b37 57bd
00000370: 9719 c1bc 3299 13be a180 603e d21b 353e
00000380: 6e05 cd3d eabd b3be 827d 203c d432 73bd
00000390: 868d 053e 17ed cd3e f882 643e 653f cbbd
000003a0: 8d5a 18be b14d 893e b5b9 5c3b 1c30 0f3e
000003b0: 9466 3a3e 2e2d 2dbd 576e 5dbe 8c2e f43d
000003c0: 0943 983d 69a1 febc 7eb9 aebb 88a5 423e
000003d0: d41f 9bbd add2 b93d 6783 ed3c 78ef cdbd
000003e0: 52e0 9a3e f40c f23d d506 463b a2c4 9a3d
000003f0: 34f8 1fbc 6eaa 7e3d 0100 48be 77f5 7dbd

net.0.bias f4 [32]
-0.03686265 0.04228686 -0.28824893 0.30678037 -0.05500939 -0.27991837 -0.42045513 -0.4788008
-0.21128352 -0.05709139 -0.1587847 0.07054676 0.00078882946 -0.44727513 -0.0737963 -0.4148076
-0.091353595 -0.082752846 -0.18861741 -0.15460615 -0.30030653 -0.13447428 0.17324272 0.091991454
0.10987285 -0.24717374 0.15508844 0.46288112 -0.23026726 -0.17219867 -0.4689288 -0.17172618
00000000: 4afd 16bd fd34 2d3d 5d95 93be 5112 9d3e
00000010: 8751 61bd 7651 8fbe e545 d7be 6125 f5be
00000020: b55a 58be a9d8 69bd 7598 22be d27a 903d
00000030: 73c9 4e3a 3f01 e5be 8422 97bd a961 d4be
00000040: 9817 bbbd 537a a9bd ec24 41be 1351 1ebe
00000050: c7c1 99be a0b3 09be 8a66 313e 0466 bc3d
00000060: 0405 e13d 1d1b 7dbe 81cf 1e3e c1fe ec3e
00000070: 2ecb 6bbe d954 30be 7017 f0be fdd8 2fbe

net.3.weight f4 [32, 32]
0.02714922 0.0039971266 0.28042552 -0.07077919 0.35088572 0.1029912 0.19562781 0.23234835
0.048422217 -0.18475594 -0.080240704 0.11883874 -0.008844419 0.13053164 0.11184302 0.059703898
0.06580813 0.17511868 0.27818748 -0.078590706 0.08193963 -0.0042035836 0.10190089 0.27095836
-0.12762529 0.1406528 -0.13074812 0.38318893 -0.19196293 0.35510004 -0.18133847 0.15623598
0.20859267 -0.2118967 -0.11006662 0.06034735 -0.13016586 0.1312117 0.14542586 -0.14197983
-0.07923751 0.019162467 -0.12474782 0.27912062 -0.0010636033 -0.023542503 0.22893086 0.11335504
-0.018792873 0.20885696 0.1813297 0.065210246 -0.09572405 0.12730458 -0.03408647 -0.017607242
-0.14298245 0.26272345 0.23743089 0.066137284 0.10766114 0.065425955 0.059059933 0.13437088
0.12138399 0.13510235 -0.16623273 0.0058025895 0.2947775 -0.18389462 0.0061124708 0.10727851
0.16104393 -0.13540876 -0.21529342 0.07537957 0.04458819 -0.040199246 0.016252654 0.04578664
0.00019725371 -0.14372957 -0.1427572 -0.111593194 -0.17129433 0.029330542 -0.16515718 0.083426476
0.13399185 -0.08966311 -0.108925566 -0.13601102 -0.12340658 0.06982892 -0.06765323 0.1626259
-0.008941165 0.06317655 -0.012664046 0.27244103 -0.03472237 -0.1520867 0.0012558469 -0.03830766
-0.25542608 -0.13203408 -0.15917361 0.01702052 -0.13461128 0.0056883944 0.26310915 -0.12097104
0.044213712 -0.003178981 -0.40202752 -0.1382849 -0.21883136 -0.09329799 -0.600512 -0.86233
-0.20541683 -0.79952025 -0.029219367 0.086742274 -0.052456327 -0.5104044 -0.040780444 0.030983202
-0.32920182 -0.24850248 -0.3173345 0.064717144 -0.4072664 -0.22673362 -0.18678458 -0.045980297
0.05786002 0.06464706 -0.1195518 -0.4427246 -0.34278923 0.10420643 -0.23476186 0.041119557
-0.16278222 0.09427827 -0.30349123 0.12658036 0.19614188 0.23133665 -0.15614878 0.07922232
-0.012182641 -0.0072856126 -0.03901314 -0.18457134 -0.078872055 -0.26997346 -0.066752575 -0.16698039
0.09170544 -0.08266291 0.12876879 0.100247905 -0.654181 0.12821922 0.02658712 0.15967374
-0.023880241 0.1302833 -0.111187674 0.03718189 0.020782916 -0.09197321 0.13284376 -0.11877621
-0.08817702 0.003306112 -0.85470384 -0.0034257905 -0.18761197 -0.36807624 0.11068902 -0.71670324
-0.17613663 -0.8324796 0.06928477 -0.04994126 0.17551889 -0.46165147 -0.12486549 -0.06971803
-0.24013586 -0.1609688 -0.28336573 0.104543686 -0.44304383 0.0667947 -0.12870492 -0.22712454
0.081058644 0.040293407 -1.2035848 -0.01937063 -0.045939118 -0.40616962 -0.046807714 -0.13777825
-0.031497892 -0.12948593 -0.50799036 0.07536547 -0.36008638 -0.32687196 0.0021712116 -0.58618504
-0.7751275 -0.7353491 -0.05243683 0.018549226 -0.0366889 -0.662076 -0.4232828 -0.35564232
0.008445412 0.13644655 0.2105634 0.006603719 -0.020244084 0.11947053 0.004094454 -0.06165024
0.12099889 0.10790991 -0.11879875 0.059703823 0.16352868 -0.017579993 0.09369564 -0.10538169
0.045859393 0.2574279 0.23750667 0.009978482 0.1444599 -0.11066938 0.028826239 0.18149486
-0.05326466 0.24754477 0.04737926 0.14513545 -0.021763017 0.4031138 -0.10992876 0.12700154
00000000: 0b68 de3c 54fa 823b ef93 8f3e aef4 90bd
00000010: 4ba7 b33e 0ded d23d a852 483e baec 6d3e
00000020: 6056 463d a930 3dbe 3d55 a4bd ba61 f33d
00000030: 2fe8 10bc 16aa 053e f40d e53d 138c 743d
00000040: 6ac6 863d 5052 333e 976e 8e3e 2af4 a0bd
00000050: f7cf a73d 37be 89bb 6ab1 d03d 0ebb 8a3e
00000060: 34b0 02be 4a07 103e d6e2 05be 5731 c43e
00000070: ee91 44be accf b53e cbb0 39be 53fc 1f3e
00000080: 5199 553e 73fb 58be 9c6a e1bd c82e 773d
00000090: 334a 05be 5c5c 063e 84ea 143e 2963 11be
000000a0: 4747 a2bd 9bfa 9c3c c97b ffbd e6e8 8e3e
000000b0: 9b68 8bba 35dc c0bc da6c 6a3e b026 e83d
000000c0: 83f3 99bc 99de 553e 7eae 393e f38c 853d
000000d0: f90a c4bd 225c 023e 419e 0bbd 103d 90bc
000000e0: fe69 12be b083 863e 1521 733e fc72 873d
000000f0: 727d dc3d 0bfe 853d d4e8 713d 8598 093e
00000100: 2b98 f83d 4558 0a3e ea38 2abe a623 be3b
00000110: 14ed 963e df4e 3cbe 1f4b c83b d6b4 db3d
00000120: b3e8 243e 98a8 0abe e175 5cbe 9b60 9a3d
00000130: 1ba2 363d f7a7 24bd 4924 853c c68a 3b3d
00000140: e4d5 4e39 d82d 13be f22e 12be f98a e4bd
00000150: c867 2fbe 9b46 f03c f71e 29be 80db aa3d
00000160: 2935 093e 4ba1 b7bd 5e14 dfbd 7946 0bbe
00000170: 97bc fcbd 7702 8f3d c78d 8abd 6787 263e
00000180: f77d 12bc b562 813d dc7c 4fbc 647d 8b3e
00000190: 0b39 0ebd 9ebc 1bbe 3b9b a43a 7ee8 1cbd
000001a0: 35c7 82be f133 07be 68fe 22be 9e6e 8b3c
000001b0: 8ad7 09be b665 ba3b 3eb6 863e aabf f7bd
000001c0: 7019 353d 7356 50bb 8dd6 cdbe 8f9a 0dbe
000001d0: 5415 60be 0413 bfbd 28bb 19bf a9c1 5cbf
000001e0: ca58 52be 5cad 4cbf 745d efbc efa5 b13d
000001f0: 72dc 56bd dda9 02bf 6509 27bd 7cd0 fd3c
00000200: 248d a8be 6f77 7ebe ab79 a2be 6c8a 843d
00000210: 3985 d0be dc2c 68be 7544 3fbe d655 3cbd
00000220: a1fe 6c3d ae65 843d 93d7 f4bd ccac e2be
00000230: 1282 afbe 2e6a d53d 6a65 70be fb6c 283d
00000240: 62b0 26be f714 c13d 3463 9bbe 489e 013e
00000250: 6bd9 483e 84e3 6c3e 77e5 1fbe 503f a23d
00000260: b399 47bc 26bc eebb 3ecc 1fbd 4500 3dbe
00000270: ac87 a1bd f639 8abe 93b5 88bd e8fc 2abe
00000280: 10d0 bb3d 2c4b a9bd f7db 033e c64e cd3d
00000290: 6878 27bf e64b 033e 3bcd d93c 8381 233e
000002a0: 7fa0 c3bc fc68 053e 5db6 e3bd 0a4c 183d
000002b0: ef40 aa3c 735c bcbd 3208 083e f140 f3bd
000002c0: 2796 b4bd 5bab 583b dfcd 5abf 3a83 60bb
000002d0: 5a1d 40be 7d74 bcbe edb0 e23d dd79 37bf
000002e0: 295d 34be 621d 55bf 2ce5 8d3d 358f 4cbd
000002f0: 39bb 333e 955d ecbe 7ab9 ffbd 54c8 8ebd
00000300: 2de6 75be 01d5 24be 5015 91be 001b d63d
00000310: a4d6 e2be a9cb 883d 39cb 03be 5693 68be
00000320: 1302 a63d b30a 253d 110f 9abf 28af 9ebc
00000330: a82a 3cbd 77f5 cfbe 72b9 3fbd be15 0dbe
00000340: ef03 01bd f697 04be a80b 02bf 3659 9a3d
00000350: 3e5d b8be c35b a7be e34a 0e3b 3910 16bf
00000360: c16e 46bf d73f 3cbf 00c8 56bd 8cf4 973c
00000370: 1a47 16bd d07d 29bf 86b8 d8be c016 b6be
00000380: a05e 0a3c a5b8 0b3e ef9d 573e 0364 d83b
00000390: ecd6 a5bc f7ac f43d c52a 863b f684 7cbd
000003a0: 44ce f73d dfff dc3d c24c f3bd ff8b 743d
000003b0: 1074 273e eb03 90bc 80e3 bf3d 5bd2 d7bd
000003c0: 0fd7 3b3d 97cd 833e f334 733e c97c 233c
000003d0: 4ced 133e a1a6 e2bd 0125 ec3c cad9 393e
000003e0: 0b2c 5abd 607c 7d3e c110 423d 639e 143e
000003f0: 5b48 b2bc ef64 ce3e 5422 e1bd b10c 023e

net.3.bias f4 [32]
0.1760937 0.12843709 -1.0016245 0.24314386 -1.1421509 0.3484411 0.4477704 0.20965748
0.23152772 0.050597627 0.44890198 0.24188888 -1.2663497 0.5919995 0.0042572008 0.34723046
-0.1848706 0.06868285 0.0421209 0.43806618 0.35174575 0.27408403 -0.03583353 0.41538444
0.29258186 0.49119857 0.87878615 0.5517104 0.24978809 -0.37147745 -0.20789622 0.21846427
00000000: e851 343e 0385 033e 3b35 80bf b4fa 783e
00000010: 0032 92bf df66 b23e 2942 e53e 73b0 563e
00000020: 9a15 6d3e 753f 4f3d 7bd6 e53e b8b1 773e
00000030: bf17 a2bf 478d 173f fd7f 8b3b 31c8 b13e
00000040: b84e 3dbe 98a9 8c3d f786 2c3d 364a e03e
00000050: 0518 b43e be54 8c3e 2ec6 12bd 45ad d43e
00000060: 4acd 953e 617e fb3e 21f8 603f e53c 0d3f
00000070: 73c8 7f3e 4b32 bebe bfe2 54be 19b5 5f3e

net.5.weight f4 [1, 32]
-0.16056402 -0.049370855 0.026155686 0.27306074 0.1297073 0.25120667 0.32100597 -0.03885992
0.4348988 -0.117696114 0.20142588 -0.06208104 0.05015604 -0.09428006 0.022096755 0.2906405
0.057779986 0.046856336 0.12874238 -0.055385586 0.46734652 0.3011459 -0.012618385 0.29140598
-0.0794747 0.5854117 -0.18002407 -0.0585291 -0.062195975 0.08863065 0.05980652 -0.09113192
00000000: e56a 24be 1839 4abd 7344 d63c 9ece 8b3e
00000010: fed1 043e 299e 803e e55a a43e 942b 1fbd
00000020: 0eab de3e a90a f1bd 9642 4e3e b048 7ebd
00000030: 6b70 4d3d e715 c1bd 4104 b53c d5ce 943e
00000040: b5aa 6c3d 6eec 3f3d 0bd5 033e ffdb 62bd
00000050: 0b48 ef3e cc2f 9a3e 58bd 4ebc 2a33 953e
00000060: a2c3 a2bd 8bdd 153f 3b58 38be 36bc 6fbd
00000070: 35c1 7ebd fc83 b53d aef7 743d 5fa3 babd
