TracksterFormation/Mixed/Circle/runs/hd128nl3cd128k24/best_model.pt (torch, 488162 bytes, 28 tensors)

lc_encode.0.weight f4 [32, 8]
000000 e1 8a 67 3e ae 00 a4 be 5c 29 d5 3c be b1 84 3e
       0.22611572 -0.3203177 0.026020698 0.25916857
000010 ee 79 98 be 27 2e 82 be 09 3a 40 be 07 66 98 bd
       -0.29780525 -0.25425836 -0.18772139 -0.07441335
000020 6b 1f c9 3d f9 e8 66 3e 70 c8 0e be b3 f0 df bd
       0.098204456 0.2254981 -0.13943648 -0.109345816
000030 cb 5c 56 be f7 8b ab bc e9 2e bf bc 8e c7 22 3e
       -0.20933835 -0.020940764 -0.023337798 0.15896437
000040 fa fa 50 be 54 fe e9 bb c3 c7 82 be 0d c6 ea 3d
       -0.2040824 -0.007140914 -0.2554303 0.114635564
000050 dc 95 5b 3e 8e 46 9e 3d 19 6a 7e 3e f0 64 9f be
       0.21443886 0.07728301 0.2484516 -0.31131697
000060 d8 5b 7f 3e 0c e6 90 be 0d 27 46 3e 7b 98 68 be
       0.2493738 -0.28300512 0.19350834 -0.22714417
000070 48 18 d8 3c 1f e2 d2 3d a0 72 50 bd a7 70 f6 bc
       0.026378766 0.102970354 -0.050890565 -0.030083014
000080 5b 5d ad 3e 5e b1 61 be 7b 73 1f be 30 99 42 be
       0.33860287 -0.22040316 -0.15571396 -0.19003749
000090 c8 cb 76 be 5d aa 65 3d f1 02 97 be 6b 29 43 bd
       -0.24101174 0.056070674 -0.29494432 -0.04764692
0000a0 21 f9 34 be 3a 92 52 be bf 2b b0 3e a1 1b f7 3d
       -0.1767316 -0.20563594 0.34408376 0.12065817
0000b0 aa 59 ad 3e d2 67 1b 3e 75 3f b0 3e e2 66 5f be
       0.3385747 0.15176323 0.34423414 -0.2181659
0000c0 22 22 5f be d3 3b f2 bd 74 30 8a be be 8e 1a 3e
       -0.21790364 -0.11827817 -0.26990092 0.15093514
0000d0 34 de 66 be dd 7e a5 3e 00 e8 83 be 87 2e 74 be
       -0.22545701 0.32323352 -0.2576294 -0.23845874
0000e0 49 6d 82 3e 1e 28 93 be ef 8f 87 bd cb b1 a9 3e
       0.25474003 -0.28741544 -0.0661925 0.33143458
0000f0 0b 47 a1 bd ce e7 18 bc 98 b3 7c 3e 24 c3 51 3e
       -0.078748785 -0.00933261 0.24677885 0.20484596
000100 3a 43 5e bd 12 86 39 bd b6 e9 99 be 96 1c e4 3d
       -0.05426333 -0.045293875 -0.3006112 0.11138265
000110 3c d9 43 3e 44 07 97 bc 21 ec e9 3d dc 41 9e 3e
       0.19125837 -0.018436082 0.11421991 0.30909622
000120 27 f3 60 3e 0b 8a 8e 3e c4 02 d9 3d ff bc ba bd
       0.21967755 0.27839693 0.105962306 -0.091180794
000130 25 fc 40 3e 9c ff 77 3e 08 e4 d1 bd 48 6c 4b 3e
       0.18846186 0.24218601 -0.10248572 0.19865525
000140 39 4b ae 3e 95 a9 60 3e aa 38 89 bd 11 cc fd bd
       0.34041765 0.2193969 -0.06700261 -0.12392438
000150 b4 7d 82 3e 96 82 10 bc 49 e4 ec ba 63 20 94 3e
       0.2548653 -0.008820197 -0.0018073405 0.2893096
000160 84 81 6b 3e 2b 24 f7 3c bc fd 27 be 90 81 39 3e
       0.22998625 0.030168613 -0.16405386 0.1811583
000170 7e c0 d0 3d 55 1c 8d be 37 15 4a 3e 22 4a 4d bc
       0.10192965 -0.27560678 0.19734655 -0.012529882
000180 95 94 31 be e6 44 65 be 2c 9f 5f be c0 75 0a be
       -0.17341836 -0.22389564 -0.21838063 -0.1352148
000190 91 70 48 be 35 30 a0 be 14 e7 b2 be 76 93 77 be
       -0.1957419 -0.3128678 -0.34941924 -0.24177346
0001a0 42 eb fd 3d 1d 93 9f 3e 7f e5 8e ba f4 1d 51 3e
       0.123983875 0.31166926 -0.0010902135 0.20421582
0001b0 68 bd 95 be 9f bf aa be 83 7c a7 be 4a c8 05 bd
       -0.29246068 -0.3334932 -0.32712182 -0.032661714
0001c0 f5 fc 88 be 3d 97 1e bd 70 9a 3e bc e9 de b8 be
       -0.2675549 -0.03871845 -0.0116335 -0.36107567
0001d0 4b f3 29 3e df c6 2e 3e 23 3a 91 be c4 86 fd bb
       0.16596715 0.17068051 -0.28364667 -0.0077370126
0001e0 22 7f 0e be a1 e2 48 3e 60 8a 32 be 0d 20 b2 be
       -0.13915685 0.19617702 -0.17435598 -0.34790078
0001f0 7b 20 95 3e 2d 28 85 be b4 fd 50 3e a7 e4 a4 bc
       0.29126343 -0.26007214 0.2040928 -0.020128561
000200 bd a1 7a be 88 ee 3c 3e da cc f5 3c db ed 7e be
       -0.24475761 0.18450367 0.030004907 -0.24895422
000210 e8 29 66 3e c8 87 22 3e b1 f9 a0 3e 33 ad fe 3d
       0.22476923 0.15872109 0.314405 0.12435379
000220 05 b8 3e bd 3c d0 b8 3d 13 fe aa bd f9 b9 85 bd
       -0.046562213 0.090240926 -0.08349242 -0.06529612
000230 62 32 95 3e 2e ec 48 3e d0 0b 26 3e 6e 94 1a be
       0.29140002 0.19621345 0.16215444 -0.15095684
000240 2e 4b bb bd e8 6f d9 3d 16 71 88 be 3e 4c a2 be
       -0.09145199 0.106170475 -0.26648778 -0.31698793
000250 6f 94 90 3e 23 2b ad 3d 6a 95 6b 3e f4 37 97 3e
       0.28238246 0.08455493 0.23006216 0.29534876
000260 41 49 f2 3d 65 2e 8c be a7 81 b0 3c 78 10 9f 3e
       0.11830378 -0.27379146 0.021546198 0.31067252
000270 e4 ca af bd f3 5c a1 be 25 d2 7e be 07 de 73 3e
       -0.0858362 -0.31516227 -0.24884851 0.23815165
000280 94 e5 3a bd 78 29 a9 3d fd 1a e4 bc 61 24 ad be
       -0.0456291 0.08259863 -0.0278449 -0.33816817
000290 79 28 2a bd 8b 44 70 3e b0 ad 99 3e 40 be ed bd
       -0.041542504 0.23463647 0.30015326 -0.11608553
0002a0 58 a9 35 be 60 78 fb bc 69 a2 95 be db 56 a9 bd
       -0.17740381 -0.030697048 -0.29225472 -0.082685195
0002b0 3d 92 65 be cb b9 95 3e db 80 77 bd dd 74 b1 3e
       -0.22419067 0.2924331 -0.06042562 0.34659472
0002c0 18 b7 82 be f1 35 0e be 82 e2 86 3e 63 4d 51 be
       -0.25530314 -0.13887765 0.26344687 -0.20439677
0002d0 77 c7 d4 3d 7b 41 d0 be b3 c9 d4 3d 8a e7 52 be
       0.103896074 -0.40674958 0.103900336 -0.20596138
0002e0 14 a3 85 be e3 81 9d 3e 18 8f 0b 3e 7f cd 81 3d
       -0.2610098 0.30763158 0.13628805 0.063380234
0002f0 31 3d 92 be 31 01 59 be 41 d3 70 bc 2b 12 a8 be
       -0.2856231 -0.2119186 -0.014698804 -0.3282636
000300 e1 1e 76 3e 1a 27 32 3e 5b 36 e9 bc 4e 2d 6e be
       0.24035217 0.17397729 -0.028468302 -0.2325947
000310 d2 90 3a 3e 5f fe 97 be 1e 07 cd bd 35 87 c8 bd
       0.18219307 -0.29686257 -0.10011123 -0.09791414
000320 a5 52 b4 be 1a fc 85 39 82 f2 b1 be e4 be c6 3b
       -0.35219303 0.00025555567 -0.3475533 0.0060652364
000330 bf b3 44 be f6 9e 76 bc cd 8a e4 bb 13 b1 6d be
       -0.19209193 -0.015052548 -0.006974554 -0.2321208
000340 ab f9 15 be 67 25 3e be 3a b2 5b bd f1 7d 8f 3e
       -0.14646022 -0.18568955 -0.053636767 0.28025773
000350 a6 b0 81 3e 22 4d 8b be 26 87 85 3e e6 42 82 3e
       0.25330085 -0.27207285 0.26079673 0.25441664
000360 10 64 b4 bc 01 42 82 3e 3b 26 89 bd dd 13 65 3e
       -0.02202037 0.25440982 -0.06696745 0.22370858
000370 c2 31 d6 3d 0b 64 13 be 34 ff e0 3d 6c 53 9e bd
       0.10458709 -0.14393632 0.10986176 -0.07730755
000380 cc 77 02 3e 44 52 b5 be d9 11 ba bb 79 70 3a bd
       0.12741011 -0.35414326 -0.005678397 -0.04551742
000390 8f 79 8e be b1 b3 55 bc 8e 5c 45 be da c2 98 3e
       -0.27827117 -0.01304333 -0.19273588 0.2983616
0003a0 15 bf ca bd c5 d8 99 bd 96 38 a9 be 3d a5 72 3e
       -0.09899727 -0.07512049 -0.33050984 0.23695846
0003b0 82 75 9b be 94 12 70 be a9 d6 0d be 04 6c bd 3d
       -0.3036309 -0.23444587 -0.13851418 0.09249118
0003c0 9d a7 10 3e 8c 4e fb 3d f5 c8 9f bc fb 44 79 be
       0.1412644 0.12270841 -0.019505003 -0.2434272
0003d0 8c 56 a9 bd 37 13 b6 be 09 87 0e be 7d 9f a4 3e
       -0.08268461 -0.35561535 -0.139187 0.3215293
0003e0 c7 20 90 be cf e9 41 be 1c 92 bf bc 09 90 16 be
       -0.28150007 -0.18936847 -0.0233851 -0.14703383
0003f0 c8 5b 9d 3e 4c 08 87 3d a5 73 fe bc cf a6 f0 bd
       0.30734086 0.065933794 -0.031061003 -0.11750566

lc_encode.0.bias f4 [32]
000000 4d 33 b5 3d 73 28 3c 3e 16 b8 e2 bd 93 6c 26 3d
       0.088476755 0.18374805 -0.11070268 0.04063089
000010 7f 55 76 bd 20 59 07 3e 7a d7 ac 3d 4b 97 9a be
       -0.06014013 0.13217592 0.084395364 -0.30193552
000020 31 e5 23 be bc 1c 72 bc 98 fa 8c 3d e9 fe 6a bd
       -0.16005398 -0.014777359 0.068837345 -0.057372008
000030 89 f0 ca 3d 59 2d 3d be 42 55 a3 be 5a 4f db bc
       0.0990916 -0.1847433 -0.31900984 -0.026771236
000040 77 6a 2d 3e ec 91 23 bd dd e7 be 3d 74 06 8d 3e
       0.16935144 -0.039934084 0.09321568 0.27543986
000050 f7 fa 2a bb 17 e0 1b 3e 76 ce 91 be 17 77 5f 3e
       -0.0026089528 0.15222202 -0.2847783 0.21822773
000060 67 99 15 be 53 5f db 3d 7e 69 16 3e f2 51 d6 bd
       -0.146093 0.10711541 0.1468868 -0.104648486
000070 0e d9 a0 be 1a 96 7e be a4 7f 92 3e 34 01 4f be
       -0.314156 -0.24861947 0.28613007 -0.20215303

lc_encode.2.weight f4 [128, 32]
000000 04 3f 29 be 82 cc 1d 3d f5 91 22 bc 5c 53 c7 3d
       -0.16527945 0.038525112 -0.009922494 0.097326964
000010 30 f4 28 bd 29 16 fa 3d db 29 2a bd ec f0 ee bd
       -0.0412485 0.12211258 -0.041543823 -0.11667046
000020 5c f4 18 3e 3b 33 d5 3d 39 fa 95 3d fe 21 73 bc
       0.14936966 0.10410162 0.07323117 -0.014839647
000030 48 8e 2d 3e 65 f8 20 3e 3e 80 29 b8 ae 2a 09 3e
       0.16948807 0.15719755 -4.0412175e-05 0.13395187
000040 13 69 12 3e ef 5c 12 3e 70 14 e7 3d b8 a2 6f bd
       0.14297895 0.14293264 0.11283195 -0.05850479
000050 91 3a 56 be f5 79 a7 bd cd 81 12 be 37 84 02 be
       -0.20920779 -0.08177558 -0.14307328 -0.12745748
000060 8d fb c3 3d 1b e8 2d bd 10 7e 26 3e f6 a8 cb 3a
       0.09569464 -0.04245768 0.16259027 0.0015538025
000070 5d b0 5b 3d f4 bd 0e 3e 93 69 e9 bd 51 c4 78 bc
       0.05363499 0.13939649 -0.1139709 -0.015183524
000080 ac dc 40 3d 2d e0 0a 3e 8b 9c ee 3d 4b 49 be bd
       0.04708545 0.13562079 0.11650952 -0.09291323
000090 2d e5 2b 3d fb 16 98 3d a6 aa 0d 3e 77 45 21 3e
       0.041966606 0.07426258 0.13834628 0.15749155
0000a0 a2 43 0f bd 5f 58 dc 3d 2f 12 d8 3c 56 fc fe bd
       -0.03497661 0.10759043 0.026375858 -0.12450473
0000b0 e5 c9 d9 bd 29 37 d4 bb 3e fd 24 3e b7 93 71 bd
       -0.106342115 -0.006476302 0.16112229 -0.058978762
0000c0 56 31 2b bd ac be bb bd 4b ad c3 3d d4 88 27 be
       -0.041795097 -0.09167227 0.095545374 -0.1636079
0000d0 70 a5 00 3e b4 2f a4 bc 5c b1 02 bd a1 a3 2b bd
       0.1256311 -0.020042278 -0.031907424 -0.041904096
0000e0 8f 6f 87 3d 42 17 46 3e 42 89 b4 bb a6 a3 13 3e
       0.06613075 0.1934481 -0.0055095265 0.14417896
0000f0 da 35 23 bd 6a 2d ee bc c9 ca 45 be 08 c6 01 3d
       -0.03984628 -0.02907439 -0.19315638 0.031682998
000100 90 0f 0b 3e e6 3a db bc 30 e2 c4 bd 2b 7d 25 be
       0.13580155 -0.026761483 -0.09613454 -0.16161029
000110 77 80 fb 3d 0c 94 c9 bc fa 2d b8 3d c0 06 34 be
       0.12280362 -0.024606727 0.08993144 -0.175807
000120 0e 51 14 3d 6a 7d bb bd 38 8b 84 3d d5 11 88 3c
       0.036210112 -0.0915478 0.06471866 0.016610065
000130 24 50 c7 3d f8 8e f7 3d 13 9a d7 bd c4 7e 20 3d
       0.097320825 0.12087816 -0.10527434 0.039183393
000140 ba 21 2e 3e f7 b8 3c bc ad 09 64 3c a0 a9 8e 3d
       0.17005053 -0.011518708 0.0139183225 0.06965947
000150 93 bd c6 3d 64 fe 05 3e 56 ee 1a 3d 6d ca 86 bc
       0.09704127 0.13085324 0.03782495 -0.016453946
000160 e5 57 81 3d 75 68 18 be f4 f4 01 be 9c 8e 94 3d
       0.06315593 -0.14883597 -0.12691098 0.07253763
000170 b4 d1 14 3e 2b 6b 85 bd e2 2b 6b bb db a8 02 3e
       0.1453312 -0.06514581 -0.003588431 0.12759726
000180 c7 05 fc 3d 6c f5 0a be 35 a1 46 bc ac 7f 0a 3e
       0.123057894 -0.13570184 -0.012123396 0.13525265
000190 15 78 49 bd f5 bd 71 3d 9e 82 2b 3d 7a 60 04 3e
       -0.049186785 0.059019048 0.041872613 0.12927428
0001a0 14 54 08 bd 43 38 28 be e8 5a 11 3e 13 dd e8 3d
       -0.03328331 -0.16427712 0.14194834 0.113702916
0001b0 1c e7 d2 3d d2 97 ae bb 2a fc 12 be 44 23 93 3d
       0.10297987 -0.005328157 -0.14354005 0.07184461
0001c0 2d fe ca bd e1 80 c6 3d 47 9d cd 3d d9 ef 6d bd
       -0.099117614 0.096925505 0.10039764 -0.058090065
0001d0 04 14 66 3d 91 b8 12 3c 68 ce 57 be 8e 82 8f bc
       0.056171432 0.008955137 -0.21074831 -0.017518308
0001e0 f7 c8 1f be 54 22 fe 3d e7 bc 8b 3d 5f 29 0c be
       -0.15604006 0.12408891 0.0682314 -0.13687657
0001f0 a8 51 13 3e db f0 4a 3d 79 11 43 3d aa 9a e7 3d
       0.14386618 0.049546104 0.047624085 0.11308797
000200 37 e4 33 3e 8f 29 a7 3d d1 e4 e6 3c 37 df 44 3d
       0.17567526 0.081622235 0.02818528 0.048064437
000210 f4 0b 98 3c 55 d1 b9 bd 83 22 0b 3e cc 47 c4 3c
       0.018560387 -0.0907313 0.13587384 0.023960017
000220 f7 51 32 3d 18 9c ce bd 81 fb 67 bd a3 ee 32 be
       0.0435352 -0.10088366 -0.056636337 -0.17473845
000230 37 c0 47 bc e6 55 35 3e eb 6b 80 3d 23 37 25 be
       -0.012191824 0.17708549 0.06270584 -0.16134314
000240 e3 59 ef bc 5d 52 df bb 19 4e 06 be 64 1c da bd
       -0.029217666 -0.0068152384 -0.1311573 -0.10649946
000250 1e 19 1a be 76 ff 96 bb 9d c8 b6 bd b0 78 ae bc
       -0.15048644 -0.00460809 -0.08924983 -0.021297783
000260 52 4b 7b 3d e6 cb b1 bd 19 e5 0d 3e 7f f1 c1 bd
       0.061351128 -0.08681469 0.13856925 -0.0946989
000270 d4 03 31 bd 26 26 eb bd 71 e0 c8 3d b4 0b 90 bc
       -0.04321654 -0.114818856 0.09808434 -0.017583705
000280 f4 2f 3f be 07 3d bc 3d 8f 97 f1 bd 01 51 1f bd
       -0.18670636 0.091913275 -0.11796486 -0.03889561
000290 24 4a c2 3d 8d cb f9 bc f8 8b 3d 3e f2 b0 92 bd
       0.094867975 -0.030492568 0.18510425 -0.07162656
0002a0 6c 11 d5 bd 05 90 80 3d e1 a4 f1 3d e3 24 1e 3e
       -0.104037136 0.062774695 0.11799026 0.15443759
0002b0 08 98 f4 3d 6c 71 8d bc 7a 6c 01 3d 9a a0 10 3e
       0.1194306 -0.017265998 0.031597592 0.14123765
0002c0 db 1c 00 3d 31 4c 7c bd 7f b6 0c 3e 87 e8 32 3d
       0.03127752 -0.0615961 0.13741492 0.043678787
0002d0 49 bc d7 bd c7 a0 b0 3c bf 4f 38 3d 21 6e 42 be
       -0.105339594 0.02156104 0.044997927 -0.18987323
0002e0 35 a3 15 bd fa b9 cc bd 53 62 b1 3d fa 60 95 bd
       -0.0365326 -0.0999641 0.08661332 -0.072938874
0002f0 61 8c ec 3d 52 da d8 bd 7b 65 28 3e 0e 77 0e 3e
       0.11550213 -0.10588516 0.16444962 0.13912603
000300 72 d9 f5 bc 4e 6b 16 bd 79 d1 a0 3d 8e dd 03 3c
       -0.030010913 -0.036723427 0.07852454 0.008048428
000310 ce 79 c8 3d 74 79 3a bd 62 d9 f9 bd 41 1d c0 bd
       0.097888574 -0.045525983 -0.121996656 -0.0938058
000320 cf 4f a5 bd 39 37 a8 3d a0 73 c8 3c 23 e4 07 3e
       -0.08071863 0.08213658 0.024469197 0.13270621
000330 b5 15 8b 3b 7a 74 15 3e 71 75 46 3d 41 1a e8 bd
       0.004244531 0.14595214 0.048451845 -0.113331325
000340 d2 00 3e be 89 0d 97 bc 3d b8 93 bd ba 8d 1b 3e
       -0.18555 -0.018439071 -0.07212875 0.15190783
000350 6a 84 e6 bd 13 c2 8c 3d d6 48 d0 3b eb ab 28 bd
       -0.11255725 0.06872954 0.006356339 -0.04117958
000360 4a fc 10 3e ef c2 59 bd 2c 00 99 bd 78 db 73 bd
       0.1415874 -0.05316442 -0.07470736 -0.059535474
000370 a3 7f 10 bd 49 26 96 3c f7 c2 2c 3e 0e be ed 3d
       -0.035277974 0.018328803 0.16871248 0.11608516
000380 45 5b 06 be 57 a9 74 bd be 0d 5c 3d 14 d6 0f be
       -0.13120754 -0.059731808 0.053724043 -0.14046508
000390 f7 e4 b5 bb e0 d9 19 bd f0 4b b2 bd 86 36 25 be
       -0.0055509764 -0.037561297 -0.0870589 -0.1613408
0003a0 81 14 6e bd 69 60 72 bd a0 8f 4a bd 57 2c f8 3c
       -0.058125023 -0.059173975 -0.049453378 0.03029458
0003b0 46 39 09 3d d9 02 dd bd 97 e3 82 3d fd 78 19 be
       0.033501886 -0.10791559 0.063910656 -0.1498756
0003c0 02 4f 0c bd ae 0c ae 3d 98 5c dc 3c 46 8f 97 3d
       -0.034255035 0.08498512 0.02689962 0.07400374
0003d0 c6 92 02 bd 4d 39 71 3c 5e f2 f8 bc 8d 2e c4 bd
       -0.031878255 0.014723134 -0.030389007 -0.09579191
0003e0 9f 28 23 be db a5 01 be 2d a2 27 bd 22 bf ee bd
       -0.15933464 -0.12660925 -0.040926147 -0.116575494
0003f0 37 50 54 bd 31 23 cd bd 32 14 09 3d 89 c0 40 bd
       -0.05183431 -0.10016478 0.033466525 -0.047058616

lc_encode.2.bias f4 [128]
000000 14 28 fd bd 94 32 11 be 63 7f ce bd df a2 fd bd
       -0.1236116 -0.1417945 -0.10082891 -0.12384581
000010 ec 7e da 3d 23 64 b5 3d f5 42 10 be ba d2 25 3e
       0.1066874 0.0885699 -0.14088042 0.16193667
000020 e9 9f 83 3b da 83 9f 3d 57 a0 f6 bd ee ad 01 3e
       0.0040168655 0.077888206 -0.12042301 0.12664005
000030 ef 5b 72 3d 3d c5 7c 3b 60 87 90 bd 34 57 fe bd
       0.059169706 0.0038569712 -0.07057071 -0.124189764
000040 41 95 da 3d 7a 0f a8 3d a1 77 b7 3d 6f e4 83 b9
       0.10672999 0.08206077 0.08958364 -0.00025156463
000050 04 11 ee 3d 77 43 23 be 25 11 02 3e b2 71 e6 bd
       0.11624339 -0.15943705 0.12701853 -0.112521544
000060 8c 3a d3 3d 04 c2 08 be 74 7f 9e bc 2c a3 97 3d
       0.10313901 -0.13355261 -0.019347884 0.074041694
000070 9a 26 ab 3c 00 f4 10 3e e4 84 9a bd ae a1 0a 3e
       0.02089243 0.14155579 -0.07544878 0.13538238
000080 b2 d1 2b 3e 12 ab 14 3e d0 30 ad bc bd 2d cb bb
       0.16779211 0.14518383 -0.02114144 -0.006200521
000090 f0 73 f2 bd 8b 02 85 bd 69 e9 1b bd d5 28 d7 bd
       -0.118385196 -0.06494626 -0.038064394 -0.10505835
0000a0 80 76 aa 3a d2 cd d0 bd 63 d2 58 3d ac a9 d3 3a
       0.0013005286 -0.10195507 0.052935015 0.0016148589
0000b0 9c 84 f1 3d c8 51 39 3e a6 31 60 3d 14 9e 20 3e
       0.11792871 0.18097603 0.05473485 0.15685302
0000c0 21 ec fc 3c ef 68 c5 3d 2d 7a 81 3d 12 cc 45 3e
       0.030874314 0.09639155 0.06322131 0.19316128
0000d0 3d ea e9 bd 2d 8f e1 bc 48 35 bf 3d 57 b1 c6 bd
       -0.114216305 -0.027534092 0.093363345 -0.09701794
0000e0 30 c2 17 3d ff ba de 3d 9c 8a 18 3e 86 70 3b 3d
       0.037050426 0.108755104 0.14896625 0.045761608
0000f0 23 f0 2e 3d 8c 6d d0 bd f4 5c b5 bd 80 3e 60 3d
       0.04270948 -0.101771444 -0.0885562 0.054747105
000100 d3 7e 2a 3e 7a 19 97 bd 4e 09 d2 3d d7 b2 9b 3d
       0.16649942 -0.07377906 0.10255681 0.0760247
000110 75 4d 4a bd e9 f2 24 be f2 04 cf 3d 39 03 37 be
       -0.049390275 -0.16108288 0.10108365 -0.17872323
000120 e0 07 cf bd 81 2c 5b 3c e8 77 10 be 4d d5 65 bd
       -0.10108924 0.01337731 -0.1410824 -0.056111623
000130 8a 5c 05 3e 98 0c 1d 3e 98 95 01 3e 9e eb b1 bd
       0.13023582 0.15336835 0.12654722 -0.086875185
000140 75 b8 ba bd 38 b4 8c 3d 03 dc 83 3d 06 2d 26 3d
       -0.09117214 0.068703115 0.06438448 0.04057028
000150 57 65 1d 3e 38 74 44 3d 02 36 bf 3d f4 12 ac 3d
       0.1537069 0.047962397 0.09336473 0.084020525
000160 52 5a 04 be f2 11 8b 3d cd 29 33 be 1e 5a f0 bd
       -0.1292508 0.06790532 -0.17496414 -0.117359385
000170 d4 83 0e be d2 0d ed bc 11 c5 6d 3d 18 e3 5d 3d
       -0.13917476 -0.028937254 0.058049265 0.05417165
000180 e6 7d 98 bd 8d 3d 22 be e4 9b 3a 3e 47 80 ce 3d
       -0.07445888 -0.15843792 0.1822353 0.10083061
000190 32 e7 10 bd 98 45 21 3d ed ad 05 3e 72 20 51 bd
       -0.035376735 0.03937301 0.13054629 -0.051056333
0001a0 76 52 d0 3d aa 7d fc 39 53 16 81 3d 7b 46 81 3d
       0.10171978 0.00048158813 0.06303086 0.06312271
0001b0 24 1c 9a 3d 95 fd 45 bd b9 1e f5 bd 87 9b 94 bd
       0.07524899 -0.048337538 -0.119687505 -0.07256227
0001c0 c8 52 30 bc d9 7e d5 bb c5 62 19 3d 21 c7 1d 3e
       -0.010761924 -0.0065153656 0.03744771 0.15407993
0001d0 cc 6d b2 3d 4c e3 4b bc e4 f1 d2 bd 33 6d c8 3c
       0.08712348 -0.0124443285 -0.10300043 0.024466133
0001e0 fa 9a 1f be c2 3a 08 3e a6 1e 27 3d ba 86 96 bd
       -0.15586463 0.13303664 0.040800713 -0.07349916
0001f0 06 14 22 3e a3 12 26 bd 63 c6 16 be bf d7 68 3d
       0.15827951 -0.040545117 -0.14724116 0.056846377

convs.0.nn.0.weight f4 [128, 256]
000000 28 b8 e4 bc 23 cc 0c 3d 49 86 26 bd fe 78 ad bc
       -0.027919844 0.034374367 -0.040655408 -0.021175858
000010 60 33 e8 3b bc ef cb 3a 17 84 55 3d 28 7f 64 bd
       0.0070862025 0.0015559117 0.052127924 -0.05578533
000020 60 e7 cb bb be 23 90 bc ee ef 45 3c f7 d9 f4 3c
       -0.0062226504 -0.017595168 0.0120811295 0.02988909
000030 9e d5 74 3d 0a 03 03 3d 74 23 04 3c ef bb 69 3c
       0.059774034 0.03198532 0.008065093 0.014265998
000040 33 bf 83 bd 0c 8a 89 3d bc 8c 20 3d 47 38 30 3d
       -0.06432953 0.067157835 0.039196715 0.04302242
000050 2a ce 9d bd 18 32 52 bc 3f 24 ee 3c 60 a4 22 bd
       -0.07705338 -0.012829326 0.029070018 -0.03970754
000060 42 35 aa bb f9 38 fd bc e6 98 08 bd c7 a8 82 3d
       -0.005194337 -0.030910956 -0.03334894 0.06379848
000070 8f f7 8d bc 46 31 a4 bd 2b e4 6b bd f9 12 f4 bb
       -0.01732996 -0.08017211 -0.057590645 -0.007448551
000080 46 aa 21 bd e1 a9 c7 3b bc ba 9c bd 06 8b 20 3d
       -0.039469026 0.006093249 -0.07652804 0.039195083
000090 66 8c 35 bd 94 16 3d 3d 03 51 a1 bb 5b 6b 8b 3d
       -0.044323348 0.04616411 -0.0049229874 0.06807586
0000a0 4f 01 c9 ba 6c 5b 46 bd be 2c 0f 3d b9 a8 f6 b9
       -0.0015335473 -0.04842703 0.03495478 -0.00047046485
0000b0 16 30 69 3b 0a a1 33 3d 8b 82 0b 3c c8 9d 7c 3d
       0.003558164 0.04385475 0.008515011 0.06167391
0000c0 85 98 ed 3b fc f1 d4 bc c3 55 83 bc a8 d1 18 3d
       0.0072508478 -0.025994293 -0.016032105 0.03730932
0000d0 b0 13 6a 3b 57 1c ca 3a a8 35 7f bd e7 30 2c bd
       0.00357173 0.0015419823 -0.06230703 -0.042038824
0000e0 c9 02 86 3d 9e 18 bc ba 3c e1 0a bd df a3 95 3d
       0.065435 -0.0014350598 -0.033906206 0.073066466
0000f0 74 9d 8a 3d cd c3 a8 3d 1c d8 81 3d 02 e0 17 bd
       0.06768313 0.08240471 0.06340048 -0.037078865
000100 7f 89 07 3d ed c1 1d bd ea 69 09 3c 88 a0 8b 3c
       0.03309011 -0.03851502 0.008387068 0.01704432
000110 ae 05 c6 3b 3e ec 54 3c f8 8c 6f bc 7c 5c 77 3d
       0.0060431575 0.012995778 -0.014621012 0.060390934
000120 61 8f 40 3d 1a 02 08 bd 62 e9 ca 3c a3 19 8e bc
       0.047011737 -0.03320513 0.024769489 -0.017346209
000130 f5 28 93 3d 06 24 91 bd bb c8 8a 3c ee ce 33 3c
       0.07185546 -0.07086949 0.016941419 0.010974629
000140 bb 0b 31 3d ee 6e 8e bc e9 28 be bc a5 0f 36 3d
       0.043224078 -0.01738688 -0.023212867 0.044448514
000150 05 92 ae 3b f9 3d df 3c 94 73 1b bb 32 b6 5d bd
       0.0053274655 0.02725123 -0.0023720013 -0.054128833
000160 a5 6d ae bb c4 03 71 3d b4 eb 54 bc 77 b7 a3 bd
       -0.0053231292 0.05884148 -0.012995649 -0.079939775
000170 e8 18 aa 3c 03 f3 a9 bc 77 61 57 3d 73 50 9a bd
       0.02076383 -0.02074576 0.052583184 -0.07534876
000180 20 15 a5 3c cc 15 e9 3c 72 11 82 3d a8 c2 64 bd
       0.020151675 0.028452776 0.06350984 -0.0558497
000190 66 05 8b 3d 2d a8 a5 3c 9b 73 4c 3c 43 46 04 bc
       0.06788139 0.020221794 0.012478734 -0.008073392
0001a0 f5 97 19 bd 1f 5b fc bc 89 4f 01 3d a1 30 3b 3d
       -0.037498433 -0.030805169 0.03156999 0.045700673
0001b0 6d 63 1e 3d 4f 69 8c 3d 22 bc 4c 3c c7 9b d9 bc
       0.03866904 0.068560235 0.012496026 -0.026563538
0001c0 97 5d 91 bd 0e e9 17 3b 4e 1d 3f 3d ad 20 b1 bb
       -0.07097929 0.0023179683 0.046658807 -0.0054055066
0001d0 a6 24 4d bb 53 55 13 3d dc 40 6c bc 70 6d 04 bd
       -0.0031302362 0.035970043 -0.014419761 -0.03233093
0001e0 4b 6e cc 3c a8 8b 66 bc 69 5f 8b bd 51 5a 86 3d
       0.024954936 -0.014071383 -0.068053074 0.06560195
0001f0 40 ef ad bb b0 cf 1c 3d 75 16 e5 bc 76 4b 7e 3d
       -0.005308062 0.038284004 -0.02796481 0.062083684
000200 aa fc e9 3c f9 78 e0 bc 3e c8 32 bd 99 86 1c bd
       0.028562862 -0.027401434 -0.043647997 -0.0382143
000210 b4 68 be bc 27 11 5e 3d 69 32 b8 3b 5f 36 f0 b9
       -0.023243286 0.054215576 0.0056212437 -0.00045816877
000220 69 79 1b 3c 25 30 4f bc c8 b3 e9 3c e4 b4 40 3d
       0.009489396 -0.012645756 0.02852811 0.04704751
000230 8e b3 85 3d 6f ca 89 bc 96 f9 36 bd b9 6f 5a 3d
       0.06528388 -0.01682016 -0.044671617 0.053329203
000240 22 c6 93 3c cf c3 30 b9 f6 7e 95 bd 2f 6c 00 3a
       0.018038813 -0.00016857612 -0.072996065 0.0004898933
000250 8f a2 d8 bb fc bd f6 3c 32 2c e6 3c 2a fe 15 bd
       -0.0066111754 0.030119888 0.028097246 -0.036619343
000260 14 e5 cd 3b e8 02 46 bc 65 72 b9 bc bb 86 b6 bd
       0.0062834118 -0.012085654 -0.022637555 -0.089124165
000270 7a db 58 bd 3e 70 c9 3c cf 6a 21 bd 01 70 af bd
       -0.052943684 0.024589654 -0.0394085 -0.08566285
000280 65 50 6e 3d 77 7e 9b 3c aa 4c 72 3c 64 8b 70 bc
       0.05818214 0.018981202 0.014788786 -0.014681671
000290 bc fc 16 3c 3c 31 f0 b8 59 02 c9 3d 31 d6 0d 3d
       0.00921553 -0.000114532624 0.09814901 0.034628097
0002a0 a5 67 56 3d a8 73 37 3d 0e 9c 68 3d 0f 3c ee 3c
       0.052344937 0.044788033 0.05678945 0.029081373
0002b0 07 c7 85 bc 9b cd 08 39 e7 6d 53 3d 45 ca e6 bc
       -0.016330255 0.00013046565 0.051618483 -0.028172622
0002c0 6d 5f 97 3d e9 56 3e bd 66 b0 78 bd 71 fe e6 3c
       0.07391248 -0.046469603 -0.0607151 0.028197499
0002d0 02 4e 30 3d 50 5f 1d bd 2b a8 5c 3b a4 f7 e6 3a
       0.043043144 -0.038420975 0.0033669572 0.001762141
0002e0 f6 8a 03 ba 84 9e 63 3d df ac a0 3d 09 f7 35 bd
       -0.000501796 0.055571094 0.078454725 -0.044425044
0002f0 f8 7c af 3b ea 39 1c 3d 13 71 87 b9 2f 20 6d 3d
       0.0053554736 0.03814117 -0.00025833453 0.05789202
000300 6c c4 00 3c 29 9d 50 bd f9 c2 ad bd 61 bd 6f bb
       0.007859331 -0.05093113 -0.08484454 -0.0036581384
000310 83 4f a8 3c ec 5b 0c 3c 93 43 9c 3b 08 9c e6 bb
       0.020545727 0.008566838 0.0047687977 -0.0070376433
000320 1c a0 4d bd 58 e9 c7 3c 59 30 b7 3c 40 7b c2 3c
       -0.05020152 0.02440326 0.022361921 0.02374041
000330 69 f0 bc 3c 51 f1 fd bc 7d 75 fa 3b d2 3c 86 bc
       0.023063855 -0.030998858 0.0076434 -0.016386423
000340 c6 50 6a bd f5 9f 91 bd f6 db 35 bd 86 52 bb 3c
       -0.057205938 -0.071105875 -0.044399224 0.022866499
000350 3a 5d 11 3d 18 53 52 bd 2b c5 b2 3c 77 27 ba b9
       0.0354893 -0.051348776 0.021822533 -0.00035506088
000360 f9 cc 7e 3d 1c 97 86 bd 7e 94 e5 bc f8 08 7f 3d
       0.062207196 -0.065717906 -0.028024908 0.062264413
000370 e0 5d 2a 3d 49 15 65 bc 0f 71 13 bd d7 74 29 3c
       0.041593432 -0.013982126 -0.035996493 0.010342798
000380 bd 03 aa bc 50 dd 77 3c ab 7c a8 bc bd e3 c3 3c
       -0.020753736 0.015128449 -0.020567259 0.023912305
000390 39 65 96 bc c9 5b 21 bd c0 d4 16 3c 66 fc db 3c
       -0.018358814 -0.039394174 0.009205997 0.026853751
0003a0 54 b4 85 bc 97 e2 15 3d be 8a fc 3c a0 31 59 bd
       -0.016321339 0.036593046 0.030827876 -0.05302584
0003b0 1f 1e 8d 3b c2 1a 24 3c 14 66 ac bc 06 65 71 bc
       0.004306569 0.010016145 -0.021044768 -0.0147335585
0003c0 03 9b 97 bc 73 27 23 3c ad b4 c5 ba 95 9c ba 3b
       -0.018506533 0.009958136 -0.0015083753 0.0056949356
0003d0 86 e4 df 3c 8e b3 d4 3c d5 31 05 bb 0d a4 5b bd
       0.027330648 0.025964525 -0.0020323892 -0.053623248
0003e0 50 4c bb 3c b0 e9 83 bc 3e 73 50 bd 36 c4 b3 bc
       0.022863537 -0.016102642 -0.050891154 -0.021944147
0003f0 52 81 49 bd 5d ad ab bc 17 1b 73 3d 4b 94 24 3d
       -0.049195595 -0.02095669 0.059352007 0.040180486

convs.0.nn.0.bias f4 [128]
000000 a0 24 81 3d b7 4c cb 3c e4 a2 01 3c 7c 63 6d 3d
       0.06305814 0.024816854 0.007912371 0.057956204
000010 73 56 81 3d ec 26 34 bd ff ea ef 3c 61 4c b7 3c
       0.06315317 -0.04398243 0.02928686 0.022375287
000020 cc 47 e3 bb be f3 dd 3b 67 28 ad 3b 73 c0 4a bd
       -0.006936049 0.006773441 0.0052843574 -0.04949994
000030 b4 4d 6a 3c fe 93 18 3d 44 9b 73 3c 76 e8 d9 3c
       0.014300752 0.03725051 0.014868561 0.026600104
000040 74 1d 70 3d e1 2f 69 3d 42 e1 83 3b f7 b2 0e 3d
       0.05862184 0.056930427 0.0040246556 0.034838643
000050 9c 61 51 3d 42 36 4e 3c be cd 8d 3d 9a 1e 07 bd
       0.05111848 0.012586178 0.06924008 -0.03298817
000060 e9 0b b9 bc e6 5f 19 3d 1c ef 89 3d 86 87 12 3c
       -0.022588687 0.03744497 0.067350596 0.008943444
000070 aa 4a a4 3b ae 94 0c 3d ce a0 a3 3c 1f 41 80 3b
       0.0050137835 0.03432148 0.019974139 0.003914013
000080 e6 02 10 ba e8 37 3c 3d 32 75 73 bd 75 54 0d 3d
       -0.0005493596 0.045951754 -0.059437938 0.034504373
000090 bc 0a 81 bc 2e c0 44 3c 51 14 7b 3b cc cf 35 bc
       -0.015752189 0.01200871 0.003831167 -0.011096906
0000a0 73 0f af 3b 7e 70 c2 bc de 95 97 bd dd ac 75 bc
       0.005342418 -0.023735281 -0.07401632 -0.014994827
0000b0 e1 10 b1 3d 98 75 a2 3c 18 4e 2f bd ef fb 2b 3d
       0.086457975 0.019831464 -0.042799085 0.04198831
0000c0 22 e9 fe bc f6 32 81 3c 04 5c 01 bd e9 1b be bb
       -0.031117026 0.01577137 -0.031581894 -0.005801667
0000d0 eb fe b9 3b 60 af f1 bb 60 c1 8f bd 3c f1 04 bd
       0.0056761405 -0.0073756427 -0.07019305 -0.03245662
0000e0 9b cc 85 3c d9 49 b7 bc 35 14 80 bd b7 06 50 3d
       0.016332915 -0.02237408 -0.06253854 0.050787654
0000f0 45 f6 e2 3c e3 8d 10 bd e1 c6 12 bc d5 91 5c bd
       0.027705321 -0.035291564 -0.008958549 -0.053850014
000100 d4 78 35 3d 05 e7 f0 bc df 57 67 3b e1 fc 5a 3d
       0.044304684 -0.029407034 0.0035300178 0.05346382
000110 5c 4f 46 bd e2 46 98 bb 28 d2 89 bc b1 ad fc 3a
       -0.048415527 -0.0046471218 -0.016823843 0.0019277838
000120 b0 05 31 3c 6e 96 45 3d f6 04 4f bd da a5 48 3b
       0.010804579 0.048239164 -0.05054184 0.0030616433
000130 84 b7 c5 bb 71 7e 68 3c f0 d0 f8 bc 00 44 1c bd
       -0.0060338397 0.014190302 -0.030373067 -0.038150787
000140 7f 6e 72 bb d2 18 55 bd 60 ce 5b 3d b4 84 1a 3d
       -0.003699213 -0.052025624 0.05366361 0.03772421
000150 a9 4b 74 3d b5 e4 30 bd c5 c7 b4 bc 80 ad 12 bd
       0.059642468 -0.043186862 -0.022067914 -0.035809994
000160 11 fd 3e bc 29 97 aa bd 3a aa 3b bd d8 1f 8c bc
       -0.011657015 -0.08329613 -0.045816638 -0.017105028
000170 d1 09 8f 3d 44 8a e3 3c 73 d7 85 bd 03 1d 78 bc
       0.06984294 0.027775891 -0.06535234 -0.015143636
000180 1f 47 69 bb 62 0e a3 bb 0a 62 9e 3c 4a 97 6c 3d
       -0.003559537 -0.00497608 0.019333858 0.057761468
000190 6d cd f2 bc a2 ae 6f bd ce b0 74 3d fa 8b ae bc
       -0.02963897 -0.058516152 0.059738927 -0.02130698
0001a0 a6 72 37 bc 61 fd ba 3c d4 30 27 bb c6 e5 50 3d
       -0.011196768 0.022825899 -0.0025511282 0.05100038
0001b0 79 72 8c bd 01 ab 75 3d 75 2f 8a bc d3 34 66 bd
       -0.068577714 0.059977535 -0.016868332 -0.05620272
0001c0 6b 0f 80 3d c2 1f 3e 3c 39 45 81 3d b7 75 48 3d
       0.06252941 0.011604251 0.06312031 0.048940387
0001d0 c6 e4 dd 3c 2d 07 68 bc 03 2e 8b 3d 87 a5 2d 3d
       0.027086627 -0.014161867 0.067958854 0.042394187
0001e0 7f 0b 30 3d 52 bd 48 3c 6d 19 59 bd 83 30 60 bd
       0.042979714 0.012252169 -0.053002764 -0.054733764
0001f0 15 1f b9 3c b6 f3 d9 3b 16 42 02 3d 60 a1 1c 3d
       0.022597829 0.006651367 0.031801306 0.038239837

convs.0.nn.2.weight f4 [128]
000000 1f 07 7e 3f 5d ae 81 3f cb a0 7c 3f b4 31 7f 3f
       0.99229616 1.0131336 0.9868285 0.99685216
000010 61 1f 81 3f a9 a1 82 3f 82 69 80 3f d8 42 84 3f
       1.0087701 1.0205585 1.0032198 1.0332899
000020 c4 30 79 3f a1 b8 7b 3f e1 ba 81 3f 0f a7 7f 3f
       0.97340035 0.98328596 1.0135156 0.99864286
000030 06 1b 83 3f ac ca 7b 3f 56 4a 7f 3f 58 e9 80 3f
       1.0242622 0.9835613 0.997228 1.0071211
000040 6e e2 7d 3f 3b 5e 80 3f f4 c8 80 3f b5 71 7a 3f
       0.9917363 1.0028757 1.0061326 0.97829753
000050 f3 0d 86 3f 36 12 80 3f 1c c4 82 3f cb ae 7c 3f
       1.0473007 1.0005558 1.0216098 0.9870421
000060 1e 37 7e 3f b7 98 82 3f bf 2d 7a 3f 3a 3a 83 3f
       0.9930285 1.0202855 0.97726053 1.0252144
000070 74 d4 80 3f eb f4 7a 3f 3c 3e 7e 3f fd 1b 78 3f
       1.0064836 0.98029965 0.9931371 0.96917707
000080 78 9e 78 3f da ea 81 3f 9f 3a 8a 3f 52 fa 82 3f
       0.97116804 1.0149796 1.079914 1.0232642
000090 94 04 80 3f 12 d6 80 3f d3 f2 7e 3f 9b 6a 82 3f
       1.0001397 1.0065329 0.9958927 1.0188783
0000a0 63 f4 78 3f 56 2c 80 3f 14 77 87 3f de 79 83 3f
       0.97247905 1.001353 1.0583215 1.0271566
0000b0 f8 e7 7b 3f 07 6d 7f 3f f2 42 7b 3f 17 83 7d 3f
       0.9840083 0.9977574 0.98149025 0.9902815
0000c0 6f 83 7b 3f 43 03 84 3f ab 4d 81 3f 19 70 7a 3f
       0.98247427 1.0313495 1.0101827 0.978273
0000d0 84 ea 82 3f c6 22 83 3f b1 a6 7d 3f 05 37 84 3f
       1.0227818 1.0244987 0.99082476 1.0329291
0000e0 30 34 80 3f 27 64 80 3f ea be 82 3f 92 b2 82 3f
       1.0015926 1.0030564 1.0214512 1.0210745
0000f0 01 e2 80 3f ac 6e 82 3f a9 ff 84 3f 88 ca 81 3f
       1.0068971 1.0190024 1.0390521 1.0139933
000100 09 46 82 3f a3 9d 86 3f 10 dc 7e 3f 92 11 7f 3f
       1.0177623 1.0516857 0.9955454 0.99636185
000110 39 b9 7c 3f 3f 09 7e 3f 9d 9e 81 3f d5 3b 80 3f
       0.9872013 0.9923286 1.012653 1.0018259
000120 fa 11 7b 3f 88 e5 86 3f 5f 00 77 3f 94 b0 81 3f
       0.98074305 1.0538797 0.9648494 1.0132012
000130 55 e8 7d 3f 2e b5 83 3f 81 3c 7f 3f 56 b6 7d 3f
       0.99182636 1.0289667 0.99701697 0.9910635
000140 7d 7f 8a 3f 20 0f 81 3f 87 5d 80 3f b0 09 80 3f
       1.0820156 1.0082741 1.0028542 1.0002956
000150 bb c0 7b 3f 32 76 80 3f cf ef 80 3f ac b0 7a 3f
       0.9834096 1.003607 1.0073184 0.9792583
000160 66 bb 7c 3f c5 3d 7f 3f 70 63 79 3f 5c f9 87 3f
       0.9872345 0.9970363 0.97417355 1.0622973
000170 fd f1 84 3f 8f 22 7b 3f f7 95 81 3f 86 93 76 3f
       1.0386349 0.9809961 1.0123891 0.9631885
000180 19 1d 7b 3f ed 2f 80 3f 07 51 80 3f a5 a4 78 3f
       0.98091274 1.0014626 1.0024728 0.9712623
000190 1b c4 82 3f c8 b3 86 3f 11 83 78 3f 5b b6 80 3f
       1.0216097 1.0523615 0.9707499 1.005565
0001a0 66 c5 79 3f ab ed 7d 3f b0 92 81 3f 5e e7 81 3f
       0.9756683 0.9919078 1.012289 1.0148733
0001b0 89 78 83 3f be f5 75 3f d1 d6 77 3f 49 4f 7f 3f
       1.027116 0.960781 0.9681216 0.99730355
0001c0 23 d5 80 3f 30 6e 80 3f e4 1d 81 3f 57 7f 84 3f
       1.0065044 1.0033627 1.0087247 1.0351361
0001d0 9f 8a 7c 3f f7 6b 80 3f fb 23 77 3f 90 48 84 3f
       0.9864902 1.0032948 0.96539277 1.0334644
0001e0 cc 65 82 3f 0e f7 79 3f 25 e7 87 3f 3e d3 83 3f
       1.0187316 0.976426 1.0617415 1.0298841
0001f0 c8 b9 80 3f 8b f2 80 3f 3e 3c 7e 3f 26 cb 7b 3f
       1.0056696 1.0074018 0.9931067 0.98356855

convs.0.nn.2.bias f4 [128]
000000 83 fb 54 3b 1d d6 87 3b ae 6f 91 bc b0 9a e0 3c
       0.0032498545 0.0041453973 -0.017753448 0.02741751
000010 83 ef ea 3c 55 93 a2 bc 0a 9e 14 bb ee c7 4f 3c
       0.028678661 -0.019845644 -0.0022677206 0.012681944
000020 2b fe 6b ba 5f b3 82 3b 15 82 a2 3c 74 3c 46 bc
       -0.00090024126 0.003988668 0.019837419 -0.012099374
000030 6b ee 6e 3c da da e9 bb b6 5c c7 bc b1 49 e9 bb
       0.01458321 -0.007136685 -0.0243362 -0.0071193804
000040 60 d0 9d 3c d1 cf 2c 3b 73 6c 5e bc 8b c6 a0 bc
       0.0192644 0.0026368985 -0.013575661 -0.019625923
000050 46 00 db 3c b4 3b 6e 3c 6e 38 06 bc e1 20 8b 3b
       0.026733529 0.0145406015 -0.008192165 0.004245863
000060 0d ba 9b 3c 4f 8f 01 3c fd 0c 4b bc bd 28 9e ba
       0.019009614 0.007907703 -0.012393233 -0.0012066584
000070 c6 8c 14 bc 02 54 2c 3c 07 05 bd bc 04 a3 a3 3c
       -0.009066766 0.010518076 -0.023073686 0.019975193
000080 79 62 b4 bc 80 b9 02 3c c8 2f 81 3d 16 ed eb 3b
       -0.022019612 0.007978797 0.06307942 0.0071998937
000090 7f 4f 98 bc c2 01 d0 bb 30 b9 b9 bc 23 fd aa 3c
       -0.018592594 -0.006347866 -0.022671312 0.020872658
0000a0 bc 19 0e 3b bc 12 59 bc 14 89 48 3d 6f 4e 25 3c
       0.002168282 -0.0132490955 0.048958853 0.010089501
0000b0 b9 80 91 3b 01 e8 a1 3c f3 db d6 bc 72 85 48 3c
       0.0044403938 0.019763948 -0.026227927 0.012238847
0000c0 47 5b 32 bc f2 dc 16 bc ba a0 28 3c d1 56 71 bc
       -0.01088602 -0.009207951 0.010292226 -0.014730171
0000d0 72 4b 3d bc 09 3d 01 3d d5 a5 5a 3c 66 54 5e 3d
       -0.011553632 0.03155235 0.0133452015 0.054279707
0000e0 19 b0 c8 bc 6d dd 9b ba 39 68 bd 3b 70 14 bc 3c
       -0.024498032 -0.0011891552 0.0057802466 0.022958964
0000f0 71 a5 5a 3c 15 f2 42 3b 2b cd c3 3b 6d 7c 46 bc
       0.013345108 0.0029746343 0.0059753857 -0.012114626
000100 d8 f9 91 bc b1 94 eb 3c 5b dc cd bb 39 80 50 bc
       -0.01781933 0.028757425 -0.006282372 -0.012725883
000110 cc a2 da 3b 67 59 60 3c 87 f8 19 bb 43 05 8b bc
       0.006672239 0.01369319 -0.002349408 -0.016970282
000120 4a da 87 bb ac a6 68 3c 1e 7f bf bb b5 c3 7d 3c
       -0.004145895 0.014199894 -0.005844011 0.015488555
000130 21 e7 a5 bc 8f b7 16 bc a6 27 72 bc ed bb 1a 3c
       -0.020251812 -0.009199037 -0.014779961 0.009444219
000140 04 2f e8 3c 3a c3 de ba 86 ef 5b 3b 91 69 67 ba
       0.028342731 -0.0016995438 0.0033559515 -0.00088276813
000150 f1 24 9b bc 4a 36 6e 3c bb cf 9e bc e6 21 15 3c
       -0.018938513 0.014539311 -0.019386163 0.00910232
000160 ff b1 ba 3b eb 18 6a bb 5f 0c 89 bc 39 c2 7f 3d
       0.0056974883 -0.0035720419 -0.016729532 0.062441085
000170 ee ed f5 3c c7 12 82 bc a4 f5 06 3c f9 01 0b 3b
       0.03002068 -0.015878094 0.008237276 0.0021210893
000180 d0 f5 ca ba 32 03 16 bc bd ae 1f bc 57 be 6a bb
       -0.0015484635 -0.009156035 -0.009746251 -0.0035819018
000190 47 12 52 bc 95 8b 94 3d b0 dc 54 ba 82 13 b2 3a
       -0.0128217405 0.07253186 -0.0008120043 0.0013586136
0001a0 48 2e cf bc 85 b8 18 3d cb 92 e8 3c 91 d5 fa 3b
       -0.025290623 0.037285347 0.028390309 0.0076548536
0001b0 e9 86 66 3c d1 bc eb bc df 73 9b bc 5b 36 60 3b
       0.014070251 -0.028776558 -0.01897615 0.0034212086
0001c0 61 32 0f 3d 53 e2 f4 3a 57 e6 64 3c 68 bb 27 3b
       0.034960154 0.0018683173 0.013970933 0.002559388
0001d0 26 17 31 bb 6a b9 26 bc 72 c9 65 bc 8e 27 08 3d
       -0.0027021854 -0.010176042 -0.014025079 0.033240847
0001e0 c6 a9 df 3a 57 99 f6 bb 26 c2 86 3d ee 63 1e 3d
       0.0017064146 -0.0075256038 0.065799996 0.03866952
0001f0 9c 34 88 3c b5 42 01 3d ed 62 73 bc 40 5b a0 bb
       0.016626649 0.031557757 -0.014855129 -0.0048936903

convs.0.nn.2.running_mean f4 [128]
000000 2c ef f7 41 d5 93 8b 41 e3 5e 18 41 74 00 ad 40
       30.991783 17.447184 9.523166 5.4063053
000010 bd e0 74 41 a3 a3 86 41 8d 4f f2 40 48 49 77 3f
       15.304868 16.8299 7.572211 0.96596193
000020 fc ff 7f bf 0a 25 98 41 fd e5 d6 3e fc ff 7f bf
       -0.99999976 19.018085 0.41972342 -0.99999976
000030 4e ce 7f bf cf 82 98 40 21 d7 ce 40 a5 eb 7f bf
       -0.9992417 4.765968 6.463761 -0.9996894
000040 89 d5 48 41 ea f7 7f bf ed d8 1a 41 72 8f 9c 41
       12.552133 -0.9998766 9.67796 19.570042
000050 a1 d0 ac 41 4d b2 7f bf 56 9b 85 41 f5 f5 e2 be
       21.60187 -0.9988144 16.700848 -0.44328275
000060 fe 6b 1a bd b7 fd 7f bf 4f ff 7f bf 2a bd d6 40
       -0.037700646 -0.99996513 -0.99998945 6.7105913
000070 d6 fb 09 42 6a fe 7f bf fc ff 7f bf aa ef 11 40
       34.495934 -0.9999758 -0.99999976 2.280253
000080 79 ba 04 41 c6 9e c2 41 cc 66 98 41 56 f6 7f bf
       8.295526 24.327526 19.050194 -0.99985254
000090 95 57 7b 41 4f 26 a8 41 8f 21 a2 41 f0 64 1c 41
       15.708882 21.018705 20.266386 9.774643
0000a0 96 e9 95 41 0f 9f 1d 41 81 bd 89 41 84 7f b7 41
       18.739056 9.851333 17.217531 22.937263
0000b0 6a 37 bb 41 fc ff 7f bf fc ff 7f bf 33 29 7f bf
       23.402058 -0.99999976 -0.99999976 -0.9967224
0000c0 fc ff 7f bf 9d de ee 41 8f 22 5d 3f b5 4d 06 41
       -0.99999976 29.858698 0.8638086 8.393971
0000d0 c6 f4 61 41 1a 79 8d 40 fc ff 7f bf f4 00 35 41
       14.122259 4.421033 -0.99999976 11.312733
0000e0 04 26 b5 41 f3 9e 21 41 a2 ad 1e 41 c8 6e 7d be
       22.643562 10.101306 9.917391 -0.24749291
0000f0 07 28 7f 3f f3 31 00 40 99 01 9c 41 05 5d 21 41
       0.9967045 2.0030487 19.50078 10.08521
000100 fa 3f 74 41 cd c2 47 41 96 44 cb 41 d6 c9 2e bf
       15.265619 12.485059 25.40849 -0.6827673
000110 db 95 f3 be 1a 59 7d bf ee a8 39 bf 3b 69 3e 41
       -0.47575268 -0.98964083 -0.7252339 11.900691
000120 fc ff 7f bf b7 a8 89 40 a6 ff 7f bf a3 d6 ab 40
       -0.99999976 4.301845 -0.99999464 5.369951
000130 39 ff 7f bf 07 c4 aa 41 30 f9 7f bf fc ff 7f bf
       -0.99998814 21.345716 -0.99989605 -0.99999976
000140 c8 7a 86 41 1b 5d 5d bf 4e fc 7f bf fc ff 7f bf
       16.809952 -0.8647019 -0.9999436 -0.99999976
000150 08 c6 45 41 e1 fd 7f bf 3e 94 93 41 b6 29 7d bf
       12.360847 -0.99996763 18.447384 -0.9889177
000160 3d 7b 7f bf fc ff 7f bf 44 d0 67 41 39 13 9e 40
       -0.9979742 -0.99999976 14.488346 4.9398465
000170 56 9d 9b 41 a6 9d 5b 41 cf f7 7f bf d7 e6 8d 41
       19.451824 13.725988 -0.999875 17.737715
000180 1c c3 52 40 fc ff 7f bf fc ff 7f bf 44 8e 2a bf
       3.2931585 -0.99999976 -0.99999976 -0.6662333
000190 a8 7d 8c 41 6a 66 0a 41 69 36 a2 41 17 90 28 41
       17.561356 8.650003 20.276567 10.535178
0001a0 fc ff 7f bf fc ff 7f bf b3 e5 ac 40 42 94 15 bf
       -0.99999976 -0.99999976 5.4030395 -0.5842935
0001b0 85 fd 7f bf 01 5e 18 40 af 04 00 40 ab 40 7d bf
       -0.99996215 2.3807375 2.0002859 -0.989268
0001c0 bd 9a 7e bf 74 e4 7f bf 46 dc b1 41 c6 53 77 41
       -0.9945486 -0.99957967 22.232555 15.4579525
0001d0 fc ff 7f bf b5 b5 f1 3f 9d 37 25 41 8b 05 c6 40
       -0.99999976 1.8883578 10.326077 6.1881766
0001e0 fc ff 7f bf 07 e7 34 41 6b eb 0e 41 cb 86 ad 40
       -0.99999976 11.306403 8.932475 5.422704
0001f0 fe 00 dc 40 fd 04 67 41 4b a2 48 bf 7f 0f dc 40
       6.875121 14.438718 -0.7837264 6.8768916

convs.0.nn.2.running_var f4 [128]
000000 b9 f5 49 41 a7 ab 27 40 a2 30 10 41 2b f1 8d 40
       12.622491 2.6198518 9.011873 4.4356894
000010 46 9f d3 40 aa 7f a4 40 66 f6 6c 40 39 95 a5 40
       6.6131926 5.140584 3.702539 5.1744657
000020 e8 24 27 27 0e d0 0e 41 2d 40 30 40 ab a4 2f 27
       2.3195913e-15 8.925795 2.753917 2.4375395e-15
000030 0c 7a d9 37 7a 3a 91 40 1d e2 34 41 f9 c7 84 3e
       2.5925248e-05 4.5383883 11.305203 0.25933817
000040 5e 89 b6 40 39 de 89 34 23 52 a5 40 69 24 d0 40
       5.7042685 2.5679927e-07 5.1662765 6.5044446
000050 de 81 e3 40 fc 78 9f 3f 66 5d 96 40 ea d3 93 3f
       7.109603 1.2458797 4.698901 1.1549046
000060 40 f3 a8 3f 46 92 30 3b b7 b1 e9 32 19 e9 90 41
       1.3199234 0.0026942655 2.7205585e-08 18.113817
000070 4c 8e 75 41 b6 ee f7 3b 17 33 12 37 9d 37 bf 40
       15.34724 0.0075662984 8.714173e-06 5.9755387
000080 ec a9 8c 40 1c 88 06 41 bb 92 9c 40 e6 49 35 3d
       4.3957424 8.40823 4.8929114 0.04425993
000090 12 13 9a 41 87 36 88 41 93 6f 7a 41 ac b7 bc 40
       19.259312 17.026625 15.65224 5.897421
0000a0 68 07 b2 41 b0 7c 0e 41 76 f7 35 41 e2 41 03 41
       22.253616 8.905441 11.372915 8.203585
0000b0 c9 81 3f 41 d6 11 7a 2a 3b 22 2b 27 08 cb 30 3a
       11.969186 2.2210649e-13 2.3749574e-15 0.0006744121
0000c0 38 f4 4b 35 41 6b fd 40 67 71 5a 40 75 0d 0b 41
       7.597878e-07 7.9193425 3.4131715 8.690785
0000d0 00 ee 30 41 24 46 ee 40 71 e3 a9 2e a0 a7 57 41
       11.058105 7.446062 7.725632e-11 13.478424
0000e0 55 b9 ad 40 0d 17 49 40 1b 61 c0 40 63 2f e5 3f
       5.4288735 3.142032 6.0118537 1.7905086
0000f0 c0 89 9f 40 eb 7c 74 40 e0 ed 34 41 5e 26 2d 41
       4.985565 3.8201244 11.308075 10.821867
000100 b3 71 57 41 0e 63 09 41 a3 3a 02 41 37 32 84 3f
       13.465259 8.586683 8.139316 1.0327824
000110 cb 92 9e 3f e5 49 2d 3f ab e4 19 3f 17 38 60 41
       1.2388548 0.6769088 0.60114545 14.013694
000120 f2 a9 38 2e 62 be 91 40 45 9b 8c 2f e3 a8 29 41
       4.1987698e-11 4.55449 2.5576177e-10 10.603732
000130 8d c4 81 3a 60 af 33 41 b9 ee aa 3c a5 82 49 36
       0.0009900496 11.230316 0.020865785 3.002738e-06
000140 96 6e dc 40 22 f0 8b 3e 28 d4 28 3c 48 09 4e 2d
       6.8884993 0.27331644 0.010304488 1.1711805e-11
000150 e6 96 f5 40 a0 a8 03 3b e2 f6 d2 41 9a 34 f1 3a
       7.67467 0.0020089522 26.370548 0.0018402517
000160 63 26 2b 37 cf c9 a2 2d cc 1f cd 40 a5 5c e8 40
       1.0201332e-05 1.8506889e-11 6.4101315 7.261309
000170 bf a8 29 41 77 d3 8f 41 2c aa b4 35 38 78 4c 41
       10.603698 17.978254 1.3460572e-06 12.77935
000180 98 88 99 40 23 ac 65 36 cd e4 7c 36 f5 5d 79 3f
       4.797924 3.4223856e-06 3.7684106e-06 0.9740899
000190 cf cd 61 41 ca 05 f4 40 4a f8 02 41 48 31 2c 40
       14.112746 7.6257067 8.185617 2.690508
0001a0 fc 83 5b 27 c3 ee 41 30 e0 29 26 41 d6 fe 09 3f
       3.0463904e-15 7.055229e-10 10.385223 0.53904474
0001b0 5c ca 2c 32 87 90 26 41 70 59 9d 40 6c 93 b2 3b
       1.0057729e-08 10.410285 4.9171677 0.005449703
0001c0 eb d9 1a 3e 9c ee cb 3e 6b f5 2f 41 d2 08 76 40
       0.15122192 0.39830482 10.9974165 3.8442883
0001d0 12 72 1e 28 44 46 2b 40 0f e5 16 41 71 03 2a 40
       8.795497e-15 2.6761637 9.4309225 2.65646
0001e0 e7 49 15 36 79 b8 3a 40 b2 cc 00 41 b0 9c 41 41
       2.2245747e-06 2.9175093 8.049974 12.100754
0001f0 03 dc 06 41 84 4f da 40 a5 f7 92 3e 19 1f a0 41
       8.428714 6.8222065 0.28704563 20.015184

convs.1.nn.0.weight f4 [128, 256]
000000 2a 7c 1e 3d db 33 9d 3d b1 1d 24 bb 29 60 37 bd
       0.03869263 0.07675906 -0.0025042112 -0.04476944
000010 22 dc 0e bc 62 4a fb bc 0e 0f 64 3d 1a 61 49 bd
       -0.008719476 -0.030675117 0.05567842 -0.04916487
000020 33 a4 9a bc 1c 90 1d 3d 77 82 9a bc bd 4a 99 bc
       -0.018877124 0.03846751 -0.018861039 -0.018712396
000030 8f a3 00 3d c2 aa 2e bd 94 e0 11 bd e2 5f a6 3c
       0.03140598 -0.042643316 -0.035614565 0.020309392
000040 4c 80 2b bd 7c b1 d4 bc 63 10 3b bd cc 5d 21 bd
       -0.0418704 -0.025963537 -0.045669924 -0.039396092
000050 3a 9f 30 3d be 38 33 bc 58 ca ca 3b 30 4c d2 3c
       0.0431206 -0.010938821 0.006188672 0.025671095
000060 b4 67 70 bd 01 fa a9 3c 79 b0 45 3d 2d 0b 28 bd
       -0.05869265 0.020749094 0.048264 -0.041026283
000070 ff 3b 50 3d ad 05 95 3c e5 5e 19 3d 66 79 3d 3d
       0.050838467 0.018191183 0.037444014 0.046258353
000080 9d f8 b1 3c 11 8a b3 bb 23 bb 23 3d 39 c6 6c bd
       0.021724993 -0.0054791053 0.03997339 -0.057806227
000090 57 5d b7 3c 8a dd 8f bc d1 87 49 3d 0e 7b 53 bd
       0.022383375 -0.017561693 0.04920179 -0.051631026
0000a0 d5 96 51 3c 43 a3 35 bc 4e e4 6f 3c 2c 81 12 3d
       0.012792309 -0.011086288 0.014641834 0.03576772
0000b0 62 24 21 3d b2 a2 a4 3d 06 db 88 bd 89 92 0c 3c
       0.039341338 0.08038844 -0.066824004 0.008579859
0000c0 be b7 f1 bb f5 d7 9f bc c4 c0 0d bd 25 92 36 bd
       -0.00737664 -0.019512156 -0.034607664 -0.044572968
0000d0 eb df 7c bd a3 4c 1b 3d 09 e3 17 bd e8 dc 38 bc
       -0.061736982 0.037914883 -0.037081752 -0.011283137
0000e0 e8 85 dc 3c 44 56 7b 3b ac c0 52 3b 3c 9b 15 bd
       0.02691932 0.003835098 0.0032158298 -0.036524996
0000f0 2d 45 b8 bc 0c 54 65 3d 03 be 91 bc 95 a6 d1 3c
       -0.022493923 0.055988356 -0.0177908 0.025592128
000100 a5 66 5d bd 9f 0f be 3d 22 68 b2 bc 06 eb 06 b9
       -0.054052968 0.09280323 -0.02177817 -0.00012866789
000110 37 be 25 bc f3 47 6d bd 0b 40 34 3d eb ef 16 bd
       -0.0101161515 -0.057929944 0.04400639 -0.036849897
000120 84 4a b3 3c 42 e6 b7 3c 62 d7 71 bd 2e 2d 25 bd
       0.021886118 0.022448663 -0.059043296 -0.04032629
000130 3b 3b ab 3d 27 56 c2 3c 0b fe f6 ba 0a 90 1e bd
       0.08360907 0.023722721 -0.0018844021 -0.038711585
000140 cc f0 16 3d 64 ab 9a 3d 80 7f 47 bd c8 4d 83 bd
       0.036850736 0.075522214 -0.048705578 -0.0641132
000150 ba 3b 33 3d bd 3b 92 bc d9 ab 5c 3d fa 0a 8e 3c
       0.04375813 -0.017850751 0.053874824 0.017339218
000160 94 da 53 bd 00 b9 4d 3d d0 58 75 39 d0 2d 0f 3d
       -0.051722124 0.050225258 0.00023398106 0.0349558
000170 f1 6d 11 bd 76 09 2d 3d 03 8e cb bb f3 db 19 bd
       -0.03550524 0.04224535 -0.0062119975 -0.037563276
000180 62 05 3b bd 98 43 65 bd 1d b4 3e 3b 06 bd e6 3c
       -0.04565943 -0.055972666 0.0029099055 0.028166305
000190 c5 75 2e bc 59 3a 24 3d 60 1e 2e bb 1a 5b 3c bc
       -0.010648196 0.040094707 -0.0026568398 -0.01149633
0001a0 d2 56 54 3d 59 03 c0 3b 71 c7 4e bd 4a ac 41 3d
       0.05184061 0.005859774 -0.05048317 0.04728345
0001b0 27 a3 0e bd 91 97 ec bc 2e 07 f9 3c 94 3d 90 3d
       -0.034823563 -0.028880866 0.030398931 0.07042995
0001c0 85 ce b0 ba 65 76 04 bd c8 3f 5c 3d 72 14 9b bc
       -0.0013489282 -0.032339472 0.053771764 -0.018930648
0001d0 02 f1 5a bd d2 cf 41 bd 19 6f 94 3d d9 64 53 3d
       -0.0534525 -0.047317334 0.07247753 0.051609848
0001e0 48 28 c6 3c 34 07 1c 3d 8c 9d 7d 3b 54 f8 dc 3c
       0.02418913 0.038092807 0.0038698642 0.02697388
0001f0 58 7a 03 bd f0 5d 5d bd c3 5c a8 3c c9 f5 c3 bb
       -0.032099098 -0.054044664 0.020552045 -0.0059802276
000200 5b ec 70 3c 57 0f 7a bd be 70 87 3b d3 68 6b bd
       0.014704789 -0.061049785 0.004133313 -0.057473015
000210 1c e4 63 bc f0 08 0f 3d 7c b9 a9 3c 0d a9 66 bd
       -0.013909366 0.034920633 0.020718329 -0.056313563
000220 be 3d 93 bd ba af ed 3c df 8a f3 3c b1 a9 14 bd
       -0.07189511 0.029014457 0.029729305 -0.036294643
000230 3b 5c 68 bd 83 bc 70 3a ad 85 8d bd 43 2f 25 bd
       -0.056728583 0.0009183364 -0.06910262 -0.040328275
000240 18 f1 76 3d f3 33 f5 bc b9 39 a6 bd 67 81 a1 bd
       0.06028852 -0.029931998 -0.081164785 -0.0788601
000250 ec ad 41 3c 22 ba 09 3d 2a 25 88 bd 3f 27 82 ba
       0.011821251 0.033624776 -0.066477135 -0.0009929909
000260 26 79 ea bb 7b 82 b3 bc df 88 69 bd 88 24 cb 3c
       -0.0071555553 -0.021912804 -0.057015296 0.024797693
000270 34 92 07 bd 92 7c fc bc a1 79 6f bc ac c1 79 bc
       -0.033098415 -0.030821119 -0.014616401 -0.015243929
000280 b7 c8 25 bd 86 aa c7 bc 39 3f 79 bd 06 09 7e bd
       -0.04047462 -0.024373304 -0.06085131 -0.062020324
000290 2e 1e 04 3a 90 76 16 bd 44 c8 f8 bc ce e9 5c 3d
       0.00050398975 -0.036734164 -0.030368932 0.05393391
0002a0 01 5e 27 bd 7a cd 8b bc 3c 8c 67 3d 27 89 1e bc
       -0.040861133 -0.017065752 0.056530222 -0.009676254
0002b0 0f fa a6 bd d7 dc 0c bd d7 43 43 3d a5 3a 7a bd
       -0.08153164 -0.034390297 0.04767212 -0.061091084
0002c0 2d 16 56 3d be 34 62 bd 6b 8d 6b b9 ef 25 4c bd
       0.052267242 -0.05522608 -0.00022464029 -0.049840864
0002d0 74 6d 84 bd 00 ac 90 ba 36 48 6a 3c 30 e6 04 bd
       -0.06466189 -0.0011037588 0.014299443 -0.032446086
0002e0 75 79 31 3c bf 16 78 bd 82 5b 8f bd 62 c0 b7 bd
       0.01083218 -0.060568567 -0.069998756 -0.08972241
0002f0 0f 8d 85 bd 3e 29 b5 bd f8 e9 e4 bb 03 52 86 bd
       -0.065210454 -0.08845757 -0.006985899 -0.06558611
000300 43 89 d8 3b ba b6 e8 3c 88 ec a6 bd f5 3a 76 bd
       0.0066081597 0.028407443 -0.081505835 -0.06011482
000310 79 2a 15 3d af 72 af bd 80 ff cc bd a8 ef 9d bc
       0.03641746 -0.08566796 -0.1000967 -0.019279316
000320 92 0a 8e bd d3 1b e4 3c 9e 52 d0 bc 90 95 1d 3d
       -0.0693561 0.027845299 -0.02543002 0.038472712
000330 ce 14 04 3d 5f cf ad bc b0 18 98 3c c7 bc eb 3c
       0.032246403 -0.021217046 0.01856646 0.02877654
000340 02 e8 8f bd 28 9d b6 3c 20 b7 4c 3b e1 90 8b bc
       -0.07026674 0.022291735 0.003123708 -0.017036857
000350 27 a5 58 3c 6c d8 8c 3d ab 37 1a 3d 0d 52 73 3c
       0.013222969 0.06877217 0.037650745 0.014851105
000360 1f 7e ba 3c 76 df 84 bd 59 95 86 bc 79 61 53 bd
       0.022765217 -0.06487934 -0.016428636 -0.05160663
000370 01 20 66 bb df a3 0b bd 79 4a eb 3c 42 da 39 bd
       -0.003511429 -0.034091827 0.028722035 -0.045374162
000380 49 08 8d bd 7c a5 8e bb 65 49 75 3c fa d4 e9 bb
       -0.06886346 -0.0043532234 0.014971112 -0.0071359845
000390 fe 91 b0 3b a4 47 79 3c 07 dc 85 3c 96 94 74 bc
       0.0053884974 0.015214834 0.016340269 -0.014928004
0003a0 36 58 39 bd a7 a7 d7 bc 3f a9 34 3d d9 92 90 bd
       -0.04525014 -0.02632506 0.04410672 -0.07059259
0003b0 85 5a 10 bd 09 c1 dc bc bf 56 79 3d da 99 54 bd
       -0.035242576 -0.026947515 0.060873743 -0.051904537
0003c0 88 f5 5f 3c 46 d4 f5 3c e6 bb d7 b9 9e f4 ab 3c
       0.013669379 0.030008446 -0.0004114799 0.020990666
0003d0 e4 e7 2e bd 20 41 20 bc 18 7d f5 3c ec 08 a3 3c
       -0.042701617 -0.009781152 0.029966876 0.019901715
0003e0 82 4d 95 3c c6 7e c1 3c aa 2c 10 3b 15 7f 73 3c
       0.018225435 0.02362002 0.0021999278 0.014861842
0003f0 31 9e 2a 3d 0d 28 26 bd 3c 21 a3 bc d5 9f 9d bd
       0.04165477 -0.04056554 -0.019913308 -0.07696501
