TracksterFormation/Mixed/NT/runs/hd128nl3cd128k48_2/best_model.pt (torch, 488162 bytes, 28 tensors)

lc_encode.0.weight f4 [32, 8]
0.103453755 -0.035733055 -0.10626618 -0.51217216 -0.10525694 -0.39784893 -0.00025079018 -0.07300711
0.18757252 -0.3294022 -0.17158337 -0.04222952 -0.054592624 -0.3287793 -0.022046492 0.41073573
-0.10853097 0.22688593 -0.13334428 -0.37011504 -0.0071545267 -0.5156539 -0.25861752 -0.026373554
0.14055617 -0.14427792 -0.11847921 -0.3126971 0.00096719293 -0.3383666 -0.108888336 0.3214183
-0.012148635 0.031873617 0.01376726 0.41043308 0.06927492 -0.1300648 -0.14937422 -0.045778237
0.009313089 -0.077942036 0.0353645 -0.064119615 0.09831826 -0.07013406 -0.69390893 -0.43620667
-0.26148966 0.28534764 -0.28966448 -0.2459903 0.12343947 -0.07124073 0.1415877 -0.06696701
-0.016390152 -0.11346362 0.044294786 -0.7430513 -0.017944476 0.28415194 0.062311508 0.2339516
0.021926627 0.1872997 0.076456696 -0.005553031 -0.08403914 -0.0055023995 -0.3539974 -0.30736038
0.26273823 0.04442502 -0.10002829 0.07616064 0.16105357 -0.3873439 -0.20014566 -0.30511773
7.123906e-05 -0.00024041059 -0.017122537 0.8873043 0.3554046 0.111660324 -0.043676037 -0.015652059
0.003743428 0.39608178 -0.027312659 0.0027592392 0.012608745 0.0033492346 -0.03908335 0.81130636
-0.012208352 0.021620417 0.044378027 -0.35827315 0.062036805 -0.16113505 -0.46759483 0.36809772
0.030526761 -0.09746584 0.035921317 0.51679146 0.10178479 -0.090010256 -0.222587 0.16972964
-0.044160634 0.0035959887 -0.18317029 -0.12513623 -0.32409415 -0.33746716 -0.0934015 -0.044180226
-0.058922812 -0.055927336 -0.41485846 -0.12825644 -0.14373623 0.048242353 0.14274786 0.007675169
0.063030265 -0.1207932 0.07791119 0.68062866 -0.3569469 0.11179932 -0.8892302 0.036885746
0.036110654 0.05268075 -0.035888415 -0.45079377 -0.49458095 -0.30794302 -0.25486916 0.22580373
-0.11096395 0.03493725 0.041712943 0.44224262 -0.03594958 0.32584655 -0.116324715 0.13816978
-0.06355701 -0.18851028 -0.33512208 0.14914986 0.05309912 -0.027858023 -0.10026756 -0.18541694
-0.006337812 0.01651287 0.0135477595 -0.06621081 -0.15903488 0.025937764 0.34866944 -0.020168355
0.096846156 -0.0029191119 -0.052634805 -0.069040455 -0.08033192 -0.6742678 -0.009960994 -0.32485774
0.0041824286 -0.0051262095 -0.018283665 -0.94020516 -0.18277979 -0.74541765 -0.006767602 0.22903483
-0.08539764 0.022831192 0.03890319 -0.53862596 -0.10860317 0.24448685 -0.10922317 -0.16038026
0.030592063 0.032722414 -0.03155759 0.015328686 -0.23991625 -0.9158773 -0.010809706 -0.07987974
0.2791786 0.4235847 -0.22667783 0.14456366 0.030530872 -0.024922723 -0.09224625 -0.07578793
-0.3248475 -0.01871356 -0.18248484 0.24361783 0.24897783 -0.4967497 -0.35073182 0.32998493
0.23534594 0.012585416 -0.24499744 0.33074465 0.26748455 0.24125534 0.24638434 0.07457527
-0.14487061 -0.0077018957 0.059420418 0.39739773 -0.078404754 -0.13408639 0.36844757 0.12516208
0.00031777887 0.011245494 -0.022886122 -0.3102051 -0.21442935 -0.64156216 -0.0059018107 -0.22499046
-0.40991873 0.07229011 -0.012349953 -0.004257455 0.0020426621 -0.0004557888 -0.251391 0.28900197
0.14939027 0.07989124 0.06442191 -0.048036143 -0.01517135 0.26932094 -0.10740747 -0.11617718
00000000: 90df d33d d35c 12bd 15a2 d9bd b71d 03bf
00000010: f390 d7bd dbb2 cbbe 7d7c 83b9 c084 95bd
00000020: 0313 403e 68a7 a8be 8db3 2fbe dcf8 2cbd
00000030: 849c 5fbd c355 a8be d89a b4bc f44b d23e
00000040: 7c45 debd c954 683e 678b 08be b87f bdbe
00000050: 8570 eabb e501 04bf 8469 84be 5a0d d8bc
00000060: f5ed 0f3e 97bd 13be 3aa5 f2bd d619 a0be
00000070: 388b 7d3a 633e adbe d900 dfbd f090 a43e
00000080: 120b 47bc e98d 023d 1390 613c 4924 d23e
00000090: 02e0 8d3d b52f 05be 8ef5 18be f681 3bbd
000000a0: ed95 183c 13a0 9fbd 5eda 103d 2551 83bd
000000b0: 155b c93d 72a2 8fbd 04a4 31bf 7b56 dfbe
000000c0: f9e1 85be 1619 923e e74e 94be e2e4 7bbe
000000d0: d5cd fc3d a9e6 91bd 5efc 103e 0026 89bd
000000e0: a444 86bc 9d5f e8bd 736e 353d 9c38 3ebf
000000f0: 4b00 93bc 5d7c 913e 5a3a 7f3d 0291 6f3e
00000100: 789f b33c 7ecb 3f3e 5495 9c3d 33f6 b5bb
00000110: b61c acbd 794d b4bb 263f b5be 575e 9dbe
00000120: a085 863e 03f7 353d a2db ccbd 1cfa 9b3d
00000130: 3aeb 243e f151 c6be fcf2 4cbe 6438 9cbe
00000140: 2e66 9538 ba16 7cb9 9044 8cbc 6026 633f
00000150: 97f7 b53e 2bae e43d a5e5 32bd bf38 80bc
00000160: 4d54 753b 3bcb ca3e ccbe dfbc 5ad4 343b
00000170: e994 4e3c d57e 5b3b dd15 20bd c6b1 4f3f
00000180: 8a05 48bc 4d1d b13c bcc5 353d 946f b7be
00000190: 4e1a 7e3d 9600 25be 9768 efbe 4e77 bc3e
000001a0: 4213 fa3c 2c9c c7bd 3b22 133d 724c 043f
000001b0: 8b74 d03d 4c57 b8bd d9ed 63be 9bcd 2d3e
000001c0: c8e1 34bd aeaa 6b3b fe90 3bbe b623 00be
000001d0: abef a5be 7fc8 acbe 4949 bfbd 53f6 34bd
000001e0: 0c59 71bd 1014 65bd 5468 d4be a855 03be
000001f0: 972f 13be c699 453d 7f2c 123e fc7f fb3b
00000200: 0316 813d 6d62 f7bd e78f 9f3d ae3d 2e3f
00000210: bec1 b6be 0bf7 e43d 97a4 63bf 8215 173d
00000220: c4e8 133d c5c7 573d bbff 12bd 71ce e6be
00000230: b739 fdbe b5aa 9dbe 367e 82be 1839 673e
00000240: 1141 e3bd 5d1a 0f3d 31db 2a3d a06d e23e
00000250: de3f 13bd 5cd5 a63e a73b eebd 617c 0d3e
00000260: 2d2a 82bd d708 41be 1f95 abbe beba 183e
00000270: 767e 593d 8236 e4bc 1459 cdbd f0dd 3dbe
00000280: 6cad cfbb 0046 873c 6cf7 5d3c 8899 87bd
00000290: 0ada 22be 6f7b d43c cd84 b23e 1b38 a5bc
000002a0: 4757 c63d 924e 3fbb 9897 57bd 1565 8dbd
000002b0: 1085 a4bd d19c 2cbf 7033 23bc c153 a6be
000002c0: c10c 893b c3f9 a7bb a0c7 95bc 49b1 70bf
000002d0: a02a 3bbe b1d3 3ebf c3c2 ddbb 1b88 6a3e
000002e0: f5e4 aebd 7b08 bb3c f458 1f3d 64e3 09bf
000002f0: 576b debd c35a 7a3e 66b0 dfbd b93a 24be
00000300: 359c fa3c f007 063d 8842 01bd 2b25 7b3c
00000310: 9bac 75be ef76 6abf 311b 31bc fd97 a3bd
00000320: 7ff0 8e3e 18e0 d83e 3c1e 68be 7f08 143e
00000330: e11b fa3c bd2a ccbc 9aeb bcbd b436 9bbd
00000340: 6952 a6be 2e4d 99bc 4edd 3abe f476 793e
00000350: 0bf4 7e3e fa55 febe 1f93 b3be c9f3 a83e
00000360: 87fe 703e 1033 4e3c 9ce0 7abe 5d57 a93e
00000370: bcf3 883e a40b 773e 2d4c 7c3e ebba 983d
00000380: f658 14be 2f60 fcbb d362 733d b777 cb3e
00000390: ac92 a0bd f14d 09be 29a5 bc3e 7d2a 003e
000003a0: 8f9b a639 053f 383c ad7b bbbc 34d3 9ebe
000003b0: 5e93 5bbe 6b3d 24bf fa63 c1bb e663 66be
000003c0: dee0 d1be d60c 943d 7557 4abc 1f82 8bbb
000003d0: 2fde 053b f0f6 eeb9 52b6 80be 11f8 933e
000003e0: c3f9 183e 059e a33d a2ef 833d 8cc1 44bd
000003f0: 4191 78bc 6fe4 893e 73f8 dbbd 4dee edbd

lc_encode.0.bias f4 [32]
-0.32474887 -0.32175472 -0.5356616 -0.4998408 -0.08469793 -0.12082831 -0.26019517 -0.18598819
0.046529107 -0.007478602 0.30922103 -0.21112798 -0.46068573 -0.6762101 0.04175629 -0.14074562
0.16236573 -0.8589427 -0.1376151 0.20290385 -0.5439224 -0.24642704 -0.5329896 -0.1355779
-0.41106975 0.100559816 0.11699886 -0.15656555 -0.14124732 -0.80721724 0.37756827 -0.13819441
00000000: 7c45 a6be 09bd a4be 1e21 09bf 22eb ffbe
00000010: 1c76 adbd d574 f7bd 4d38 85be b073 3ebe
00000020: 4e95 3e3d 100f f5bb 3852 9e3e ef31 58be
00000030: 00df ebbe 1b1c 2dbf a508 2b3d 9f1f 10be
00000040: 3443 263e abe3 5bbf f9ea 0cbe 07c6 4f3e
00000050: 803e 0bbf 5f57 7cbe 0272 08bf efd4 0abe
00000060: bc77 d2be 4ef2 cd3d 199d ef3d b852 20be
00000070: 23a3 10be caa5 4ebf a150 c13e d682 0dbe

lc_encode.2.weight f4 [128, 32]
0.070357256 -0.13078667 0.010753864 0.027204579 -0.1313965 -0.17297304 0.13536392 -0.1957215
-0.13761541 -0.095745884 -0.1990066 -0.20694833 -0.05295637 -0.27471536 -0.0531526 -0.09627351
-0.16617805 -0.16228102 -0.078366034 -0.18321139 -0.15226427 -0.012810521 -0.04821653 0.03990822
-0.0023672555 -0.10195852 0.090213485 0.09427864 -0.04253722 -0.019451922 0.01965842 0.06446698
0.06908657 0.017235069 0.085882306 -0.025481045 -0.12142431 -0.24216372 0.034540176 -0.20025927
0.0434254 0.042676024 0.13823731 -0.11176656 -0.5268999 0.061161283 0.10848917 -0.06959805
-0.07770925 -0.03691786 -0.02200155 0.032316875 -0.20415926 -0.041097797 -0.10305688 -0.44447786
0.020127436 -0.13297482 -0.085782975 -0.1267833 -0.24505508 0.14682768 -0.07109527 -0.02155753
-0.15276839 -0.14620431 0.0136976205 -0.029526459 0.07314526 -0.013208328 -0.07118254 -0.016990514
-0.18967114 0.06934131 -0.26356846 0.046929315 -0.11486088 -0.13429914 -0.13838151 0.096977316
-0.20763531 0.09930513 -0.0932456 -0.00961631 -0.22678763 0.05535949 0.1582528 -0.26958477
-0.14938554 -0.19212697 0.068836905 -0.028139668 -0.08886797 -0.13272874 -0.0017537747 0.069782995
0.20304714 0.15416588 0.117734134 -0.010731844 -0.045286525 -0.017241834 0.14146107 -0.19477448
0.041072212 0.028370356 -0.012659111 -0.014518705 -0.038799126 0.19610171 -0.024165796 -0.08413992
0.06227556 -0.048946626 0.1833522 0.22827424 0.14269759 0.16712907 -0.005730641 -0.095379055
0.15013371 -0.086743824 -0.034093805 0.17792328 -0.06140656 -0.044929776 -0.008682786 -0.08498577
0.12263981 0.053267978 0.2585538 0.33788723 -0.05935825 0.072658494 0.26229402 -0.004624293
0.064161696 0.0658177 -0.16962348 -0.018715354 0.017325087 0.037950385 0.34427702 0.14881429
0.014352857 0.047466442 0.17589813 0.08610085 -0.078591704 0.2242949 0.25039706 -0.1049684
0.31610185 0.14857714 0.20823467 0.13801779 7.2252325e-05 0.36831683 -0.030407837 0.011814452
0.052498724 0.13668562 0.17255333 -0.018837988 -0.02938194 -0.011151401 0.038213525 0.02255668
-0.010913417 0.0690336 0.062609226 0.017918976 -0.056457344 0.10750733 0.04885668 -0.01971502
-0.08405106 0.11133256 -0.08519942 0.015373266 0.078349195 0.096511506 -0.13441154 0.15581451
0.10133734 0.189249 0.055923883 -0.12152394 0.031739797 -0.08057445 -0.011936074 0.030956136
-0.0499556 -0.16639742 -0.22848824 -0.2676227 0.062045842 0.02676671 -0.24588369 -0.091805026
-0.089228705 -0.16092087 -0.0401122 -0.018085718 -0.007776004 0.014073892 -0.31891328 -0.3431905
-0.035422817 -0.26090896 0.12820205 -0.36794937 0.003482233 -0.08528556 -0.060591716 0.16713277
-0.04266441 -0.22305797 -0.19503352 -0.34155485 -0.020496648 -0.1943048 -0.11172982 -0.1638528
-0.12904145 0.0007444312 0.24119155 -0.17320694 -0.10699322 0.07901546 0.14717476 -0.11811227
-0.21984807 0.09240412 -0.115860395 -0.009707114 -0.19050047 0.07179933 0.09976408 0.15321551
0.0925536 -0.062309485 0.13514619 0.15188386 -0.040823136 0.02876328 -0.0026839583 -0.08005092
0.06851716 0.02580113 -0.14051373 0.07538523 -0.115869515 -0.09423595 -0.06966448 -0.18687648
00000000: 7717 903d f1ec 05be fa30 303c 23dc de3c
00000010: ce8c 06be d81f 31be d79c 0a3e 386b 48be
00000020: 0eeb 0cbe 6b16 c4bd 63c8 4bbe 43ea 53be
00000030: c7e8 58bd 7ea7 8cbe 8ab6 59bd 0c2b c5bd
00000040: 942a 2abe ff2c 26be 5f7e a0bd c49b 3bbe
00000050: 2aeb 1bbe 38e3 51bc b27e 45bd cd76 233d
00000060: f523 1bbb a1cf d0bd d9c1 b83d 2915 c13d
00000070: 823b 2ebd a359 9fbc b20a a13c 4407 843d
00000080: 427d 8d3d 8f30 8d3c 10e3 af3d a0bd d0bc
00000090: 4fad f8bd c4f9 77be 007a 0d3d c410 4dbe
000000a0: d5de 313d 0ecd 2e3d 158e 0d3e dee5 e4bd
000000b0: e9e2 06bf 4184 7a3d 922f de3d 6c89 8ebd
000000c0: 0726 9fbd 2f37 17bd 983c b4bc b35e 043d
000000d0: 200f 51be 2a56 28bd 7c0f d3bd 9a92 e3be
000000e0: 4be2 a43c 8d2a 08be fcae afbd 7bd3 01be
000000f0: b8ef 7abe ff59 163e 669a 91bd 6b99 b0bc
00000100: 516f 1cbe 95b6 15be fc6b 603c 79e1 f1bc
00000110: 2fcd 953d be67 58bc 27c8 91bd b12f 8bbc
00000120: 2739 42be d102 8e3d 72f2 86be f438 403d
00000130: 2e3c ebbd b785 09be e2b3 0dbe 0b9c c63d
00000140: 5a9e 54be 7d60 cb3d 8df7 bebd ba8d 1dbc
00000150: 043b 68be a2c0 623d 060d 223e 0407 8abe
00000160: 86f8 18be efbc 44be 5dfa 8c3d 2985 e6bc
00000170: 6900 b6bd 0bea 07be eade e5ba 63ea 8e3d
00000180: 97eb 4f3e a9dd 1d3e 981e f13d 9ed4 2fbc
00000190: 5d7e 39bd bf3e 8dbc 2cdb 103e f672 47be
000001a0: 563b 283d f368 e83c 2968 4fbc dddf 6dbc
000001b0: d5eb 1ebd e3ce 483e 59f7 c5bc 8d51 acbd
000001c0: a814 7f3d 427c 48bd aec0 3b3e b9c0 693e
000001d0: 511f 123e e223 2b3e 1ac8 bbbb 1856 c3bd
000001e0: a7bc 193e bfa6 b1bd f2a5 0bbd 8531 363e
000001f0: 7285 7bbd 4908 38bd 3e42 0ebc 050d aebd
00000200: 952a fb3d 862f 5a3d 2a61 843e 8eff ac3e
00000210: a321 73bd facd 943d 674b 863e 6287 97bb
00000220: 3567 833d 6ecb 863d c7b1 2dbe f150 99bc
00000230: 57ed 8d3c dd71 1b3d 1445 b03e c662 183e
00000240: 3f28 6b3c 2c6c 423d a41e 343e a455 b03d
00000250: b0f4 a0bd 90ad 653e 0b34 803e acf9 d6bd
00000260: 1ad8 a13e 9b24 183e 783b 553e 8954 0d3e
00000270: 2c86 9738 0694 bc3e db19 f9bc 6791 413c
00000280: e708 573d 51f7 0b3e d2b1 303e 2052 9abc
00000290: 65b2 f0bc 5eb4 36bc c985 1c3d c9c8 b83c
000002a0: 30ce 32bc 7d61 8d3d 4439 803d d1ca 923c
000002b0: d13f 67bd ce2c dc3d f11d 483d 6581 a1bc
000002c0: f622 acbd 5302 e43d 097d aebd 27e0 7b3c
000002d0: 8b75 a03d d3a7 c53d 2ea3 09be d78d 1f3e
000002e0: f489 cf3d 7dca 413e 7110 653d 8be1 f8bd
000002f0: 9701 023d 3804 a5bd 868f 43bc b997 fd3c
00000300: 3e9e 4cbd 1664 2abe d2f8 69be d805 89be
00000310: c823 7e3d dc45 db3c efc8 7bbe 4604 bcbd
00000320: 8abd b6bd 71c8 24be b14c 24bd 8028 94bc
00000330: d9cd febb 2e96 663c 9a48 a3be aab6 afbe
00000340: 8417 11bd dc95 85be 6647 033e dc63 bcbe
00000350: 2d36 643b 32aa aebd 052f 78bd da24 2b3e
00000360: e0c0 2ebd 4f69 64be deb6 47be 47e0 aebe
00000370: 96e8 a7bc d6f7 46be 9bd2 e4bd 07c9 27be
00000380: 7123 04be ef25 433a ebfa 763e 295d 31be
00000390: 431f dbbd dcd2 a13d fbb4 163e d9e4 f1bd
000003a0: da1f 61be 5f3e bd3d 3748 edbd 960a 1fbc
000003b0: 8e12 43be 870b 933d 1c51 cc3d 87e4 1c3e
000003c0: be8c bd3d 3b38 7fbd c363 0a3e 7187 1b3e
000003d0: 2936 27bd f8a0 eb3c 59e5 2fbb bdf1 a3bd
000003e0: ba52 8c3d e45c d33c d5e2 0fbe 9263 9a3d
000003f0: ff4c edbd c7fe c0bd 40ac 8ebd 8c5c 3fbe

lc_encode.2.bias f4 [128]
-0.072366744 0.0025055537 -0.23865528 0.1052426 -0.40773067 -0.19174421 0.15359636 -0.30624378
-0.06615545 0.17621651 -0.07558457 -0.09370197 -0.034057513 -0.22125982 0.050475515 0.14621429
-0.15440261 0.05789315 -0.004545054 0.18583575 0.018409824 -0.0117496755 -0.07904812 0.26503366
-0.10962313 0.046828106 -0.26619133 -0.21205106 -0.15151997 0.0475134 0.04272809 0.048491064
0.19799727 -0.17132165 -0.39944512 -0.21290492 -0.20964591 0.18831648 -0.1592503 0.08157269
-0.34282932 -0.10651417 -0.045087565 -0.08357041 0.18834747 -0.14428066 0.050988402 0.17869122
0.19266833 0.11462064 -0.051453084 -0.071057685 0.07940161 0.050583914 0.049063094 0.122622125
0.15190177 -0.08641877 -0.30909938 0.014642153 -0.09237518 -0.046249624 0.0029184509 0.1590005
0.21615012 -0.14621867 0.09642613 -0.19721985 0.15345709 0.013979898 -0.122191474 -0.2939565
-0.095979765 0.04605222 0.24319655 -0.12065501 0.0066362424 -0.019454854 0.14609228 -0.042623557
-0.015799804 -0.3099037 -0.009736309 -0.1713869 -0.15128002 -0.0078079193 0.030951167 -0.23487899
-0.13848592 -0.022564035 -0.07580274 0.12269191 -0.09154155 -0.12057356 -0.22813867 0.32402024
-0.10125195 -0.017466094 -0.021192195 -0.037679482 0.03627592 -0.19539605 0.019817358 -0.18536489
0.07019331 -0.018471397 -0.114173174 0.12666732 0.03177974 0.05987939 -0.35886198 -0.03281821
-0.20621812 0.09210276 0.14370619 0.024715832 0.1297945 -0.20434228 0.02983501 -0.010165668
0.08208516 -0.03360595 -0.07003373 -0.16773726 -0.04770749 -0.022910299 -0.15583211 -0.012227847
00000000: 0435 94bd 3734 243b 0d62 74be 6f89 d73d
00000010: 13c2 d0be 9858 44be 5d48 1d3e fccb 9cbe
00000020: 827c 87bd 1a72 343e 15cc 9abd d2e6 bfbd
00000030: e47f 0bbd ef91 62be 6abf 4e3d 33b9 153e
00000040: b81b 1ebe 5e21 6d3d adee 94bb ba4b 3e3e
00000050: 33d0 963c b681 40bc fbe3 a1bd 7eb2 873e
00000060: 1782 e0bd d4ce 3f3d 3b4a 88be ea23 59be
00000070: 0d28 1bbe 699d 423d a603 2f3d 919e 463d
00000080: ccbf 4a3e f16e 2fbe 1284 ccbe bf03 5abe
00000090: 6bad 56be 09d6 403e 8312 23be 950f a73d
000000a0: 5387 afbe 1a24 dabd bdad 38bd f726 abbd
000000b0: 29de 403e 4fbe 13be 37d9 503d d5fa 363e
000000c0: d94a 453e 3abe ea3d 78c0 52bd b186 91bd
000000d0: 509d a23d 1431 4f3d 62f6 483d 4f21 fb3d
000000e0: 238c 1b3e 53fc b0bd 4642 9ebe a4e5 6f3c
000000f0: 332f bdbd 3f70 3dbd 7b43 3f3b 07d1 223e
00000100: 7556 5d3e 59ba 15be 107b c53d 00f4 49be
00000110: db23 1d3e f10b 653c 863f fabd 7781 96be
00000120: 0a91 c4bd 41a1 3c3d 8408 793e f919 f7bd
00000130: d674 d93b c95f 9fbc 3799 153e 0a96 2ebd
00000140: 976e 81bc b3ab 9ebe 0a85 1fbc 0c80 2fbe
00000150: 26e9 1abe 93d9 ffbb 4d8d fd3c 1e84 70be
00000160: 41cf 0dbe 36d8 b8bc 783e 9bbd e545 fb3d
00000170: 237a bbbd 45ef f6bd 2f9d 69be fbe5 a53e
00000180: 2f5d cfbd 0e15 8fbc 419b adbc cd55 1abd
00000190: 0f96 143d e715 48be 0358 a23c 4bd0 3dbe
000001a0: 83c1 8f3d 5451 97bc a0d3 e9bd 14b5 013e
000001b0: 792b 023d 1744 753d c2bc b7be 636c 06bd
000001c0: d82a 53be 5fa0 bc3d b727 133e db78 ca3c
000001d0: d9e8 043e 1a3f 51be 8d68 f43c e78d 26bc
000001e0: 441c a83d 65a6 09bd d86d 8fbd 51c3 2bbe
000001f0: ee68 43bd 61ae bbbc 7492 1fbe 4f57 48bc

convs.0.nn.0.weight f4 [128, 256]
0.15484825 0.08293839 0.1401463 -0.0009225302 -0.07030519 -0.09258207 0.12118544 0.027350092
-0.94149834 0.21088527 0.12538064 0.1539139 0.03348716 -0.033439755 -0.0045165443 0.058162395
0.104764014 0.074336566 0.06892941 0.06810714 0.042227667 0.14981472 -0.087731965 -0.015994696
0.15951025 0.10647753 0.06935995 0.15795067 0.16924505 -0.07404599 0.1546964 0.085413925
-0.045611747 0.08611372 -0.0004395082 0.01703327 0.041730978 0.028117727 -0.31934768 -0.043603495
-0.013246031 0.09188811 -0.107099324 0.059082862 -0.043041673 0.004415843 0.038745288 0.24848704
0.02555267 0.112762205 -0.11692268 0.1686417 0.083807975 0.12859794 0.107694186 0.093683414
-0.29203817 0.11818317 0.20005535 -0.0123822 0.108128496 0.12126368 0.022436732 -0.05080253
0.10621471 0.054565318 -0.073159486 0.05764408 0.092326276 -0.01704422 0.09930784 0.0016495914
-0.04993789 0.15720338 0.0033759114 0.09136333 0.15342396 0.07911594 -0.089889586 -0.06335646
0.31694973 -0.010167414 -0.0046470948 0.02959458 0.17342846 0.057013888 0.06967167 0.084940456
0.06612679 -0.0026412155 0.17402172 0.04616998 -0.005938341 0.03850713 0.012042321 -0.11752937
0.03440245 0.124940455 0.15142165 0.112037346 0.033517487 0.014475689 0.0039883326 -0.07813535
-0.49548107 -0.2203985 -0.020878106 0.14721736 -0.06811511 0.15755036 0.10918716 0.17227715
0.10224504 0.1415447 0.06929906 0.14657517 -0.30973545 0.10677037 -0.022718899 0.06605706
-0.039522335 0.059797857 0.0025104918 -0.0048451987 0.16210078 0.117514715 0.05704214 0.1070602
-0.028310806 0.054128233 0.019509094 0.0042578196 0.03579043 -0.054902937 0.02393191 0.19949195
-0.11374892 -0.030814134 0.06452109 0.038808778 0.022161765 -0.06483717 0.025921704 0.015853602
0.050601516 0.10471034 0.018686593 0.46966287 0.0129912 0.068855494 0.0838306 0.09555718
0.038744938 -0.056869034 -0.00045564925 -0.028844262 -0.08098733 0.02065958 -0.0558865 -0.907298
-0.041069236 -0.04807415 0.032207094 0.008463834 0.014230066 -0.020214014 0.026669329 0.0015593164
0.0362372 0.013552338 0.016891832 -0.004517336 -0.0050365184 -0.020423349 0.001815495 -0.04379813
0.010933406 0.058411885 0.06572111 -0.01818217 0.06261076 0.30912897 -0.00994105 0.030508451
-0.013604397 -0.021727163 -0.046342377 0.12444087 0.079980604 0.0038168011 -0.04754598 0.049339768
0.004665044 -0.15038832 0.09811596 0.036680847 0.0069175344 0.0014121111 0.057960317 0.013122437
0.17523101 0.094105326 0.0665076 0.012779133 -0.020615363 0.06056471 0.028447594 -0.05749788
0.003653107 0.0051742555 -0.011972155 0.13296932 -0.02889932 0.070010856 -0.030969827 -0.0919451
0.005352176 0.011592476 -0.024286 0.0011327976 -0.0060338886 -0.024071828 0.009695024 0.25257847
-0.032308057 -0.008109761 0.0634254 0.06714665 0.04710865 0.026421806 0.016363226 -0.0024982973
-0.085869156 0.05607848 -0.018413547 -0.0027752225 -0.02912752 0.026317045 0.08254941 0.019913632
0.31680095 0.2644951 0.19310993 -0.019327957 -0.029132266 0.0042824065 0.0157739 0.03773001
-0.26919806 0.0282776 0.22266099 0.014937035 -0.0131332055 0.04933417 0.19047207 0.048518542
00000000: 8a90 1e3e 9adb a93d 8382 0f3e f4d5 71ba
00000010: 2bfc 8fbd ab9b bdbd 1230 f83d 4d0d e03c
00000020: 0906 71bf 4ff2 573e c863 003e 9b9b 1d3e
00000030: d529 093d 20f8 08bd 85ff 93bb b13b 6e3d
00000040: 848e d63d c53d 983d dd2a 8d3d c27b 8b3d
00000050: ebf6 2c3d 0869 193e d1ac b3bd 4f07 83bc
00000060: a856 233e e410 da3d 970c 8e3d d2bd 213e
00000070: 934e 2d3e 6da5 97bd bc68 1e3e 7fed ae3d
00000080: 62d3 3abd 645c b03d cb6d e6b9 5b89 8b3c
00000090: 1aee 2a3d 2657 e63c 8a81 a3be 9499 32bd
000000a0: e105 59bc d52f bc3d e456 dbbd df00 723d
000000b0: 774c 30bd c7b2 903b 61b3 1e3d 6373 7e3e
000000c0: d553 d13c dfef e63d 2875 efbd 69b0 2c3e
000000d0: 84a3 ab3d 2eaf 033e c58e dc3d 17dd bf3d
000000e0: 0786 95be 050a f23d 4fdb 4c3e b6de 4abc
000000f0: 7972 dd3d 1859 f83d 3dcd b73c 5016 50bd
00000100: 1987 d93d e27f 5f3d a4d4 95bd 331c 6c3d
00000110: 8f15 bd3d 52a0 8bbc e961 cb3d 1a37 d83a
00000120: ac8b 4cbd ecf9 203e 653e 5d3b b31c bb3d
00000130: 2c1b 1d3e 8a07 a23d 0818 b8bd 08c1 81bd
00000140: 3c47 a23e 3a95 26bc a846 98bb 5570 f23c
00000150: 3b97 313e 6587 693d 05b0 8e3d 43f5 ad3d
00000160: 7c6d 873d 3e18 2dbb c032 323e bc1c 3d3d
00000170: 6a96 c2bb a7b9 1d3d 284d 453c 3db3 f0bd
00000180: 95e9 0c3d c8e0 ff3d 470e 1b3e d673 e53d
00000190: a249 093d 712b 6d3c 8fb0 823b 6d05 a0bd
000001a0: b2af fdbe 25b0 61be 9008 abbc 26c0 163e
000001b0: ef7f 8bbd e254 213e 859d df3d 6c69 303e
000001c0: d965 d13d 18f1 103e aaec 8d3d cd17 163e
000001d0: a595 9ebe 6caa da3d fc1c babc ed48 873d
000001e0: 2ce2 21bd 99ee 743d 1087 243b 79c4 9ebb
000001f0: bffd 253e 8eab f03d 05a5 693d 6142 db3d
00000200: 10ec e7bc 91b5 5d3d 89d1 9f3c 2e85 8b3b
00000210: fc98 123d e7e1 60bd da0c c43c 9e47 4c3e
00000220: 32f5 e8bd ec6d fcbc a223 843d f4f5 1e3d
00000230: 978c b53c 5ac9 84bd c159 d43c 6adf 813c
00000240: 8943 4f3d 6072 d63d a014 993c a777 f03e
00000250: 0bd9 543c 1c04 8d3d 61af ab3d 7cb3 c33d
00000260: 03b3 1e3d 81ef 68bd 35e4 eeb9 cd4a ecbc
00000270: afdc a5bd 483e a93c 3ee9 64bd af44 68bf
00000280: 3738 28bd 66e9 44bd 96eb 033d e5ab 0a3c
00000290: 3925 693c dc97 a5bc a379 da3c fa61 cc3a
000002a0: 756d 143d a00a 5e3c bd60 8a3c 2906 94bb
000002b0: 6109 a5bb de4e a7bc e7f5 ed3a ab65 33bd
000002c0: 0722 333c 4d41 6f3d ca98 863d c6f2 94bc
000002d0: 123a 803d 2746 9e3e c9df 22bc dcec f93c
000002e0: fae4 5ebc 2afd b1bc 81d1 3dbd dbda fe3d
000002f0: dfcc a33d 4c23 7a3b 93bf 42bd 7f18 4a3d
00000300: 3add 983b 65ff 19be 05f1 c83d a83e 163d
00000310: 7cac e23b 9616 b93a cc67 6d3d 7dff 563c
00000320: c26f 333e 4bba c03d 2335 883d 925f 513c
00000330: 8de1 a8bc b412 783d ee0a e93c e682 6bbd
00000340: f768 6f3b cd8c a93b dc26 44bc 1c29 083e
00000350: 44be ecbc da61 8f3d 6fb4 fdbc b64d bcbd
00000360: 4e61 af3b 5eee 3d3c 6ff3 c6bc 617a 943a
00000370: edb7 c5bb 4832 c5bc e1d7 1e3c f751 813e
00000380: 7455 04bd cede 04bc 2de5 813d 2f84 893d
00000390: 00f5 403d 8b72 d83c 2c0c 863c 79ba 23bb
000003a0: 2bdc afbd 8cb2 653d 02d8 96bc 82e0 35bb
000003b0: d69c eebc d896 d73c aa0f a93d ea21 a33c
000003c0: bc33 a23e e76b 873e 9cbe 453e aa55 9ebc
000003d0: caa6 eebc 6e53 8c3b 4438 813c c88a 1a3d
000003e0: 54d4 89be 6da6 e73c 3e01 643e 77ba 743c
000003f0: a82c 57bc a012 4a3d 1c0b 433e 61bb 463d

convs.0.nn.0.bias f4 [128]
-0.12416582 0.23179767 0.6148964 0.08264108 -0.046596263 -0.1880704 -0.078275055 0.19733143
-0.12384145 -0.1862317 -0.030863749 0.072345376 -0.15745687 0.10430772 0.14082327 0.5118032
0.3866098 0.5144331 0.3837729 0.2900708 0.38093975 0.28259677 0.26047572 -0.14441128
0.0741337 -0.14394385 -0.036871243 -0.13542697 0.4758821 -0.08977273 0.23708941 -0.11589221
0.3017492 0.50006706 0.26283315 -0.00069799623 0.41892377 0.22212918 -0.08633777 -0.14231884
0.13667592 0.115580596 -0.06477612 -0.1864599 -0.12967427 0.26056665 -0.042621773 -0.046323817
0.43393734 -0.16172546 0.38505134 -0.116640694 0.8032761 -0.16593452 0.44033778 -0.015488321
0.071934 -0.17016408 -0.1213421 0.28971377 -0.020341663 -0.18987973 0.3213549 0.57820594
-0.135039 0.45870507 -0.041466646 -0.1193222 -0.1966597 -0.102494135 -0.082215086 -0.098529555
-0.21556294 -0.0272703 0.45565456 -0.16664746 0.5576287 -0.08282961 0.4472107 0.06591541
0.31311187 -0.25799716 -0.040423974 -0.16806139 0.50067633 0.29210684 0.2562274 -0.1918451
0.3214189 0.3295739 0.18031159 -0.044684753 0.24361502 -0.052783303 -0.09628335 -0.19780044
0.07805969 0.041547634 -0.07625419 -0.1132125 0.03785091 -0.02163443 -0.068089634 -0.09311794
-0.15089718 -0.17219824 0.24205059 0.115116596 -0.12994622 0.41144052 -0.03298669 -0.16236153
-0.14530662 -0.13706341 0.13631183 -0.13829519 -0.18312022 -0.23422424 0.57234925 0.43483514
-0.12903827 0.16066268 -0.14801465 0.5861919 -0.18641505 0.24182464 -0.039081316 -0.06766501
00000000: a64a febd 5e5c 6d3e da69 1d3f ba3f a93d
00000010: b9db 3ebd 8795 40be ac4e a0bd 4011 4a3e
00000020: 96a0 fdbd 86b3 3ebe f9d5 fcbc d029 943d
00000030: 603c 21be 499f d53d fa33 103e 8905 033f
00000040: b8f1 c53e e3b1 033f e27d c43e 2984 943e
00000050: 890a c33e 86b0 903e 135d 853e 8de0 13be
00000060: 69d3 973d 0466 13be 4d06 17bd 5ead 0abe
00000070: d2a6 f33e c4da b7bd 91c7 723e e558 edbd
00000080: df7e 9a3e 6504 003f 1192 863e bcf9 36ba
00000090: 2d7d d63e d575 633e dbd1 b0bd 08bc 11be
000000a0: c6f4 0b3e 85b5 ec3d 58a9 84bd 58ef 3ebe
000000b0: 55c9 04be fe68 853e 2b94 2ebd 0bbe 3dbd
000000c0: 092d de3e 5c9b 25be 7325 c53e 51e1 eebd
000000d0: 81a3 4d3f bdea 29be f473 e13e bac2 7dbc
000000e0: 2252 933d 7e3f 2ebe 3582 f8bd 5d55 943e
000000f0: 8fa3 a6bc d56f 42be a188 a43e 4e05 143f
00000100: aa47 0abe 64db ea3e eed8 29bd 335f f4bd
00000110: 2961 49be 72e8 d1bd 6260 a8bd ddc9 c9bd
00000120: 88bc 5cbe f765 dfbc 8e4b e93e a2a5 2abe
00000130: c1c0 0e3f 92a2 a9bd cdf8 e43e a9fe 863d
00000140: 3350 a03e 3418 84be 9c93 25bd 4918 2cbe
00000150: 532c 003f 078f 953e 3d30 833e 0b73 44be
00000160: 0591 a43e e9bd a83e 9aa3 383e 5c07 37bd
00000170: 3776 793e 4e33 58bd 3430 c5bd 338c 4abe
00000180: c2dd 9f3d da2d 2a3d 282b 9cbd f5db e7bd
00000190: 8e09 1b3d b03a b1bc 9472 8bbd 9eb4 bebd
000001a0: ca84 1abe bc54 30be 1cdc 773e 40c2 eb3d
000001b0: 9f10 05be 55a8 d23e 0d1d 07bd 1a42 26be
000001c0: 42cb 14be 5a5a 0cbe 5495 0b3e 419d 0dbe
000001d0: de83 3bbe 7bd8 6fbe 7b85 123f b6a2 de3e
000001e0: 9c22 04be c284 243e 2791 17be ac10 163f
000001f0: 96e3 3ebe e1a0 773e bb13 20bd f493 8abd

convs.0.nn.2.weight f4 [128]
0.8788617 0.6089944 0.3634687 0.63719255 0.3704 0.5672856 0.7179878 0.38425368
0.35378528 0.7492002 0.929347 0.45805997 1.0416781 0.39158943 0.3341024 0.34450725
0.45044005 0.39330804 0.46095213 0.4005425 0.46717525 0.31548467 0.38157782 0.6539525
0.365891 0.43469238 0.54617757 0.53779083 0.4096327 0.3948233 0.18779694 0.4546825
0.3567957 0.37331218 0.3486994 0.35762233 0.36614406 0.82674235 0.39992118 0.75592434
0.32907623 0.5096812 0.6184095 0.8718923 0.792649 0.3747107 0.2641773 0.5040952
0.39989015 0.6111616 0.36568552 0.73177505 0.42963588 0.6374721 0.38028947 0.778192
0.5274632 0.7042634 0.6847597 0.42207578 0.5788581 0.4063922 0.45533112 0.39422944
0.53121775 0.51552683 0.31823146 0.7198598 0.5156901 0.5808923 0.5065389 0.55185896
0.75270224 0.53272593 0.30352247 0.74579895 0.2952323 0.7163238 0.35825363 0.50950503
0.38307652 0.5548853 0.3616778 0.89108354 0.41390508 0.2770892 0.42472124 0.65690243
0.33780554 0.54200864 0.18940254 0.8651108 0.36057413 0.45085448 0.45344585 0.5995835
0.1847866 0.33823863 0.44127876 0.64902973 0.7076151 0.53266615 0.7837787 0.59301895
0.6051303 0.40639046 0.8206746 0.20157309 1.0394355 0.3425177 0.6207282 0.9148455
0.45333728 0.29757193 0.5747646 0.8321045 1.1565852 1.0187528 0.3301683 0.42498407
0.9073912 0.49132907 0.6740946 0.4026439 0.6432855 0.23268992 1.1051803 0.46506214
00000000: 15fd 603f 0fe7 1b3f 9218 ba3e 0d1f 233f
00000010: 12a5 bd3e a139 113f 0cce 373f e6bc c43e
00000020: 5823 b53e 96cb 3f3f afe9 6d3f d686 ea3e
00000030: b555 853f 697e c83e 780f ab3e 4163 b03e
00000040: 14a0 e63e ac5f c93e eb01 ec3e e813 cd3e
00000050: 9831 ef3e 3587 a13e 2b5e c33e 6e69 273f
00000060: 1156 bb3e 0090 de3e 4bd2 0b3f a9ac 093f
00000070: 61bb d13e 4826 ca3e d74d 403e 25cc e83e
00000080: edad b63e c622 bf3e ba88 b23e 461a b73e
00000090: 3c77 bb3e 63a5 533f 78c2 cc3e 4284 413f
000000a0: ae7c a83e 787a 023f 1650 1e3f 5534 5f3f
000000b0: 0beb 4a3f 15da bf3e 3f42 873e 620c 013f
000000c0: 67be cc3e 1675 1c3f 223b bb3e 9c55 3b3f
000000d0: 3cf9 db3e 5f31 233f 4db5 c23e 9737 473f
000000e0: d407 073f 9b4a 343f 694c 2f3f 511a d83e
000000f0: 0b30 143f a312 d03e 2921 e93e 71d8 c93e
00000100: e3fd 073f 91f9 033f 3cef a23e bb48 383f
00000110: 4404 043f 5cb5 143f 89ac 013f a146 0d3f
00000120: 18b1 403f ba60 083f 4c67 9b3e aeec 3e3f
00000130: b028 973e ff60 373f 056d b73e ec6e 023f
00000140: 9b22 c43e f70c 0e3f d52d b93e 0d1e 643f
00000150: 5eeb d33e a3de 8d3e 1075 d93e c22a 283f
00000160: d9f4 ac3e 14c1 0a3f bdf2 413e e777 5d3f
00000170: 2c9d b83e 66d6 e63e 0e2a e83e 4e7e 193f
00000180: b338 3d3e 9d2d ad3e 4aef e13e d026 263f
00000190: 4326 353f cf5c 083f b9a5 483f 17d0 173f
000001a0: d2e9 1a3f 6912 d03e bb17 523f 2d69 4e3e
000001b0: 390c 853f 7b5e af3e 0be8 1e3f 5133 6a3f
000001c0: d31b e83e 595b 983e c623 133f cd04 553f
000001d0: fc0a 943f 7e66 823f d20b a93e 8397 d93e
000001e0: ca4a 683f 7c8f fb3e 7791 2c3f 5727 ce3e
000001f0: 5cae 243f 4446 6e3e 8c76 8d3f a01c ee3e

convs.0.nn.2.bias f4 [128]
0.4219901 -0.24890105 -0.32968822 -0.20587407 0.16302145 0.14865741 0.3545654 -0.113310695
0.17194428 0.1330782 0.67386925 0.5326147 0.02093141 0.23892604 0.44758135 -0.1859305
-0.15428266 -0.15721287 -0.10980756 -0.2183949 -0.15863422 -0.1785385 0.031396203 0.040683236
-0.062357176 0.3075208 0.3137748 0.15477808 -0.21207002 0.42027706 0.19557749 -0.042505305
0.16041966 0.05802083 0.49889204 0.5561042 -0.09098811 0.99468493 0.038156018 0.0976316
0.29049307 -0.2224823 0.09980606 0.11866936 0.1445845 0.107526 0.20473158 0.016726665
-0.14128968 0.08295961 -0.16956303 0.13912135 -0.12890223 0.002670782 -0.113716625 0.6946087
0.4511068 -0.011292828 0.28478876 0.3931526 0.17873259 0.24657609 0.026883459 -0.10710953
0.047018494 0.37374845 0.31529823 0.13919741 0.10213933 0.1329276 0.28709233 0.4302373
0.48577744 -0.041971784 0.11647341 -0.010113882 -0.120707236 0.17646281 -0.101864964 0.27187106
0.40282044 0.53556556 0.14174622 0.2664448 -0.15811358 0.19627483 -0.1623192 0.048461094
0.0049132006 -0.1323587 0.17984134 0.686412 -0.2503752 -0.018408509 0.22350623 0.04972045
0.17494173 0.2490226 0.16932932 0.004538351 1.0322691 0.24387951 0.10478206 0.45602086
0.22489257 0.24077892 0.12593968 -0.09748857 0.8848238 -0.0542297 0.3385987 0.0031056262
0.2844043 0.0611166 0.72015834 0.49617293 0.48706967 0.5816057 0.42946953 -0.17005661
0.19401827 0.3529534 0.10221113 0.45733103 0.25593355 -0.003020253 0.88217264 0.25101528
00000000: 160f d83e ebdf 7ebe e5cc a8be a7d0 52be
00000010: 18ef 263e a639 183e 9989 b53e 700f e8bd
00000020: 2912 303e a745 083e b282 2c3f 7059 083f
00000030: 5978 ab3c 07a9 743e 6229 e53e 9164 3ebe
00000040: 46fc 1dbe 69fc 20be c9e2 e0bd eaa2 5fbe
00000050: 0271 22be ccd2 36be 4e99 003d 77a3 263d
00000060: 3d6a 7fbd 5e73 9d3e 17a7 a03e 257e 1e3e
00000070: e228 59be 8e2e d73e 7745 483e 0b1a 2ebd
00000080: 0d45 243e 40a7 6d3d c76e ff3e d85c 0e3f
00000090: f957 babd aca3 7e3f 7c49 1c3d 14f3 c73d
000000a0: 82bb 943e 66d2 63be 1f67 cc3d ec08 f33d
000000b0: f60d 143e 9736 dc3d 28a5 513e 5c06 893c
000000c0: 3eae 10be bae6 a93d eea1 2dbe d475 0e3e
000000d0: f2fe 03be 4908 2f3b 43e4 e8bd e0d1 313f
000000e0: 78f7 e63e 8e05 39bc d5cf 913e 4c4b c93e
000000f0: ad05 373e 717e 7c3e b33a dc3c 3e5c dbbd
00000100: 7796 403d f55b bf3e c56e a13e c489 0e3e
00000110: 6d2e d13d 2c1e 083e c4fd 923e 1048 dc3e
00000120: d2b7 f83e 9bea 2bbd 9c89 ee3d b2b4 25bc
00000130: 5b35 f7bd abb2 343e 949e d0bd af32 8b3e
00000140: 7b3e ce3e d31a 093f ec25 113e 746b 883e
00000150: 87e8 21be 45fc 483e 0137 26be 247f 463d
00000160: eafe a03b 0a89 07be 5428 383e b2b8 2f3f
00000170: 2e31 80be 71cd 96bc d1de 643e aca7 4b3d
00000180: ed23 333e c8ff 7e3e aa64 2d3e 73b6 943b
00000190: 6521 843f 8dbb 793e fa97 d63d 917b e93e
000001a0: 3d4a 663e c08e 763e 55f6 003e 16a8 c7bd
000001b0: d083 623f f61f 5ebd cf5c ad3e c387 4b3b
000001c0: 719d 913e 6655 7a3d 4c5c 383f 610a fe3e
000001d0: 3261 f93e 1ce4 143f 6ee3 db3e 5223 2ebe
000001e0: baac 463e 4fb6 b43e 1254 d13d 4b27 ea3e
000001f0: b909 833e 70ef 45bb 11d6 613f 1385 803e

convs.0.nn.2.running_mean f4 [128]
-0.99758214 10.153076 23.223183 4.063029 -0.79173315 -0.9975436 -0.99317485 11.280878
-0.9954322 -0.999575 -0.80793554 0.2838214 -0.9999254 2.4491787 6.3758273 13.692558
15.965044 20.433367 12.803134 12.247297 13.055595 3.4717405 7.360904 -0.9995628
5.424067 -0.994486 -0.99802 -0.99869084 19.457153 -0.66091 6.532521 -0.88303167
4.037453 20.380976 13.201242 0.92142874 10.146363 5.224352 -0.9993471 -0.9994406
11.526849 4.5846057 -0.9993713 -0.9998536 -0.99933004 5.71227 -0.7971334 -0.99976146
16.880785 -0.99920845 14.976044 -0.9990341 26.689463 -0.99982 18.4964 0.25203004
2.1808615 -0.999782 -0.9976762 5.149511 -0.879559 -0.9937744 11.914987 23.269585
-0.99823856 16.520596 -0.5889064 -0.99905777 -0.99950534 -0.99843 -0.59276766 -0.90134245
-0.9943485 6.6620035 22.146412 -0.99972165 17.276888 -0.99991935 18.373457 -0.3532836
13.6720085 -0.99235946 -0.6329098 -0.8245392 13.617664 14.862722 11.201019 -0.9995947
13.372145 10.2548685 10.404857 -0.86211383 11.478053 -0.86282325 -0.9594296 -0.9996139
4.8664207 0.4537781 -0.9921957 -0.9996392 1.3175961 -0.63545805 -0.9992238 -0.9116141
-0.9988027 -0.9584448 7.908249 8.700079 -0.42353544 14.209214 -0.99688995 -0.9997208
-0.9431027 -0.99938864 0.6399567 -0.9921319 -0.99632984 -0.99673647 9.181922 15.580895
-0.99966663 21.158094 -0.9989083 27.841702 -0.99561715 15.330631 -0.6344763 -0.9895327
00000000: 8b61 7fbf 0073 2241 14c9 b941 5504 8240
00000010: 06af 4abf 045f 7fbf b540 7ebf 7a7e 3441
00000020: a5d4 7ebf 26e4 7fbf ddd4 4ebf 0a51 913e
00000030: 1cfb 7fbf 58bf 1c40 c706 cc40 b814 5b41
00000040: d270 7f41 8977 a341 a3d9 4c41 eef4 4341
00000050: b8e3 5041 ff30 5e40 878c eb40 59e3 7fbf
00000060: f591 ad40 a296 7ebf 3d7e 7fbf 34aa 7fbf
00000070: 40a8 9b41 6631 29bf 690a d140 5d0e 62bf
00000080: d132 8140 3d0c a341 4a38 5341 c1e2 6b3f
00000090: 8157 2241 e42d a740 36d5 7fbf 57db 7fbf
000000a0: f96d 3841 17b5 9240 ccd6 7fbf 68f6 7fbf
000000b0: 18d4 7fbf eaca b640 ef10 4cbf 5ef0 7fbf
000000c0: d90b 8741 20cc 7fbf e09d 6f41 b3c0 7fbf
000000d0: 0584 d541 34f4 7fbf a1f8 9341 150a 813e
000000e0: 3c93 0b40 b7f1 7fbf b567 7fbf cbc8 a440
000000f0: c72a 61bf 0068 7ebf c9a3 3e41 1c28 ba41
00000100: 908c 7fbf 2e2a 8441 92c2 16bf 40c2 7fbf
00000110: 95df 7fbf 1c99 7fbf 9fbf 17bf 61be 66bf
00000120: a08d 7ebf 222f d540 da2b b141 c2ed 7fbf
00000130: 1137 8a41 b7fa 7fbf d7fc 9241 97e1 b4be
00000140: 8cc0 5a41 450b 7ebf 6006 22bf 0015 53bf
00000150: f4e1 5941 b6cd 6d41 6037 3341 70e5 7fbf
00000160: 4ef4 5541 f113 2441 4b7a 2641 7eb3 5cbf
00000170: 1ba6 3741 fce1 5cbf 2e9d 75bf b2e6 7fbf
00000180: b8b9 9b40 9a55 e83e 8a00 7ebf 5be8 7fbf
00000190: fda6 a83f 61ad 22bf 22cd 7fbf 8b5f 69bf
000001a0: 89b1 7fbf a35c 75bf 6010 fd40 8633 0b41
000001b0: a3d9 d8be f158 6341 2e34 7fbf b4ed 7fbf
000001c0: 2e6f 71bf efd7 7fbf 34d4 233f 5bfc 7dbf
000001d0: 790f 7fbf 1f2a 7fbf 27e9 1241 594b 7941
000001e0: 27ea 7fbf c743 a941 74b8 7fbf cebb de41
000001f0: c4e0 7ebf 444a 7541 0a6d 22bf 0452 7dbf

convs.0.nn.2.running_var f4 [128]
3.4711633e-05 1.667453 1.5553116 1.3589315 0.14524846 4.604728e-05 0.00015494849 1.6374991
5.5480436e-05 4.018905e-07 0.123184144 0.46599123 1.3390854e-08 0.7380373 0.6904112 1.2798879
2.355943 1.7750297 1.864615 1.0451803 1.5224061 1.7891618 1.2100515 1.0197866e-07
1.2574786 4.6962694e-05 2.7622895e-05 0.0077976766 2.9842448 0.06747331 0.6218774 0.33874553
0.87360406 2.0649147 1.2130558 1.0056674 1.2461091 3.8231235 0.24827248 9.2188564e-08
4.8933787 2.3547075 4.3453855e-07 0.019797722 4.3403656e-07 1.0279726 0.07736193 3.6195019e-07
1.8590448 3.020925e-05 1.2627207 4.347584e-07 1.332955 4.782727e-08 0.7904354 1.915067
4.8051453 0.059440512 3.931282e-05 1.1882018 0.14423181 0.0015002674 1.045066 1.6958452
9.2824797e-07 2.2096927 0.18568921 4.49603e-07 0.0006449915 6.137321e-05 0.8654501 0.005271541
8.0206366e-05 1.4055095 1.2570463 2.1942978e-07 1.1617441 2.0893193e-08 1.3566254 0.94236225
1.7227901 8.1722275e-05 0.19747366 0.90385914 1.6112741 1.1785339 1.4841659 3.9339704e-07
1.4071771 1.1075072 2.3017845 0.021521581 2.5298083 0.1803599 0.0065198555 0.03285492
1.0688958 1.7071431 0.00045096222 0.011735121 1.7998813 0.8079772 4.473287e-07 0.021392362
1.6076114e-05 0.0052786046 3.7846537 0.9031135 0.6395673 1.2919543 2.0864094e-05 8.558835e-08
0.021761496 1.2332771e-05 1.235502 0.0001765564 8.3073406e-05 2.68986e-05 2.7802625 2.9493563
2.9986393e-06 1.288949 4.815812e-07 1.2631329 0.0005057238 3.426304 0.2592811 0.001429603
00000000: 5597 1138 1a6f d53f 7314 c73f 78f1 ad3f
00000010: 03bc 143e e422 4138 ab79 2239 9299 d13f
00000020: aab3 6838 69c3 d734 f847 fc3d 6796 ee3e
00000030: 990d 6632 03f0 3c3f cabe 303f 5ed3 a33f
00000040: c5c7 1640 2c34 e33f b4ab ee3f 78c8 853f
00000050: 34de c23f 4103 e53f f8e2 9a3f 5cff da33
00000060: 0ff5 a03f cff9 4438 b7b7 e737 a783 ff3b
00000070: defd 3e40 722f 8a3d 5b33 1f3f 0e70 ad3e
00000080: 84a4 5f3f 9027 0440 6a45 9b3f b6b9 803f
00000090: 8180 9f3f 0eae 7440 243b 7e3e 33f9 c533
000000a0: 8f96 9c40 87b3 1640 864a e934 d52e a23c
000000b0: 8805 e934 9b94 833f ee6f 9e3d 0e52 c234
000000c0: 2ef5 ed3f df69 fd37 d5a0 a13f bd68 e934
000000d0: 459e aa3f a46a 4d33 f959 4a3f ea20 f53f
000000e0: c0c3 9940 e577 733d d2e3 2438 ff16 983f
000000f0: 81b1 133e 9fa4 c43a b9c4 853f 7511 d93f
00000100: b72c 7935 9b6b 0d40 5025 3e3e f760 f134
00000110: a614 293a 7eb5 8038 238e 5d3f e4bc ac3b
00000120: 7734 a838 bce7 b33f e5e6 a03f 669c 6b34
00000130: 08b4 943f 9e78 b332 e7a5 ad3f a73e 713f
00000140: 6384 dc3f 5062 ab38 8936 4a3e 5063 673f
00000150: 3b3e ce3f 33da 963f 26f9 bd3f 1434 d334
00000160: 611e b43f ccc2 8d3f 7050 1340 074e b03c
00000170: 61e8 2140 44b0 383e 83a4 d53b e192 063d
00000180: 94d1 883f aa83 da3f 206f ec39 aa44 403c
00000190: 8362 e63f 98d7 4e3f 6328 f034 093f af3c
000001a0: 31db 8637 25f8 ac3b c437 7240 7232 673f
000001b0: afba 233f c25e a53f 4d05 af37 b1cc b733
000001c0: 2a45 b23c d9e8 4e37 ee24 9e3f ff21 3939
000001d0: b237 ae38 4ea4 e137 d2ef 3140 41c2 3c40
000001e0: 3b3c 4936 48fc a43f 0246 0135 57ae a13f
000001f0: 8d92 043a 9148 5b40 7ec0 843e 8461 bb3a

convs.1.nn.0.weight f4 [128, 256]
-0.23356372 0.124596626 -0.33068234 0.049241506 -0.0035745085 0.062385526 -0.11470776 -0.2542431
0.062294446 -0.07165759 0.13648295 -0.069449775 -0.1467534 0.019809669 -0.013984684 0.4806928
-0.20642382 0.01622998 -0.10433696 -0.2221795 -0.19896308 0.11236723 -0.042862933 0.046253003
-0.04539381 -0.008022464 -0.002921276 -0.046048757 -0.13718686 0.0070344578 0.16254334 -0.14814734
-0.039795194 -0.024951588 0.017347775 0.060303237 -0.2525612 -0.009977893 -0.03292054 -0.0036808467
0.15442708 0.41002953 0.046683762 -0.43171352 0.032133624 -0.07423649 -0.08296915 0.043801613
0.012751926 -0.10895072 0.19247785 0.24019182 -0.17421982 -0.18624312 0.06639028 0.043954946
0.018403552 -0.37054637 -0.044571236 -0.07086465 -0.054698016 -0.021924298 -0.055620354 -0.33452263
0.00059781614 -0.08220949 -0.0080283955 0.20647584 -0.008009166 0.045421533 -0.030502249 0.073295325
0.01098916 -0.025381777 0.1721128 -0.0633201 -0.027659282 -0.011777587 0.06427941 -0.03178494
-0.049873292 0.035989195 -0.062551975 0.09260804 0.39872667 -0.021530697 -0.11531475 -0.15413788
-0.091738194 -0.084218696 -0.09283518 -0.08594909 -0.0020876224 0.015156582 0.010643292 -0.0575213
0.057196897 0.07810457 0.16796985 -0.053477142 0.12618059 0.13080773 0.030586459 -0.027821153
0.08687449 0.11433232 -0.06518621 -0.13752377 0.03327373 -0.20280343 -0.014836428 -0.40931028
0.07117982 -0.08176226 0.03467553 0.033430442 0.01473572 -0.027763609 0.118107885 0.05350727
0.015136253 -0.060544234 0.15680486 -0.15551238 0.10033287 -0.1653485 0.24255344 -0.021510974
0.30156356 0.001599495 -0.08728495 0.17308314 0.019717753 -0.1268613 0.2778791 -0.323632
-0.64180315 -0.6821608 -0.1398888 -0.12210889 -0.45525053 0.054266497 -0.12211558 0.3779266
-0.1321086 0.1383125 -0.10418834 -0.11987414 -0.118541054 0.30327305 -0.26666933 -0.7140528
0.05601722 0.07254045 0.08257418 -0.22896324 -0.15102763 -0.10683496 0.18740153 -0.07172782
0.11973461 -0.24856554 0.69397455 0.12691672 -0.16674708 0.4196685 -0.015143361 0.29337022
0.18148881 0.28586054 -0.23869117 0.089460306 -0.12799132 -0.2569761 -0.18733501 0.7023306
-0.17458336 -0.03372008 0.12702444 0.6228927 -0.09304174 0.1271325 0.051804256 -0.26508838
0.011327507 0.13469408 -0.101231396 0.03848173 -0.23750982 0.03970219 -0.0227614 0.05063577
-0.14762299 -0.108482435 -0.20987861 0.35517725 0.51285386 -0.017867925 -0.12480809 -0.08194966
0.08635227 -0.052992903 0.3599478 0.05911 -0.13062339 0.10930883 -0.20037617 -0.011300731
-0.18313953 0.61504734 0.05764057 -0.025864456 0.32381755 -0.1082837 -0.22039227 -0.46219212
0.0017548732 0.012255473 0.13306695 0.02897726 -0.12651049 -0.18680751 0.19730464 -0.7284969
0.5852414 -0.0132605145 0.110409886 -0.651026 0.26964566 0.14867017 -0.24666236 0.2017783
-0.5612474 -0.45472676 0.04146606 -0.09329595 -0.27228183 -0.22376414 -0.025474826 -0.22304593
0.12070113 0.12247973 -0.03958204 0.22330783 0.0049148556 -0.32648495 0.11154751 0.04565178
0.032594804 -0.09870239 0.29420927 -0.021105476 0.040229753 0.44648427 0.023759611 0.05270597
00000000: 542b 6fbe 842c ff3d 324f a9be 76b1 493d
00000010: 4d42 6abb f787 7f3d e7eb eabd 272c 82be
00000020: 7628 7f3d 37c1 92bd 30c2 0b3e af3b 8ebd
00000030: 8646 16be e347 a23c 0420 65bc 5e1d f63e
00000040: c460 53be bcf4 843c 9eae d5bd 0683 63be
00000050: fabc 4bbe ca20 e63d 0b91 2fbd ca73 3d3d
00000060: dcee 39bd a770 03bc e172 3fbb 9f9d 3cbd
00000070: b67a 0cbe 4f81 e63b c371 263e f0b3 17be
00000080: 4900 23bd 4667 ccbc ec1c 8e3c 8700 773d
00000090: b44f 81be 517a 23bc b0d7 06bd 5c3a 71bb
000000a0: 2222 1e3e 64ef d13e 7937 3f3d 8e09 ddbe
000000b0: 8c9e 033d 4d09 98bd bbeb a9bd 5269 333d
000000c0: 74ed 503c 8e21 dfbd ea18 453e d8f4 753e
000000d0: ae66 32be 84b6 3ebe a1f7 873d 1a0a 343d
000000e0: 0cc3 963c 41b8 bdbe 5490 36bd 7c21 91bd
000000f0: 070b 60bd 969a b3bc 2bd2 63bd 8d46 abbe
00000100: c3b6 1c3a 735d a8bd 8889 03bc 676e 533e
00000110: e138 03bc ee0b 3a3d dadf f9bc dc1b 963d
00000120: e10b 343c 72ed cfbc 563e 303e f8ad 81bd
00000130: b895 e2bc c8f6 40bc eca4 833d ed30 02bd
00000140: f047 4cbd 6869 133d 401b 80bd 49a9 bd3d
00000150: e725 cc3e 2561 b0bc 242a ecbd 52d6 1dbe
00000160: 3ce1 bbbd da7a acbd 5f20 bebd 1406 b0bd
00000170: 7ed0 08bb 5053 783c 3461 2e3c 749b 6bbd
00000180: 4b47 6a3d 4af5 9f3d 4a00 2c3e d90a 5bbd
00000190: 7c35 013e 76f2 053e 7490 fa3c 30e9 e3bc
000001a0: 41eb b13d 1027 ea3d 5980 85bd 08d3 0cbe
000001b0: 094a 083d b4ab 4fbe 7d14 73bc 1e91 d1be
000001c0: bac6 913d f972 a7bd ee07 0e3d 5cee 083d
000001d0: 176e 713c 8270 e3bc 8ce2 f13d 702a 5b3d
000001e0: 0cfe 773c 3bfd 77bd 7491 203e a33e 1fbe
000001f0: 527b cd3d 1e51 29be ee5f 783e c837 b0bc
00000200: 8a66 9a3e 25a6 d13a 74c2 b2bd b53c 313e
00000210: 2087 a13c eee7 01be 2b46 8e3e 18b3 a5be
00000220: 364d 24bf 17a2 2ebf 023f 0fbe 3a14 fabd
00000230: 9916 e9be 8c46 5e3d bc17 fabd 987f c13e
00000240: 7a47 07be cba1 0d3e b260 d5bd 9380 f5bd
00000250: a7c5 f2bd 9b46 9b3e e288 88be 2acc 36bf
00000260: 5072 653d 1690 943d a71c a93d 5775 6abe
00000270: fda6 1abe 4acc dabd 30e6 3f3e 09e6 92bd
00000280: 6b37 f53d f787 7ebe 51a8 313f 75f6 013e
00000290: bfbf 2abe cade d63e dc1b 78bc 9f34 963e
000002a0: 34d8 393e 505c 923e 756b 74be f736 b73d
000002b0: 2810 03be 5f92 83be c0d4 3fbe f0cb 333f
000002c0: fbc5 32be 111e 0abd b212 023e e575 1f3f
000002d0: ab8c bebd 062f 023e b330 543d aab9 87be
000002e0: 0297 393c 3fed 093e 6852 cfbd 059f 1d3d
000002f0: c635 73be c39e 223d 1e76 babc 7467 4f3d
00000300: 7b2a 17be 0a2c debd 6bea 56be cbd9 b53e
00000310: 644a 033f c15f 92bc 629b ffbd 39d5 a7bd
00000320: 75d9 b03d 160f 59bd 144b b83e 541d 723d
00000330: 23c2 05be 4fdd df3d 692f 4dbe b426 39bc
00000340: ee88 3bbe be73 1d3f 8518 6c3d b2e1 d3bc
00000350: 6acb a53e d8c3 ddbd 83ae 61be 72a4 ecbe
00000360: c603 e63a 2ecb 483c b442 083e b861 ed3c
00000370: f78b 01be 784a 3fbe 3a0a 4a3e c67e 3abf
00000380: 61d2 153f a142 59bc 941e e23d a4a9 26bf
00000390: ff0e 8a3e fe3c 183e 0f95 7cbe f89e 4e3e
000003a0: e9ad 0fbf f2d1 e8be 51d8 293d f211 bfbd
000003b0: 8668 8bbe 6d22 65be 95b0 d0bc 2766 64be
000003c0: 2732 f73d a7d6 fa3d c720 22bd cfaa 643e
000003d0: cc0c a13b 0929 a7be 0573 e43d 5cfd 3a3d
000003e0: 2182 053d 7b24 cabd 99a2 963e 64e5 acbc
000003f0: f4c7 243d 9699 e43e 84a3 c23c 37e2 573d

convs.1.nn.0.bias f4 [128]
0.39468265 0.39068288 0.07004781 -0.051441427 -0.081428565 -0.28907216 -0.25634673 -0.08873524
0.0017352195 -0.0789319 -0.34637204 -0.17950709 0.4824309 0.4509782 -0.0011681193 -0.16865733
0.17791581 -0.08460179 0.39320484 0.10170359 -0.29603717 -0.1891695 -0.02867067 -0.1061573
0.44079003 -0.10000415 -0.27548835 0.54614735 -0.29730448 -0.22930312 -0.11104896 -0.11988307
-0.11800778 -0.1831882 -0.29039654 -0.1855114 0.21232451 -0.10204241 -0.30109152 -0.29086733
0.069006294 0.33717227 -0.29577535 -0.17695388 -0.15897727 -0.19201587 -0.049490232 -0.1787597
0.362283 -0.1759734 -0.13997188 -0.26054975 0.0799434 0.39738047 0.5473658 0.002347167
-0.053554893 0.5583008 -0.48655725 -0.28671476 -0.008917633 -0.25188163 0.19951327 -0.042331837
0.51256466 -0.05733456 -0.16508567 -0.29755208 -0.107456654 0.0011956037 -0.14786391 -0.17191178
-0.11998582 0.33153236 0.111642994 -0.22135997 -0.04170789 -0.20419966 -0.1744591 0.019640546
0.52182424 0.16999146 -0.13764398 -0.24490732 0.18593046 -0.13039836 -0.07080587 0.24357349
0.41122448 0.5208382 -0.2380591 -0.0863109 -0.037998296 -0.39474007 -0.14355414 0.29266638
0.008026888 -0.22871408 0.2494837 -0.13876753 0.10272383 -0.1203887 -0.17084473 0.69910663
0.08694183 -0.20324625 0.01121792 -0.32771894 -0.08923787 -0.22662604 -0.15985495 0.2979456
-0.14374192 -0.1604515 -0.29819044 -0.052856576 0.177425 -0.24727552 0.059567492 0.21851787
-0.036157105 0.45064217 0.5150273 -0.20589748 -0.3596783 -0.2283926 0.08409864 0.5053676
00000000: d813 ca3e 9607 c83e 3a75 8f3d 3fb4 52bd
00000010: 05c4 a6bd 4401 94be e13f 83be d2ba b5bd
00000020: 4e70 e33a 0ca7 a1bd ad57 b1be b5d0 37be
00000030: 2f01 f73e 9de6 e63e 941b 99ba 82b4 2cbe
00000040: 902f 363e b443 adbd 2552 c93e f949 d03d
00000050: 2f92 97be a6b5 41be c1de eabc 0069 d9bd
00000060: 3baf e13e face ccbd cf0c 8dbe 50d0 0b3f
00000070: 4b38 98be 70ce 6abe a36d e3bd 4185 f5bd
00000080: 10ae f1bd b095 3bbe dbae 94be b3f6 3dbe
00000090: 996b 593e 9cfb d0bd ab28 9abe 90ec 94be
000000a0: 2c53 8d3d d8a1 ac3e de6f 97be 6633 35be
000000b0: f0ca 22be cf9f 44be 45b6 4abd c80c 37be
000000c0: 287d b93e 5f32 34be ca54 0fbe c766 85be
000000d0: 5eb9 a33d 7475 cb3e 2a20 0c3f eed2 193b
000000e0: 605c 5bbd cdec 0e3f 081e f9be 47cc 92be
000000f0: 441b 12bc a1f6 80be 354d 4c3e 2664 2dbd
00000100: 7037 033f a5d7 6abd 380c 29be bf58 98be
00000110: 3c12 dcbd ceb5 9c3a a369 17be a409 30be
00000120: 20bb f5bd 9cbe a93e 15a5 e43d 30ac 62be
00000130: e4d5 2abd b719 51be 68a5 32be 36e5 a03c
00000140: 4696 053f 3e12 2e3e 8bf2 0cbe fcc8 7abe
00000150: 8e64 3e3e 2687 05be ab02 91bd 546b 793e
00000160: 048c d23e a755 053f c4c5 73be c5c3 b0bd
00000170: 1aa4 1bbd 5f1b cabe dbff 12be 5ed8 953e
00000180: 3583 033c 0634 6abe a878 7f3e 1319 0ebe
00000190: df60 d23d 5a8e f6bd ecf1 2ebe a7f8 323f
000001a0: 8f0e b23d c91f 50be 5ecb 373c c7ca a7be
000001b0: 58c2 b6bd a810 68be 04b1 23be 538c 983e
000001c0: 1531 13be 664d 24be 6bac 98be 2380 58bd
000001d0: e6ae 353e cb35 7dbe 0bfd 733d 26c3 5f3e
000001e0: 7919 14bd 92ba e63e d4d8 033f cad6 52be
000001f0: c127 b8be c0df 69be e83b ac3d c55f 013f

convs.1.nn.2.weight f4 [128]
0.9169246 0.8575596 0.8445711 0.3474727 0.59623516 0.29900652 1.5163021 0.7994409
1.089834 0.7638226 0.9494689 0.62888837 0.72281814 0.83417755 0.13575596 0.8197835
0.9966522 0.52685714 0.77997965 0.906083 0.5945863 0.87507033 0.6420166 0.09699111
0.97397506 0.6110758 0.52983403 0.7457 1.1363707 0.71348935 1.0657275 0.4960236
0.3826292 0.9348685 0.46596208 1.235078 0.78021437 1.0155277 0.54052633 0.5697363
0.9105061 0.79828256 0.22898825 0.6077596 0.23096164 0.90256506 1.0486394 1.3374538
0.7961021 0.4984786 0.54429954 1.0350997 1.0343843 0.83474404 0.78296787 1.2754548
0.4039075 0.7166161 1.0380623 0.41042998 1.1701943 0.63054025 0.9072765 0.25299978
0.8528337 1.0727693 0.29933628 1.1499529 0.4482447 1.453904 0.44397378 0.9330065
0.2628495 0.7971002 1.0701535 0.5465238 0.6272989 1.0302712 0.8806655 0.96817255
0.9484153 0.8084586 1.183156 1.2182119 0.82021636 0.808414 0.95993954 1.0862164
0.76547945 0.8936252 1.1523286 1.25608 1.1447942 0.44859964 0.9440897 0.9754486
0.6321995 1.0121013 0.8895033 1.2455083 0.96887606 0.80766803 0.40024385 0.59555274
0.5842194 0.4431986 1.1025594 1.0688589 1.1010858 0.78165334 0.8151723 0.9288347
0.50400484 0.3319108 0.5155858 0.23574172 1.0285825 0.1978323 1.2721318 1.0812917
1.3183306 1.1548026 0.63306594 1.0551819 0.667485 0.96937436 1.1406748 0.9997742
00000000: 92bb 6a3f 0789 5b3f d035 583f f1e7 b13e
00000010: dea2 183f 6217 993e 3016 c23f 29a8 4c3f
00000020: ae7f 8b3f e189 433f 6510 733f d4fe 203f
00000030: 9c0a 393f a98c 553f 9c03 0b3e 55dd 513f
00000040: 9924 7f3f 1ce0 063f bfac 473f 0ef5 673f
00000050: cf36 183f 9c04 603f 335b 243f 46a3 c63d
00000060: 6e56 793f 776f 1c3f 34a3 073f 32e6 3e3f
00000070: 9874 913f 3da7 363f c269 883f cef6 fd3e
00000080: f9e7 c33e 8b53 6f3f 9592 ee3e 0917 9e3f
00000090: 21bc 473f d0fc 813f ef5f 0a3f 3dda 113f
000000a0: ee16 693f 3f5c 4c3f e57b 6a3e 2296 1b3f
000000b0: 3581 6c3e 810e 673f d139 863f b031 ab3f
000000c0: 59cd 4b3f 9638 ff3e 3757 0b3f 267e 843f
000000d0: b466 843f c9b1 553f 9570 483f 1a42 a33f
000000e0: f7cc ce3e 2774 373f 3adf 843f e123 d23e
000000f0: edc8 953f 166b 213f 4643 683f 3089 813e
00000100: 4f53 5a3f 8150 893f 9b42 993e a831 933f
00000110: 5480 e53e 8719 ba3f 8850 e33e 84d9 6e3f
00000120: 3694 863e c20e 4c3f cafa 883f fce8 0b3f
00000130: a996 203f eddf 833f 4b73 613f 28da 773f
00000140: 58cb 723f 25f7 4e3f a871 973f 5eee 9b3f
00000150: b3f9 513f 38f4 4e3f 99be 753f 2409 8b3f
00000160: 76f6 433f 9fc4 643f 817f 933f 3bc7 a03f
00000170: 9e88 923f daae e53e ddaf 713f 00b7 793f
00000180: d4d7 213f 898c 813f 7db6 633f d16c 9f3f
00000190: 4308 783f 55c3 4e3f c3ec cc3e 2576 183f
000001a0: 678f 153f edea e23e ab20 8d3f 5ed0 883f
000001b0: 61f0 8c3f 6f1a 483f 22af 503f 1cc8 6d3f
000001c0: 7606 013f 36f0 a93e 6efd 033f 4766 713e
000001d0: 97a8 833f 8d94 4a3e 37d5 a23f c467 8a3f
000001e0: 0fbf a83f 92d0 933f 9c10 223f 3310 873f
000001f0: 4ce0 2a3f eb28 783f a201 923f 34f1 7f3f
