TracksterFormation/Mixed/NT/runs/hd128nl3cd128k48/best_model.pt (torch, 488162 bytes, 28 tensors)

lc_encode.0.weight f4 [32, 8]
0.14211167 -0.022074249 -0.116397135 -0.4908771 -0.097977005 -0.39359474 0.00021660516 -0.041163135
0.13990638 -0.30918226 -0.19606833 -0.054397006 -0.06124169 -0.33447525 -0.024156323 0.41545132
-0.088457644 0.20238999 -0.14495075 -0.38615003 -0.025382431 -0.5302676 -0.25952694 -0.042124465
0.1374661 -0.14009155 -0.13343292 -0.31708714 -0.0043775854 -0.3475929 -0.11938481 0.31898555
-0.0067510526 0.014684059 0.0067335875 0.43039617 0.04844449 -0.11234294 -0.10924274 -0.092534125
0.0032366344 -0.074326724 0.033589058 -0.057969727 0.10112744 -0.04988823 -0.7373638 -0.45268288
-0.25658745 0.27075154 -0.26401916 -0.25167215 0.09780828 -0.09447159 0.13101302 -0.0885997
-0.02419086 -0.107167736 0.042288523 -0.6723914 -0.008472516 0.27168778 0.05455514 0.24623914
0.0178018 0.1773786 0.07511492 0.012132233 -0.08681593 -0.016153757 -0.31488526 -0.28325307
0.2560578 -0.021959791 -0.0979376 0.10922524 0.24212417 -0.36941722 -0.24232814 -0.39739457
-0.000954127 -0.0011660095 -0.017151231 0.857653 0.3672327 0.09458939 -0.061831284 0.020639092
0.02673522 0.39379844 -0.023120137 -0.0039265403 0.012771381 0.0014286969 -0.075127825 0.8994507
-0.012147211 0.01671097 0.0361652 -0.2997114 0.08787806 -0.12673442 -0.4283034 0.40122077
0.026430652 -0.07610226 0.024916785 0.46628287 0.09126274 -0.09530744 -0.25362703 0.15262872
-0.022375178 0.021505047 -0.15525737 -0.11976837 -0.34702754 -0.36390296 -0.06882435 -0.033682745
-0.065345645 -0.054939307 -0.40593085 -0.14951353 -0.1370897 0.020981766 0.11325621 0.0059564686
0.052505933 -0.10464825 0.06779564 0.68126124 -0.34359756 0.07216559 -0.9629942 0.0451259
0.01192255 0.012014789 -0.055191744 -0.44443712 -0.48432395 -0.28953427 -0.26052457 0.19687052
-0.0962179 0.031617906 0.035243444 0.4157175 -0.045544628 0.28219628 -0.14704432 0.114225745
-0.042093247 -0.2075838 -0.29040238 0.1297593 0.016661685 -0.07010041 -0.051945742 -0.18397139
-0.0042053335 0.008721775 0.009925732 -0.04713723 -0.12326044 0.0036458406 0.38178933 -0.10542986
0.0913636 -0.0059901117 -0.08004593 -0.05812503 -0.054297432 -0.64913565 -0.012364018 -0.33065176
0.010872609 -0.006543851 -0.04592524 -0.9528893 -0.11868905 -0.7467815 -0.02466 0.23899269
-0.071312234 0.02371367 0.03300378 -0.46807605 -0.08836826 0.22031432 -0.117916316 -0.21470948
0.01973938 0.0063694734 -0.05294087 0.03205263 -0.21719272 -0.88427913 -0.010561647 -0.09167414
0.2545945 0.41656107 -0.2405245 0.06901305 0.015153181 -0.06801811 -0.11750356 -0.082912795
-0.30746406 -0.048164055 -0.20027839 0.22456856 0.22542517 -0.51382625 -0.4052547 0.30392054
0.25102624 0.020304903 -0.24790525 0.32762462 0.26979962 0.23760411 0.24798317 0.08101149
-0.14857508 0.0028563042 0.060899425 0.38472372 -0.076999106 -0.12472202 0.4174998 0.14939535
-0.0037412976 -0.00029915548 -0.044192288 -0.23412848 -0.14584629 -0.6061438 -0.0071080653 -0.24781404
-0.40397942 0.08952369 -0.007964988 -0.003013749 -0.0033124306 0.0016037719 -0.27298874 0.24798784
0.14273922 0.06672819 0.057335105 -0.041359376 -0.01053741 0.23407136 -0.13520868 -0.12721452
00000000: b985 113e 0ed5 b4bc 9f61 eebd 3e54 fbbe
00000010: 2ba8 c8bd 4085 c9be 8120 6339 ad9a 28bd
00000020: 9e43 0f3e 234d 9ebe 23c6 48be 65cf 5ebd
00000030: 91d8 7abd 5740 abbe 7be3 c5bc 09b6 d43e
00000040: 4829 b5bd 523f 4f3e f86d 14be 75b5 c5be
00000050: d1ee cfbc 9ebf 07bf b7e0 84be b48a 2cbd
00000060: eac3 0c3e 2974 0fbe a4a2 08be 3f59 a2be
00000070: d971 8fbb b2f7 b1be 0680 f4bd 1352 a33e
00000080: ef37 ddbb 6895 703c 6da5 dc3b e35c dc3e
00000090: bb6d 463d 0e14 e6bd a8ba dfbd 8882 bdbd
000000a0: b71d 543b 9c38 98bd ae94 093d aa71 6dbd
000000b0: e71b cf3d 9a57 4cbd e0c3 3cbf 0dc6 e7be
000000c0: 6e5f 83be f29f 8a3e 852d 87be 2cdb 80be
000000d0: b54f c83d 527a c1bd 4728 063e c273 b5bd
000000e0: e92b c6bc c27a dbbd bb36 2d3d d821 2cbf
000000f0: 4fd0 0abc a91a 8b3e 3675 5f3d 1d26 7c3e
00000100: 15d5 913c bca2 353e dad5 993d 46c6 463c
00000110: 8dcc b1bd e254 84bc a438 a1be 8c06 91be
00000120: 021a 833e 05e5 b3bc 8293 c8bd 7cb1 df3d
00000130: 66ef 773e 4124 bdbe de24 78be 4d77 cbbe
00000140: 611e 7aba c9d4 98ba bd80 8cbc 268f 5b3f
00000150: ed05 bc3e 15b8 c13d cd42 7dbd 5013 a93c
00000160: d203 db3c f39f c93e 7166 bdbc 35aa 80bb
00000170: 0e3f 513c 1d43 bb3a 9edc 99bd 6742 663f
00000180: 1805 47bc 72e5 883c f621 143d c673 99be
00000190: 6af9 b33d abc6 01be 954a dbbe cf6c cd3e
000001a0: 1885 d83c 80db 9bbd 491e cc3c a1bc ee3e
000001b0: f6e7 ba3d 8c30 c3bd 67db 81be b44a 1c3e
000001c0: 264c b7bc 5a2b b03c cafb 1ebe 1f49 f5bd
000001d0: 98ad b1be 7d51 babe c8f3 8cbd ebf6 09bd
000001e0: f0d3 85bd 0a08 61bd 2bd6 cfbe 131a 19be
000001f0: 3e61 0cbe f4e1 ab3c dff2 e73d 7b2e c33b
00000200: 7610 573d d251 d6bd 71d8 8a3d 2367 2e3f
00000210: 05ec afbe 8ecb 933d ca86 76bf f0d5 383d
00000220: cd56 433c add9 443c bd10 62bd 438d e3be
00000230: 4ff9 f7be d63d 94be 7a63 85be 6d98 493e
00000240: e40d c5bd c781 013d 6e5b 103d edd8 d43e
00000250: 018d 3abd 087c 903e c992 16be 30ef e93d
00000260: f869 2cbd d990 54be 9faf 94be 9fdf 043e
00000270: 167e 883c ce90 8fbd 0fc5 54bd ff62 3cbe
00000280: e5cc 89bb c7e5 0e3c 8a9f 223c f812 41bd
00000290: f86f fcbd 0eef 6e3b e479 c33e 9ceb d7bd
000002a0: d71c bb3d b348 c4bb 1fef a3bd 8314 6ebd
000002b0: fc66 5ebd c12d 26bf 7392 4abc 304b a9be
000002c0: 0723 323c cd6d d6bb 1b1c 3cbd 8ef0 73bf
000002d0: 3f13 f3bd 132d 3fbf c503 cabc 80ba 743e
000002e0: 260c 92bd 2c43 c23c f92e 073d aaa7 efbe
000002f0: 6bfa b4bd 149a 613e 1c7e f1bd cddc 5bbe
00000300: 7bb4 a13c 04b7 d03b 87d8 58bd 9e49 033d
00000310: c567 5ebe 1e60 62bf c20a 2dbc a7bf bbbd
00000320: 365a 823e 7e47 d53e 0e4c 76be b756 8d3d
00000330: 0c45 783c 144d 8bbd b5a5 f0bd 2fce a9bd
00000340: ee6b 9dbe ac47 45bd c715 4dbe 4df5 653e
00000350: dbd5 663e 1e8a 03bf 8b7d cfbe 799b 9b3e
00000360: 8386 803e 7856 a63c e0da 7dbe 6abe a73e
00000370: 2d23 8a3e 7e4e 733e 4def 7d3e 5ae9 a53d
00000380: 1124 18be d530 3b3b ad71 793d 82fa c43e
00000390: b5b1 9dbd 426e ffbd 89c2 d53e 18fb 183e
000003a0: 8f30 75bb f8d7 9cb9 f902 35bd 60bf 6fbe
000003b0: bb58 15be 3d2c 1bbf c6ea e8bb f7c2 7dbe
000003c0: 64d6 cebe 3258 b73d 957f 02bc 5182 45bb
000003d0: 5d15 59bb a835 d23a 2ec5 8bbe 86f0 7d3e
000003e0: 3b2a 123e caa8 883d 37d8 6a3d 7368 29bd
000003f0: 1aa5 2cbc 67b0 6f3e 2574 0abe 8644 02be

lc_encode.0.bias f4 [32]
-0.31489637 -0.33352384 -0.5545421 -0.50810266 -0.12397577 -0.15422752 -0.2864742 -0.17913665
0.022739297 -0.056116596 0.30673552 -0.21409556 -0.50025 -0.7037965 0.014548182 -0.15373933
0.15646239 -0.85169905 -0.16470541 0.15926217 -0.5773426 -0.22181773 -0.5220983 -0.1600666
-0.379436 0.06900266 0.07315904 -0.1553156 -0.19198747 -0.7726554 0.4032625 -0.13580954
00000000: 193a a1be a3c3 aabe 79f6 0dbf 0413 02bf
00000010: 02e7 fdbd d2ed 1dbe bfac 92be 996f 37be
00000020: c347 ba3c 84da 65bd 700c 9d3e de3b 5bbe
00000030: 6210 00bf 022c 34bf 7f5b 6e3c d86d 1dbe
00000040: ad37 203e f308 5abf 89a8 28be 9f15 233e
00000050: bacc 13bf 3024 63be 3ca8 05bf 80e8 23be
00000060: 6f45 c2be 4451 8d3d 68d4 953d 0d0b 1fbe
00000070: 5d98 44be bfcc 45bf 6c78 ce3e a811 0bbe

lc_encode.2.weight f4 [128, 32]
0.07125997 -0.12988248 0.011658335 0.02810793 -0.13541652 -0.1728247 0.13627094 -0.19933434
-0.16499673 -0.094915845 -0.19529338 -0.22044417 -0.06587907 -0.2773407 -0.052248023 -0.09536642
-0.17657997 -0.16137774 -0.08708221 -0.18230532 -0.15628967 -0.011907495 -0.04731375 0.032639157
-0.0014644101 -0.10105454 0.09111918 0.09518273 -0.0578717 -0.01854898 0.016209664 0.04615314
0.08449182 0.03495742 0.099317074 -0.008407163 -0.15427695 -0.28617343 0.052309338 -0.19995482
0.040748455 0.09042525 0.11177921 -0.102110706 -0.5804239 0.03557077 0.12560941 -0.050804812
-0.084608175 -0.026342643 -0.01991909 0.050753795 -0.08077386 -0.026690891 -0.09386006 -0.3381991
0.030971367 -0.119524896 -0.06774178 -0.109299935 -0.24892786 0.15810333 -0.059582934 -0.027574874
-0.13688041 -0.13185349 0.029649217 -0.013762907 0.069307394 0.005988632 -0.058064844 -0.00843028
-0.16674379 0.20313513 -0.21036485 0.074313164 -0.10679176 -0.111326 -0.12358122 0.10818342
-0.19227536 0.119611986 -0.101723425 0.002736429 -0.31752855 0.07326734 0.17687003 -0.31215587
-0.12818676 -0.17635375 0.08232394 -0.013350361 -0.1913931 -0.11197717 0.011099589 0.104443125
0.21793239 0.16842245 0.13009413 0.0042953514 -0.068265945 0.00035114976 0.14336336 -0.16599715
0.054014463 0.06429369 -0.054461252 -0.03865078 -0.03206856 0.1631489 -0.0111545175 -0.08301894
0.044206567 -0.033313893 0.17476335 0.23895831 0.11658596 0.1826401 0.010413089 -0.068476714
0.16605838 -0.07607204 -0.022391735 0.17759636 -0.06854579 -0.028990863 -0.012576548 -0.07558711
0.14944881 0.07919745 0.28456417 0.36499852 -0.027999084 0.08962371 0.28972125 -0.0085771
0.06896269 0.040559437 -0.1827623 -0.017962225 0.030221507 0.05212238 0.37112826 0.1772654
0.02246811 0.07391206 0.1801574 0.11392164 -0.067174144 0.2509614 0.2772864 -0.12036547
0.3428695 0.17552944 0.23561004 0.16615081 0.01378321 0.39524397 -0.02890183 0.020816017
0.09020505 0.17483057 0.21027865 0.018249927 0.007592962 -0.01425771 0.072033264 -0.014931886
-0.018170876 0.11932429 0.11849998 -0.05659917 -0.064787894 0.10432031 0.08629352 0.013531245
-0.1338821 0.14912352 -0.09744715 0.051784806 -0.040635474 0.13415504 -0.09643418 0.12845235
0.13917713 0.2291331 0.09390084 -0.09061667 0.04475593 -0.042776905 -0.042753782 -0.021353785
-0.023445686 -0.14006834 -0.20191836 -0.24111286 0.059073072 0.040041167 -0.21937424 -0.09233109
-0.07805831 -0.13453045 -0.03337716 -0.029197382 0.0009312501 0.0073298328 -0.29240257 -0.31667978
-0.04928156 -0.23438771 0.13631453 -0.34143865 -0.009350391 -0.05877565 -0.034083724 0.16361706
-0.016153969 -0.19655028 -0.17046364 -0.31504413 -0.0033302857 -0.16779798 -0.10210445 -0.17387263
-0.1373995 -0.0007414966 0.21788388 -0.18101208 -0.13441928 0.07031126 0.13909812 -0.102668114
-0.36877945 0.0797112 -0.08436547 -0.035496294 -0.20900664 0.059570484 0.09159094 0.1493598
0.08571855 -0.07250043 0.16092516 0.14567366 -0.074342586 0.014495885 0.00599456 -0.04621045
0.06846124 0.0008429301 -0.14459428 0.06951173 -0.11507241 -0.09563844 -0.088444926 -0.19840099
00000000: bff0 913d eaff 04be 9a02 3f3c 9a42 e63c
00000010: a1aa 0abe f5f8 30be 9c8a 0b3e 4d1e 4cbe
00000020: e7f4 28be 3d63 c2bd fdfa 47be 1ebc 61be
00000030: 9beb 86bd 9aff 8dbe 0602 56bd 784f c3bd
00000040: 61d1 34be 3540 25be 2858 b2bd 3fae 3abe
00000050: 660a 20be a717 43bc 10cc 41bd a3b0 053d
00000060: 73f1 bfba aff5 cebd b19c ba3d 2aef c23d
00000070: e00a 6dbd 08f4 97bc 21ca 843c 130b 3d3d
00000080: 0c0a ad3d 832f 0f3d c066 cb3d 33be 09bc
00000090: c7fa 1dbe 5385 92be 5142 563d f5c0 4cbe
000000a0: dae7 263d e030 b93d 80ec e43d 6b1f d1bd
000000b0: a996 14bf a8b2 113d c19f 003e b518 50bd
000000c0: 0d47 adbd 87cc d7bc 5c2d a3bc 36e3 4f3d
000000d0: c46c a5bd dba6 dabc b439 c0bd 6f28 adbe
000000e0: aab7 fd3c 78c9 f4bd 34bc 8abd a5d8 dfbd
000000f0: f2e6 7ebe d7e5 213e 3c0d 74bd b4e4 e1bc
00000100: 612a 0cbe 9a04 07be eae2 f23c d17d 61bc
00000110: 09f1 8d3d 493c c43b 67d5 6dbd 281f 0abc
00000120: e2be 2abe a802 503e e269 57be 8031 983d
00000130: a3b5 dabd e3fe e3bd 2718 fdbd 458f dd3d
00000140: d5e3 44be 21f7 f43d 5f54 d0bd a955 333b
00000150: 1a93 a2be 300d 963d 6b1d 353e e5d2 9fbe
00000160: 6443 03be 1496 34be 7499 a83d 79bb 5abc
00000170: 8efc 43be 4954 e5bd 0ddb 353c 47e6 d53d
00000180: ab29 5f3e ef76 2c3e 6537 053e 05c0 8c3b
00000190: 04cf 8bbd 861a b839 d8cd 123e 28fb 29be
000001a0: 453e 5d3d 69ac 833d c312 5fbd 4850 1ebd
000001b0: 535a 03bd 8110 273e 70c1 36bc d605 aabd
000001c0: f211 353d 2674 08bd 2af5 323e 7db1 743e
000001d0: 9fc4 ee3d 0206 3b3e a99b 2a3c 853d 8cbd
000001e0: 350b 2a3e a8cb 9bbd df6e b7bc d2db 353e
000001f0: bc61 8cbd 3f7e edbc de0d 4ebc 6acd 9abd
00000200: 1c09 193e 4632 a23d 65b2 913e 16e1 ba3e
00000210: 565e e5bc a38c b73d 5856 943e f786 0cbc
00000220: 503c 8d3d a721 263d 0a26 3bbe 8425 93bc
00000230: 1893 f73c 477e 553d 8604 be3e 1085 353e
00000240: 0b0f b83c 355f 973d 2e7b 383e c04f e93d
00000250: 9992 89bd 037e 803e 7cf8 8d3e 2c82 f6bd
00000260: 978c af3e fdbd 333e c243 713e 7023 2a3e
00000270: f9d2 613c 6b5d ca3e 88c3 ecbc 5a86 aa3c
00000280: 6dbd b83d c906 333e 4953 573e df80 953c
00000290: 62ce f83b 2c99 69bc 2d86 933d dfa4 74bc
000002a0: 17db 94bc 4b60 f43d 1eb0 f23d 88d4 67bd
000002b0: 84af 84bd e3a5 d53d a8ba b03d 28b2 5d3c
000002c0: 6418 09be d6b3 183e 5f92 c7bd 4e1c 543d
000002d0: 6271 26bd f05f 093e 497f c5bd 0389 033e
000002e0: 7384 0e3e dea1 6a3e 154f c03d 3c95 b9bd
000002f0: fe51 373d d636 2fbd 971e 2fbd 22ee aebc
00000300: 2b11 c0bc 136e 0fbe b0c3 4ebe 4ae6 76be
00000310: 9bf6 713d 3502 243d a4a3 60be 1518 bdbd
00000320: 09dd 9fbd 5ac2 09be 7db6 08bd 592f efbc
00000330: 231f 743a 182f f03b cab5 95be da23 a2be
00000340: 76db 49bd 5503 70be 0996 0b3e 0cd1 aebe
00000350: 6232 19bc bcbe 70bd 609b 0bbd 3b8b 273e
00000360: 5455 84bc 7a44 49be 058e 2ebe 774d a1be
00000370: ec40 5abb 3cd3 2bbe 231c d1bd ab0b 32be
00000380: 74b2 0cbe ff60 42ba f41c 5f3e 3b5b 39be
00000390: 35a5 09be 5aff 8f3d bd6f 0e3e a943 d2bd
000003a0: a9d0 bcbe a03f a33d cec7 acbd 9064 11bd
000003b0: d605 56be 2e00 743d 0894 bb3d c7f1 183e
000003c0: 358d af3d 1b7b 94bd 91c9 243e 7a2b 153e
000003d0: ed40 98bd 2680 6d3c 046e c43b 2b47 3dbd
000003e0: 6835 8c3d 15f8 5c3a 8610 14be 2a5c 8e3d
000003f0: 15ab ebbd 16de c3bd 9d22 b5bd a129 4bbe

lc_encode.2.bias f4 [128]
-0.07326891 -0.0058406363 -0.2610261 0.088928424 -0.4345459 -0.22973858 0.12708668 -0.32241848
-0.06465446 0.18497927 -0.076388605 -0.084983215 -0.051457666 -0.26523024 0.029927546 0.14506756
-0.15208916 0.052783072 -0.005170312 0.22220178 0.007832662 -0.01321588 -0.046757326 0.26459286
-0.13046008 0.043032188 -0.26140174 -0.2184166 -0.1531594 0.07528558 0.033664845 0.050911136
0.14712062 -0.17253987 -0.46453506 -0.26230127 -0.22605732 0.23399235 -0.18878986 0.11006714
-0.38319883 -0.11244173 -0.02687635 -0.07316336 0.20891392 -0.15015176 0.025833597 0.1589315
0.23492855 0.11173197 -0.04537347 -0.08318784 0.07868432 0.06599642 0.046061076 0.12168033
0.12447715 -0.0873585 -0.34825298 0.0038786621 -0.09304855 -0.056694575 -0.027165731 0.17147964
0.23360464 -0.1548896 0.11307128 -0.20129807 0.17778878 -0.029702125 -0.123272724 -0.2656943
-0.0842025 0.04925326 0.24690913 -0.11784164 0.012774286 -0.027634427 0.15778477 -0.055894528
0.006505515 -0.34012362 -0.017009959 -0.19313411 -0.15206146 -0.0052104234 0.031300146 -0.23697928
-0.14082228 -0.032243367 -0.07734405 0.07220294 -0.08611241 -0.112067774 -0.174667 0.30775228
-0.10649484 -0.024360454 -0.018613152 -0.03367697 0.044897463 -0.19876175 0.034969177 -0.2250569
0.07957524 -0.058197096 -0.12824604 0.1252585 0.03784742 0.052751824 -0.37642592 -0.034745973
-0.24899317 0.093805045 0.14147449 0.011464615 0.11695317 -0.21592617 0.007918568 -0.022272082
0.092395656 -0.039283145 -0.071033716 -0.1737736 -0.049853485 -0.0034962588 -0.14563839 -0.021734113
00000000: 030e 96bd cf62 bfbb 37a5 85be 1b20 b63d
00000010: cd7c debe 9740 6bbe 0323 023e 0914 a5be
00000020: 8f69 84bd 356b 3d3e a171 9cbd ae0b aebd
00000030: 46c5 52bd 42cc 87be 9d2a f53c 978c 143e
00000040: 43bd 1bbe 1033 583d b86b a9bb dd88 633e
00000050: 9154 003c 6b87 58bc 9c84 3fbd b778 873e
00000060: 5497 05be 8542 303d 73d6 85be 9aa8 5fbe
00000070: d1d5 1cbe 532f 9a3d 26e4 093d 3288 503d
00000080: caa6 163e 4bae 30be 8ad7 edbe 5a4c 86be
00000090: 927b 67be b19b 6f3e 2152 41be e16a e13d
000000a0: a332 c4be da47 e6bd cb2b dcbc acd6 95bd
000000b0: 88ed 553e 62c1 19be fba0 d33c f0be 223e
000000c0: 1c91 703e bbd3 e43d 88d9 39bd 635e aabd
000000d0: 3f25 a13d 2229 873d 8aaa 3c3d 8933 f93d
000000e0: e0ed fe3d 03e9 b2bd 374e b2be 2731 7e3b
000000f0: 3d90 bebd 9238 68bd ab8a debc 5c98 2f3e
00000100: 0e36 6f3e 619b 1ebe ea91 e73d 1521 4ebe
00000110: 430e 363e df51 f3bc 6976 fcbd 1509 88be
00000120: 5c72 acbd c9bd 493d bfd5 7c3e f556 f1bd
00000130: 3d4b 513c 9861 e2bc 5592 213e a9f1 64bd
00000140: 372c d53b af24 aebe 7858 8bbc f3c4 45be
00000150: 00b6 1bbe 33bc aabb 9534 003d b2aa 72be
00000160: b733 10be 9f11 04bd 8f66 9ebd 23df 933d
00000170: b45b b0bd ca83 e5bd e8db 32be b591 9d3e
00000180: f719 dabd 938f c7bc 9c7a 98bc ddf0 09bd
00000190: 67e6 373d 3388 4bbe d73b 0f3d 5175 66be
000001a0: 58f8 a23d 1460 6ebd ee52 03be c443 003e
000001b0: e505 1b3d 4c12 583d e6ba c0be cb51 0ebd
000001c0: 11f8 7ebe dc1c c03d b0de 103e 15d6 3b3c
000001d0: 2585 ef3d c01b 5dbe e2bc 013c f173 b6bc
000001e0: ef39 bd3d 5de7 20bd 207a 91bd b5f1 31be
000001f0: 2b33 4cbd 7d21 65bb 3b22 15be bd0b b2bc

convs.0.nn.0.weight f4 [128, 256]
0.15492815 0.08302756 0.14022659 -0.00028693373 -0.07866516 -0.07164722 0.11545166 0.027264768
-1.0203866 0.20873585 0.12546104 0.20097819 0.035465557 -0.031952277 0.00027251453 0.045438275
0.069573194 0.074460626 0.06900962 0.0682525 0.06645736 0.14982547 -0.0872803 -0.0127902115
0.12521556 0.106557965 0.0938114 0.15803082 0.1693252 -0.07158711 0.15477625 0.08545966
-0.042186048 0.08619414 -0.00032176854 -0.0038982672 0.028473722 0.09478485 -0.3048101 -0.024254838
-0.038234465 0.091969796 -0.11552853 0.059163235 -0.025397103 0.011264962 0.0755158 0.33520117
0.025684733 0.11284261 -0.1170459 0.1687223 0.08388829 0.12390183 0.10777516 0.09376385
-0.304135 0.11826353 0.2337646 -0.0138236275 0.10820883 0.10868546 -0.015978787 -0.049221195
0.08113727 0.054645445 -0.07324604 0.057724595 0.05405139 0.0044592964 0.09938815 0.006843915
-0.13599294 0.15730713 0.0005509611 0.07199507 0.1545069 0.07403138 -0.08834789 -0.023916693
0.35622606 -0.019389298 -0.0030879278 0.03605389 0.17350848 0.018963108 0.06975214 0.085020736
0.066207826 -0.016967205 0.17410192 0.098934986 -0.0029372778 0.05615738 0.005190697 -0.10263892
0.047890335 0.12502085 0.14596623 0.14122073 0.03788484 0.014556011 -0.012872369 -0.06430895
-0.4624777 -0.19817023 -0.0008837117 0.14729746 -0.048940253 0.15763113 0.10927364 0.17235723
0.10214531 0.1243419 0.06910632 0.14424819 -0.30673072 0.10685066 -0.019402992 0.06613794
-0.05189928 0.049244046 0.0041999174 0.0033932528 0.12212634 0.11223815 0.008662759 0.10536695
-0.027730823 0.033877622 0.01810036 0.0047541694 0.048760287 -0.0034110309 0.033192173 0.2307953
-0.17996009 -0.224623 0.06508028 0.013539651 0.08792604 -0.037091307 0.057655986 0.043421052
0.032745995 0.169306 0.018421387 0.54536134 -0.06860582 -0.06205762 0.06469281 -0.01456686
0.084985144 -0.056863528 0.02916952 -0.030858373 -0.08099593 0.05059261 -0.010993771 -0.5851431
-0.07995465 -0.048617564 0.036679637 0.016950745 -0.06105599 0.060855743 0.010050567 0.020156207
0.023862382 0.011968765 0.047419496 -0.007867563 -0.004724828 0.010020937 0.024027413 -0.11123729
0.004704927 0.058229025 0.13621657 -0.022520408 0.06270765 0.3117622 -0.011997477 0.030503705
0.0470173 -0.021723948 -0.063509785 0.14697888 0.080007106 -0.023112254 -0.01464483 0.049339768
0.032170013 -0.15611011 0.10288723 0.035287026 0.020103838 0.0069872565 0.057257295 0.013483563
0.15495045 0.16039102 0.03106422 -0.0008201551 -0.02222832 0.07135053 0.030384278 -0.07864787
-0.10634205 -0.020439312 0.0003625109 0.06574995 -0.028900838 0.059386957 -0.030343568 -0.09262766
0.003405309 -0.020285798 -0.024993213 -0.035406783 -0.02168775 0.022333186 0.0053818948 0.04755129
-0.030183978 -0.008544248 0.09729879 -0.005350362 -0.008207054 0.025681715 -0.0053129755 -0.02117277
-0.060072333 0.019305274 0.07833318 -0.0028156766 -0.018209923 0.028339086 0.09257715 0.019890044
0.36157483 0.2806667 0.25717038 -0.0057662376 -0.028573645 0.004445694 0.1424474 0.035809197
-0.26736113 -0.038620472 0.2313109 0.012283369 0.07044386 0.08414237 0.06922461 0.057722468
00000000: 7ca5 1e3e 5a0a aa3d 8f97 0f3e 986f 96b9
00000010: 331b a1bd c7bb 92bd eb71 ec3d 5d5a df3c
00000020: 079c 82bf dabe 553e dc78 003e 3acd 4d3e
00000030: 5544 113d 64e0 02bd 48e0 8e39 7c1d 3a3d
00000040: 647c 8e3d d07e 983d ea54 8d3d f7c7 8b3d
00000050: cc1a 883d d96b 193e 04c0 b2bd 098e 51bc
00000060: 8238 003e 103b da3d 3120 c03d d5d2 213e
00000070: 9663 2d3e 439c 92bd aa7d 1e3e 7905 af3d
00000080: 47cb 2cbd 8e86 b03d 0bb3 a8b9 127a 7fbb
00000090: b941 e93c 8f1e c23d 1210 9cbe 15b2 c6bc
000000a0: be9b 1cbd a95a bc3d 399a ecbd 2655 723d
000000b0: 960d d0bc ad90 383c 07a8 9a3d 7d9f ab3e
000000c0: ca68 d23c 071a e73d c3b5 efbd 8ac5 2c3e
000000d0: a0cd ab3d 3ec0 fd3d 39b9 dc3d 4307 c03d
000000e0: 95b7 9bbe 2634 f23d fd5f 6f3e 7f7c 62bc
000000f0: 979c dd3d 7c96 de3d f2e5 82bc 2a9c 49bd
00000100: 4c2b a63d e7d3 5f3d 0502 96bd a070 6c3d
00000110: fe64 5d3d 4a1f 923b 048c cb3d ec42 e03b
00000120: bc41 0bbe 1f15 213e 606e 103a 2772 933d
00000130: 0f37 1e3e c49d 973d bdef b4bd f1ec c3bc
00000140: 4363 b63e 4ed6 9ebc d55e 4abb 3ead 133d
00000150: 35ac 313e 8558 9b3c 36da 8e3d 5a1f ae3d
00000160: f897 873d cffe 8abc c647 323e 6d9e ca3d
00000170: 587f 40bb 4805 663d b916 aa3b 5b34 d2bd
00000180: a828 443d 7705 003e 2c78 153e 2b9c 103e
00000190: 222d 1b3d 567c 6e3c a1e6 52bc 69b4 83bd
000001a0: e1c9 ecbe 23ed 4abe e3a8 67ba 25d5 163e
000001b0: 9375 48bd 0e6a 213e dcca df3d 6a7e 303e
000001c0: 8f31 d13d f7a6 fe3d 9d87 8d3d ccb5 133e
000001d0: cf0b 9dbe 85d4 da3d 06f3 9ebc 5473 873d
000001e0: 5794 54bd 20b4 493d 769f 893b 5661 5e3b
000001f0: 601d fa3d 1ddd e53d 3fee 0d3c a1ca d73d
00000200: c02b e3bc 43c3 0a3d 3547 943c ddc8 9b3b
00000210: deb8 473d 9a8b 5fbb 84f4 073d 9a55 6c3e
00000220: 7547 38be 9203 66be cf48 853d 6ad5 5d3c
00000230: 9112 b43d 0eed 17bd af28 6c3d 46da 313d
00000240: aa20 063d 8d5e 2d3e 73e8 963c cd9c 0b3f
00000250: 3581 8cbd 2230 7ebd aa7d 843d d7a9 6ebc
00000260: b10c ae3d bbe9 68bd ebf4 ee3c b3ca fcbc
00000270: 32e1 a5bd 323a 4f3d 381f 34bc f0cb 15bf
00000280: 43bf a3bd 3623 47bd 633d 163d 4adc 8a3c
00000290: d915 7abd df43 793d 22ab 243c a11e a53c
000002a0: 0b7b c33c a418 443c f23a 423d f3e6 00bc
000002b0: bbd2 9abb db2e 243c 23d5 c43c 60d0 e3bd
000002c0: ca2b 9a3b 8f81 6e3d 5b7c 0b3e b87c b8bc
000002d0: de6c 803d 4c9f 9f3e 1191 44bc e8e2 f93c
000002e0: 3695 403d 6cf6 b1bc 6b11 82bd a281 163e
000002f0: c4da a33d e955 bdbc def0 6fbc 7f18 4a3d
00000300: b4c4 033d 54db 1fbe 8ab6 d23d 2189 103d
00000310: ceb0 a43c 5bf5 e43b a086 6a3d 2aea 5c3c
00000320: 55ab 1e3e 8b3d 243e 647a fe3c adff 56ba
00000330: 2a18 b6bc 3a20 923d 73e8 f83c 2212 a1bd
00000340: dcc9 d9bd 5870 a7bc 640f be39 e9a7 863d
00000350: 73c1 ecbc bd3f 733d 1393 f8bc 92b3 bdbd
00000360: 9b2b 5f3b 672e a6bc 91be ccbc b406 11bd
00000370: 82aa b1bc 16f4 b63c 9b5a b03b 24c5 423d
00000380: 6444 f7bc 2cfd 0bbc 9744 c73d 1752 afbb
00000390: e176 06bc 7662 d23c 7818 aebb 8472 adbc
000003a0: 680e 76bd 1826 9e3c 256d a03d 3787 38bb
000003b0: fa2c 95bc 5f27 e83c 1799 bd3d 72f0 a23c
000003c0: 5620 b93e 8cb3 8f3e d6ab 833e b5f2 bcbb
000003d0: 4713 eabc 2fad 913b bbdd 113e aaac 123d
000003e0: 8fe3 88be 8030 1ebd c4dc 6c3e 2f40 493c
000003f0: df44 903d d652 ac3d a2c5 8d3d 656e 6c3d

convs.0.nn.0.bias f4 [128]
-0.124221 0.23624064 0.65508497 0.13148995 -0.044748046 -0.20015623 -0.07789374 0.107137546
-0.1367543 -0.1976172 -0.03481562 0.06627774 -0.16996165 0.16774416 0.071125194 0.41583174
0.4086274 0.51382476 0.27493674 0.3735406 0.41034964 0.2730661 0.29379553 -0.15979838
0.08551998 -0.14749879 -0.03259455 -0.113399014 0.43058023 -0.10812787 0.1493902 -0.14577782
0.3102579 0.6585258 0.22888261 0.0008057671 0.44882804 0.27251184 -0.09029125 -0.14014061
0.09424517 0.124375515 -0.06695576 -0.20160937 -0.13942502 0.28940928 -0.045983877 -0.060971707
0.4075373 -0.17252947 0.3652316 -0.1345755 0.8132293 -0.19364513 0.48865804 -0.015570023
0.05723303 -0.19328885 -0.12721564 0.25900114 -0.019292034 -0.20198399 0.33110416 0.5198979
-0.1334874 0.5237 -0.056606885 -0.12308074 -0.18983248 -0.11301641 -0.08755214 -0.08238864
-0.22771356 -0.057460666 0.4251399 -0.18254405 0.56107205 -0.094860755 0.43846077 0.065131895
0.2809763 -0.30416584 -0.041912444 -0.17022982 0.48648262 0.3142699 0.24418901 -0.19303977
0.24369924 0.34151602 0.22822203 -0.053024977 0.12787853 -0.058643036 -0.06799216 -0.19741641
0.113351464 0.03447814 -0.08928897 -0.11669727 0.04659397 -0.047717053 -0.09431414 -0.103068
-0.15034306 -0.19891116 0.3290437 0.122543074 -0.11951238 0.4654105 -0.04100446 -0.17183933
-0.18340537 -0.15329744 0.12855522 -0.14434502 -0.20919208 -0.23731197 0.5608854 0.43290356
-0.12364218 0.088867605 -0.1543881 0.52692246 -0.19985303 0.25035596 -0.038845297 -0.08428858
00000000: 9467 febd 11e9 713e a6b3 273f 4da5 063e
00000010: ba49 37bd c1f5 4cbe c186 9fbd ee6a db3d
00000020: 5209 0cbe 2a5c 4abe d39a 0ebd a0bc 873d
00000030: 6d0a 2ebe 20c5 2b3e 16aa 913d e6e7 d43e
00000040: 9c37 d13e 058a 033f 82c4 8c3e b740 bf3e
00000050: 5919 d23e 52cf 8b3e 5e6c 963e 30a2 23be
00000060: 1925 af3d ec09 17be dd81 05bd be3d e8bd
00000070: 0375 dc3e 2572 ddbd bff9 183e c846 15be
00000080: 20da 9e3e 2695 283f 3460 6a3e 1d3a 533a
00000090: cacc e53e ac86 8b3e 9eea b8bd 0581 0fbe
000000a0: 9d03 c13d 97b8 fe3d 1a20 89bd b072 4ebe
000000b0: 6fc5 0ebe 742d 943e 9759 3cbd 78bd 79bd
000000c0: bba8 d03e 91ab 30be a3ff ba3e 29ce 09be
000000d0: cc2f 503f e94a 46be 6331 fa3e 6919 7fbc
000000e0: 2f6d 6a3d 83ed 45be d144 02be cc9b 843e
000000f0: 540a 9ebc e4d4 4ebe 7c86 a93e 0718 053f
00000100: ecb0 08be 3411 063f 9fdc 67bd c111 fcbd
00000110: 7263 42be 2675 e7bd 894e b3bd 60bb a8bd
00000120: be2d 69be e05b 6bbd f0ab d93e d4ec 3abe
00000130: 6ba2 0f3f 5b46 c2bd ee7d e03e df63 853d
00000140: 20dc 8f3e a0bb 9bbe 62ac 2bbd ba50 2ebe
00000150: 4014 f93e fce7 a03e af0c 7a3e 38ac 45be
00000160: 4b8c 793e 30db ae3e 09b3 693e b830 59bd
00000170: 97f2 023e ae33 70bd 793f 8bbd 8727 4abe
00000180: d024 e83d f338 0d3d 23dd b6bd fafe eebd
00000190: 52d9 3e3d f572 43bd c627 c1bd 5115 d3bd
000001a0: 88f3 19be 5eaf 4bbe 6a78 a83e ddf7 fa3d
000001b0: e8c2 f4bd 494a ee3e 4bf4 27bd a6f6 2fbe
000001c0: 9ece 3bbe 01fa 1cbe fba3 033e 2ecf 13be
000001d0: 7336 56be e901 73be 3096 0f3f 89a5 dd3e
000001e0: 1c38 fdbd 3800 b63d ea17 1ebe 64e4 063f
000001f0: 46a6 4cbe a82e 803e 3f1c 1fbd 7e9f acbd

convs.0.nn.2.weight f4 [128]
0.8029633 0.541579 0.43502006 0.59013647 0.2467468 0.5463406 0.6369199 0.29864144
0.27424884 0.71927124 0.82009214 0.5399746 1.0218288 0.3852666 0.3474903 0.29457796
0.36611915 0.384317 0.42166644 0.3735696 0.41991776 0.38151357 0.35867375 0.6397346
0.38816035 0.36554092 0.44364703 0.34154564 0.39207783 0.33473393 0.2169801 0.09876874
0.2960201 0.29383004 0.35298175 0.3468852 0.28419876 0.65882134 0.3525826 0.7491593
0.3869885 0.49585375 0.60747623 0.86086774 0.7426953 0.36415964 0.17327479 0.4715618
0.34592882 0.5882488 0.3481693 0.707919 0.3400412 0.60990316 0.32027823 0.69815147
0.5753492 0.6799346 0.6230101 0.47318572 0.53817654 0.3311242 0.38816524 0.35112232
0.51608133 0.39737153 0.22061665 0.6982189 0.42119688 0.52963185 0.4372395 0.53152984
0.68517643 0.48186326 0.27469897 0.7289725 0.23864111 0.67599875 0.3276347 0.39391968
0.38351017 0.5341295 0.26458305 0.69280237 0.36570904 0.252068 0.32847506 0.5876704
0.32503816 0.5325346 0.13973185 0.8854043 0.47710308 0.1797207 0.32076064 0.57835805
0.17947367 0.30329847 0.4179089 0.6519507 0.57225865 0.42217734 0.7449377 0.5436751
0.664922 0.41673556 0.8020017 0.23353904 0.96238166 0.41734695 0.5584002 0.89927787
0.39356643 0.23993881 0.58208835 0.8750512 1.0852854 0.97261167 0.34475678 0.3943396
0.81198597 0.43718457 0.6667473 0.3458818 0.42921647 0.2543134 1.0851799 0.37105715
00000000: 018f 4d3f eca4 0a3f f3ba de3e 2f13 173f
00000010: 31ab 7c3e fadc 0b3f 2f0d 233f 88e7 983e
00000020: 586a 8c3e 2922 383f 8ff1 513f c63b 0a3f
00000030: 49cb 823f aa41 c53e 40ea b13e ecd2 963e
00000040: f873 bb3e 33c5 c43e aae4 d73e 8444 bf3e
00000050: 76ff d63e bf55 c33e 16a4 b73e a6c5 233f
00000060: f4bc c63e 2e28 bb3e b425 e33e 12df ae3e
00000070: 6dbe c83e 3f62 ab3e 0830 5e3e 4447 ca3d
00000080: f28f 973e e470 963e 06ba b43e f09a b13e
00000090: 8082 913e 84a8 283f b585 b43e e7c8 3f3f
000000a0: 5b23 c63e 8be0 fd3e 9083 1b3f d461 5c3f
000000b0: 4721 3e3f 2273 ba3e f26e 313e 8c70 f13e
000000c0: 951d b13e 7997 163f 3f43 b23e 2e3a 353f
000000d0: e119 ae3e 9d22 1c3f 82fb a33e 0eba 323f
000000e0: 164a 133f 3210 2e3f 977d 1f3f 6645 f23e
000000f0: f0c5 093f 1c89 a93e 98bd c63e 4ec6 b33e
00000100: e81d 043f 4874 cb3e 55e9 613e 79be 323f
00000110: 1ea7 d73e f495 073f dbdd df3e 5712 083f
00000120: b967 2f3f c8b6 f63e 58a5 8c3e f19d 3a3f
00000130: 565e 743e 410e 2d3f bcbf a73e d7af c93e
00000140: 725b c43e b6bc 083f 6e77 873e 7f5b 313f
00000150: 373e bb3e 0f0f 813e e22d a83e 9171 163f
00000160: 676b a63e 3054 083f de15 0f3e dba9 623f
00000170: db46 f43e b408 383e bd3a a43e 460f 143f
00000180: f2c7 373e f049 9b3e 28f8 d53e 3ee6 263f
00000190: 8b7f 123f a127 d83e 3db4 3e3f 4b2e 0b3f
000001a0: 5438 2a3f 5d5e d53e fc4f 4d3f dc24 6f3e
000001b0: a55e 763f 80ae d53e 51f3 0e3f 1337 663f
000001c0: 8a81 c93e 85b2 753e be03 153f 5b03 603f
000001d0: a2ea 8a3f 14fd 783f f683 b03e e1e6 c93e
000001e0: 50de 4f3f a8d6 df3e f3af 2a3f 6b17 b13e
000001f0: 43c2 db3e 5e35 823e 2de7 8a3f 34fb bd3e

convs.0.nn.2.bias f4 [128]
0.3367431 -0.15427147 -0.4589488 -0.26363423 0.1635708 0.20084323 0.30016938 -0.12365089
0.16799912 0.097750485 0.64771724 0.49456662 0.00020087644 0.21389109 0.44508833 -0.11319227
-0.19555917 -0.19992003 -0.07655585 -0.29366845 -0.21533503 -0.23390988 0.022831926 0.00413317
-0.038359083 0.28788733 0.33409357 0.20249553 -0.22113605 0.46472922 0.2467872 -0.06477333
0.07787629 0.052897908 0.5489068 0.5699647 -0.074811205 1.008201 0.043609932 0.06861923
0.28732336 -0.3136314 0.11932132 0.06526281 0.10791694 0.13361418 0.10396801 0.035327964
-0.2280328 0.17674823 -0.18851128 0.049613714 -0.1096926 -0.0015128781 -0.088120945 0.6689044
0.5229219 0.0030224817 0.35582522 0.43245122 0.24610983 0.25211182 0.10074539 -0.024391942
0.055725787 0.32887644 0.38350227 0.06779768 0.25225192 0.056059547 0.19315326 0.26383933
0.32069483 -0.15530817 0.12691383 -0.18360415 -0.0763611 0.2829621 -0.091947496 0.22030427
0.31588498 0.5034533 0.0051210183 0.27968433 -0.11631245 0.27194822 -0.10887891 0.051177103
-0.08869961 -0.3101517 0.18294068 0.70208526 -0.4756671 0.015214409 0.20451802 0.062137347
0.1654665 0.13027112 0.15473342 0.010679571 1.0333992 0.32416835 0.18384711 0.45256722
0.14366806 0.26416236 0.06115371 -0.06924833 0.9164271 -0.15228789 0.2980201 0.0008344664
0.29512048 0.056993045 0.743805 0.5165952 0.5399609 0.5372999 0.48540843 -0.05861548
0.058684673 0.2845543 0.036315493 0.5613404 0.34885558 -0.026593257 0.96759933 0.18572472
00000000: 9769 ac3e 57f9 1dbe 56fb eabe 11fb 86be
00000010: 1b7f 273e d9a9 4d3e cdaf 993e ae3c fdbd
00000020: f607 2c3e 6831 c83d ccd0 253f d637 fd3e
00000030: 5ca2 5239 4406 5b3e 9ee2 e33e 59d1 e7bd
00000040: aa40 48be d6b7 4cbe 50c9 9cbd b65b 96be
00000050: c980 5cbe 1286 6fbe 050a bb3c 8b6f 873b
00000060: 6a1e 1dbd f865 933e 500e ab3e fd5a 4f3e
00000070: 7d71 62be fdf0 ed3e c9b5 7c3e e1a7 84bd
00000080: 9b7d 9f3d 7aab 583d 2885 0c3f 35e9 113f
00000090: 9e36 99bd bb0c 813f 54a0 323d 3d88 8c3d
000000a0: 0c1c 933e 4b94 a0be bc5e f43d 82a8 853d
000000b0: 8e03 dd3d 28d2 083e 2eed d43d 0eb4 103d
000000c0: 6e81 69be 7dfd 343e 1a09 41be c037 4b3d
000000d0: 84a6 e0bd c44b c6ba c178 b4bd 523d 2b3f
000000e0: 36de 053f d414 463b b92e b63e 3f6a dd3e
000000f0: 3704 7c3e cd14 813e 9953 ce3d 9cd1 c7bc
00000100: b940 643d 7e62 a83e 695a c43e 83d9 8a3d
00000110: 2a27 813e b29e 653d f8c9 453e f315 873e
00000120: 1d32 a43e 1b09 1fbe b3f5 013e ba02 3cbe
00000130: 3563 9cbd 69e0 903e f84e bcbd 7197 613e
00000140: adbb a13e 51e2 003f 37ce a73b c932 8f3e
00000150: 3935 eebd cc3c 8b3e e8fb debd 159f 513d
00000160: 24a8 b5bd 34cc 9ebe cd54 3b3e dcbb 333f
00000170: a38a f3be db45 793c 2c6d 513e bb83 7e3d
00000180: 0d70 293e cb65 053e 7072 1e3e 5ef9 2e3c
00000190: 6d46 843f 65f9 a53e 6b42 3c3e e4b6 e73e
000001a0: b81d 133e 4a40 873e 507c 7a3d 12d2 8dbd
000001b0: f79a 6a3f 5bf1 1bbe 1796 983e 18c0 5a3a
000001c0: 081a 973e 8a71 693d 016a 3e3f 953f 043f
000001d0: e13a 0a3f 7c8c 093f 7487 f83e c916 70bd
000001e0: 575f 703d 1ab1 913e 8ebf 143d 01b4 0f3f
000001f0: 339d b23e 1ada d9bc 97b4 773f 9f2e 3e3e

convs.0.nn.2.running_mean f4 [128]
-0.99775106 10.962703 24.73443 6.8483663 -0.57072675 -0.9957272 -0.98593163 8.939957
-0.9964697 -0.9996989 -0.8474594 0.68642765 -0.9998416 6.150231 2.3175771 11.035446
17.084711 21.15395 8.483064 15.648934 15.066213 3.2547257 9.414018 -0.9997401
4.8754473 -0.97364503 -0.9935529 -0.9889217 17.514889 -0.8118085 2.2265897 -0.9703428
4.5065093 27.565464 12.871295 0.935399 11.863711 6.840451 -0.99957263 -0.99936366
5.497629 5.885729 -0.9994629 -0.9999997 -0.99923277 6.1840844 -0.59157926 -0.9998238
14.91608 -0.9996287 14.664681 -0.9993671 26.591429 -0.99993247 19.303965 -0.1149654
1.3212612 -0.99999255 -0.9971941 2.2755494 -0.9001317 -0.993014 11.281993 21.513853
-0.9982988 19.030416 -0.7299312 -0.9993662 -0.9979017 -0.9962377 -0.436067 -0.76750326
-0.99351716 2.8086762 20.131475 -0.99990875 18.053946 -0.9999288 16.80358 -0.3415983
12.281452 -0.9750629 -0.6344233 -0.85259 13.1983795 15.234116 11.692841 -0.99929714
9.360913 9.646817 11.026411 -0.90493053 4.9154253 -0.8530546 -0.9696667 -0.9996838
6.5637445 2.2291775 -0.99403125 -0.9996255 2.2088244 -0.637802 -0.99990237 -0.9506681
-0.99852055 -0.9840051 11.384708 9.334245 -0.015152737 15.480068 -0.9967816 -0.9996656
-0.99567467 -0.99892753 0.41047955 -0.99421936 -0.99803036 -0.9974379 8.734069 18.156212
-0.99923444 18.10903 -0.99925363 24.098734 -0.9931587 15.795735 -0.6122954 -0.99372476
00000000: 9d6c 7fbf 3b67 2f41 1de0 c541 d125 db40
00000010: 261b 12bf fae7 7ebf 0466 7cbf 100a 0f41
00000020: a318 7fbf 44ec 7fbf 19f3 58bf b9b9 2f3f
00000030: 9ef5 7fbf b1ce c440 2f53 1440 3091 3041
00000040: 7dad 8841 4a3b a941 a1ba 0741 0962 7a41
00000050: 350f 7141 6d4d 5040 d19f 1641 f8ee 7fbf
00000060: aa03 9c40 cd40 79bf 7c59 7ebf f929 7dbf
00000070: 7e1e 8c41 afd2 4fbf 7280 0e40 6368 78bf
00000080: 5335 9040 1286 dc41 d3f0 4d41 4f76 6f3f
00000090: c3d1 3d41 f9e4 da40 fee3 7fbf 4cd6 7fbf
000000a0: 94ec af40 e457 bc40 cddc 7fbf fbff 7fbf
000000b0: b8cd 7fbf 05e4 c540 bd71 17bf 74f4 7fbf
000000c0: 44a8 6e41 abe7 7fbf 89a2 6a41 86d6 7fbf
000000d0: 3fbb d441 93fb 7fbf 856e 9a41 fb72 ebbd
000000e0: 161f a93f 83ff 7fbf 1d48 7fbf 9aa2 1140
000000f0: 086f 66bf 2a36 7ebf 0b83 3441 5f1c ac41
00000100: 8390 7fbf 4b3e 9841 c5dc 3abf 77d6 7fbf
00000110: 7c76 7fbf 6f09 7fbf 2c44 dfbe 187b 44bf
00000120: 2457 7ebf 5ac1 3340 430d a141 05fa 7fbf
00000130: 7b6e 9041 55fb 7fbf bb6d 8641 f9e5 aebe
00000140: d480 4441 b99d 79bf 9169 22bf 5743 5abf
00000150: 902c 5341 f0be 7341 e015 3b41 f0d1 7fbf
00000160: 4dc6 1541 5d59 1a41 2e6c 3041 87a9 67bf
00000170: 2a4b 9d40 c961 5abf 143c 78bf 47eb 7fbf
00000180: 320a d240 d8aa 0e40 d578 7ebf 75e7 7fbf
00000190: 615d 0d40 fe46 23bf 9af9 7fbf fc5e 73bf
000001a0: 0b9f 7fbf c2e7 7bbf c427 3641 1159 1541
000001b0: 2f43 78bc 5cae 7741 142d 7fbf 16ea 7fbf
000001c0: 89e4 7ebf b7b9 7fbf 602a d23e 2985 7ebf
000001d0: eb7e 7fbf 1758 7fbf bfbe 0b41 ec3f 9141
000001e0: d4cd 7fbf 4bdf 9041 16cf 7fbf 35ca c041
000001f0: a63f 7ebf 55bb 7c41 64bf 1cbf bf64 7ebf

convs.0.nn.2.running_var f4 [128]
2.5552143e-05 1.8637414 2.1353786 1.1522796 0.39774382 0.00025230172 0.0007233368 1.2816806
3.833013e-05 1.7944247e-07 0.08221636 0.8541692 7.58381e-08 1.1618414 0.8624853 1.1649741
1.481631 1.3553683 1.7590717 1.0876365 1.2057106 2.0182917 1.4968035 3.7311395e-08
1.5224613 0.000818429 0.00027324632 0.0001601565 2.9908366 0.029456194 0.6379816 0.023370165
1.0938362 1.510072 1.1822058 1.0035791 0.92976934 4.34725 3.4738036e-07 1.2693052e-07
5.3945475 3.014172 2.644681e-07 2.9347239e-13 4.4968294e-07 1.0093027 0.19843683 1.7792938e-07
1.6870452 9.693087e-06 1.578431 1.9005911e-07 1.1470923 1.001942e-08 0.5215951 1.3342568
5.14887 2.778893e-10 6.0799466e-05 1.5424596 0.12904535 0.0032854814 0.88655585 1.1797373
8.851189e-07 1.9631299 0.10988595 3.4431952e-07 4.94256e-06 0.0011904095 1.2180848 0.040745158
9.818188e-05 1.4445977 1.3695745 8.609124e-08 1.2745324 1.4578008e-08 1.2724576 0.9197097
1.3489268 0.00058586587 0.2787139 0.87906367 1.3363832 0.72577965 1.2144674 1.1439334e-06
1.6923592 1.0860794 1.8821414 0.010830459 2.8059037 0.08447151 0.0065857037 8.466702e-08
1.524251 2.3533044 0.00021701364 8.611806e-08 1.5891366 0.6948108 8.685937e-09 0.006309015
2.8165507e-05 0.000965684 4.210877 1.1080904 1.4541546 2.3578436 3.404091e-05 9.961682e-08
0.00010284189 8.310941e-05 1.0414062 6.966882e-05 2.5658392e-05 2.0224146e-05 2.4633174 2.2510607
1.0771013e-05 1.3025604 2.856793e-07 1.563888 0.0026626084 4.0352015 0.25647452 0.0024558802
00000000: cf58 d637 148f ee3f 0baa 0840 e67d 933f
00000010: 14a5 cb3e 5d47 8439 509e 3d3a 1c0e a43f
00000020: aac4 2038 c5ac 4034 0d61 a83d d5aa 5a3f
00000030: 70dc a233 38b7 943f d6cb 5c3f df1d 953f
00000040: 16a6 bd3f b57c ad3f 4329 e13f ac37 8b3f
00000050: ba54 9a3f b12b 0140 4297 bf3f 5040 2033
00000060: 03e0 c23f d78b 563a 8042 8f39 afef 2739
00000070: de69 3f40 1e4e f13c c352 233f ca72 bf3c
00000080: d302 8c3f 0a4a c13f 8552 973f 4875 803f
00000090: 5d05 6e3f ac1c 8b40 987f ba34 654a 0834
000000a0: 22a0 ac40 32e8 4040 38fc 8d34 d435 a52a
000000b0: f46b f134 d530 813f 0633 4b3e db0c 3f34
000000c0: 19f1 d73f 7e9f 2237 070a ca3f 0d13 4c34
000000d0: ecd3 923f e021 2c32 4287 053f edc8 aa3f
000000e0: 8bc3 a440 71c5 982f ee02 7f38 516f c53f
000000f0: 7724 043e 3b51 573b 53f5 623f a201 973f
00000100: e898 6d35 d747 fb3f e30b e13d eada b834
00000110: 44d8 a536 8407 9c3a 34ea 9b3f 65e4 263d
00000120: ffe6 cd38 94e8 b83f 384e af3f 29e1 b833
00000130: e123 a33f c272 7a32 e4df a23f 1872 6b3f
00000140: a2a9 ac3f cb94 193a 97b3 8e3e 510a 613f
00000150: 9b0e ab3f b2cc 393f ab73 9b3f 4189 9935
00000160: 3a9f d83f a604 8b3f 02ea f03f 3d72 313c
00000170: ed93 3340 66ff ac3d e3cc d73b 30d2 b533
00000180: a81a c33f 8a9c 1640 288e 6339 e7ef b833
00000190: d468 cb3f 1fdf 313f 2839 1532 dbbb ce3b
000001a0: f744 ec37 f525 7d3a 81bf 8640 e8d5 8d3f
000001b0: bd21 ba3f e9e6 1640 26c7 0e38 edec d533
000001c0: d2ac d738 064b ae38 cc4c 853f 2a1b 9238
000001d0: fa3c d737 06a7 a937 fea6 1d40 6111 1040
000001e0: 26b5 3437 4dba a63f 775f 9934 7b2d c83f
000001f0: 287f 2e3b 5f20 8140 a150 833e d5f2 203b

convs.1.nn.0.weight f4 [128, 256]
-0.37889093 0.14533493 -0.4022664 0.007508986 0.013076713 0.07435928 -0.17691252 -0.21636727
0.05905192 -0.12563448 0.15511389 -0.08077732 -0.2196589 -0.036505613 -0.005933719 0.74438435
-0.32488298 0.09374286 -0.13256277 -0.370755 -0.20614131 0.262697 -0.09933413 0.048849445
-0.07702247 0.0038760146 -0.03116433 0.0009749205 -0.02993728 0.00845009 0.25779045 -0.04749895
-0.18327118 -0.22572818 0.008540453 0.05843119 -0.34963632 0.024343714 -0.075766176 -0.013782657
0.24339011 0.31047672 0.049448404 -0.55316246 0.0155591965 -0.11510807 -0.11841697 0.061931286
-0.20251448 -0.16868494 0.10397375 0.19348626 -0.21482344 -0.06509009 0.038203076 0.09878275
-0.01178262 -0.4113728 0.0007290783 -0.1007982 0.12992375 -0.024473565 -0.074033216 -0.2489331
-0.038821235 -0.018492162 -0.028702468 0.21136253 0.018231915 0.05591997 0.011820614 0.040686283
0.06654109 -0.08630591 0.17104894 -0.046215985 -0.034287274 0.013739993 0.116334096 -0.045439653
-0.10324662 0.0691886 -0.030856624 0.04920127 0.4160261 -0.14568098 -0.18912143 -0.21890299
-0.06057124 -0.17973958 -0.070778295 -0.08567822 -0.03614165 0.036274254 0.17301132 -0.07175162
0.049015343 0.20019948 0.15382265 -0.10773387 0.10983017 0.1824068 0.03586024 -0.05185103
0.09901321 0.17261307 0.0055229836 -0.12129582 0.046148006 -0.29860818 -0.024475385 -0.42762047
0.099087335 -0.06146001 0.043837756 0.042270474 -0.0071935705 -0.02435766 0.099765986 -0.06684007
0.04434237 -0.044185013 0.2499837 -0.22716384 0.1056704 -0.20748378 0.27120176 -0.00035319815
0.22724716 -0.019275013 -0.12222225 0.13214388 -0.05108106 -0.018794093 0.29327935 -0.21966599
-0.67615175 -0.6085149 -0.0739262 -0.08604967 -0.58473605 0.069264404 -0.11182978 0.4632346
-0.16004045 0.28302896 -0.08065454 -0.23446791 -0.22003804 0.45362318 -0.25258964 -0.6027462
-0.026893545 -0.13022298 -0.015817799 -0.12109695 -0.07370785 -0.13212511 0.2138809 -0.08827677
0.18766513 -0.015770078 0.8358947 0.078650445 -0.110545866 0.44382527 -0.13705792 0.18175475
0.28993776 0.34783792 -0.17773981 0.092595346 -0.027917445 -0.3631225 -0.27212095 0.5628514
-0.21936527 0.09175521 0.14032203 0.42703295 0.041731294 0.12730734 0.031389207 -0.36893055
0.05356229 0.041957982 -0.2713762 0.087098435 -0.36300245 -0.009962489 -0.059490852 0.030913174
-0.108086005 -0.16748576 -0.27874482 0.059884936 0.51523614 -0.027407758 -0.093307495 -0.24457958
0.004593362 -0.013587681 0.37855992 0.032866716 0.011686939 0.16196765 -0.17003618 0.041072745
-0.0055765593 0.6794546 0.052335195 -0.08767653 0.43920082 -0.16860081 -0.15210876 -0.4188989
-0.08832636 0.12436028 0.38065228 0.03059785 -0.12237818 -0.2649425 0.29508007 -0.7406207
0.34212974 0.05403219 0.12571996 -0.4357626 0.21343254 0.15735734 -0.37777326 0.15430579
-0.41909367 -0.3445481 0.11151318 -0.062555306 -0.25577688 -0.16933003 0.05995344 -0.2687852
0.09492062 0.30435973 0.0020233248 0.26685256 -0.03150688 -0.328693 0.17485109 0.0416876
-0.049647324 -0.085916854 0.099494554 0.10389597 0.18473573 0.5051242 -0.03739492 0.017836241
00000000: fefd c1be aed2 143e ddf5 cdbe f10d f63b
00000010: b63f 563c ae49 983d 8e28 35be 628f 5dbe
00000020: 6de0 713d 53a6 00be 2dd6 1e3e 946e a5bd
00000030: 43ee 60be e986 15bd a56f c2bb f98f 3e3f
00000040: 1057 a6be 42fc bf3d 89be 07be 99d3 bdbe
00000050: b516 53be 3980 863e b16f cbbd 5b16 483d
00000060: f5bd 9dbd bc04 7e3b 564c ffbc cf91 7f3a
00000070: 073f f5bc 3f72 0a3c 1cfd 833e 428e 42bd
00000080: 71ab 3bbe 4a25 67be 42ed 0b3c 8b55 6f3d
00000090: 8803 b3be 786c c73c 4c2b 9bbd a7d0 61bc
000000a0: 423b 793e cef6 9e3e 698a 4a3d 0e9c 0dbf
000000b0: 00ec 7e3c c8bd ebbd 9984 f2bd a9ab 7d3d
000000c0: f55f 4fbe bfbb 2cbe 30f0 d43d 4321 463e
000000d0: adfa 5bbe f44d 85bd d47a 1c3d 9c4e ca3d
000000e0: e40b 41bc 759f d2be 9e1f 3f3a 496f cebd
000000f0: bb0a 053e c97c c8bc ba9e 97bd 52e8 7ebe
00000100: 0403 1fbd e07c 97bc 7021 ebbc 6b6f 583e
00000110: 195b 953c 570c 653d 40ab 413c a9a6 263d
00000120: b246 883d 27c1 b0bd 7427 2f3e f94c 3dbd
00000130: d070 0cbd b51d 613c 9240 ee3d ee1e 3abd
00000140: f772 d3bd c1b2 8d3d 08c7 fcbc 4587 493d
00000150: 5f01 d53e 652d 15be 0ca9 41be 1b28 60be
00000160: 8c19 78bd a70d 38be 36f4 90bd 1078 afbd
00000170: 4409 14bd 5094 143d e129 313e 83f2 92bd
00000180: 50c4 483d 1801 4d3e af83 1d3e 93a3 dcbd
00000190: a4ee e03d d9c8 3a3e 30e2 123d bf61 54bd
000001a0: 70c7 ca3d 7bc1 303e 25fa b43b f169 f8bd
000001b0: b105 3d3d 2ce3 98be 9a80 c8bc 12f1 dabe
000001c0: 4dee ca3d 7ebd 7bbd 388f 333d ce23 2d3d
000001d0: 0bb8 ebbb b789 c7bc 1c52 cc3d 72e3 88bd
000001e0: 58a0 353d 58fb 34bd bafb 7f3e a39d 68be
000001f0: b969 d83d a176 54be f5da 8a3e 742d b9b9
00000200: 7bb3 683e a2e6 9dbc a94f fabd ba50 073e
00000210: 603a 51bd 12f6 99bc b628 963e 1ff0 60be
00000220: 4818 2dbf a2c7 1bbf 9f66 97bd cf3a b0bd
00000230: 43b1 15bf 7fda 8d3d 0307 e5bd 162d ed3e
00000240: a5e1 23be 2ce9 903e 352e a5bd 5b18 70be
00000250: a751 61be 4c41 e83e 6e53 81be 934d 1abf
00000260: da4f dcbc 2c59 05be 5494 81bc ad01 f8bd
00000270: 24f4 96bd ce4b 07be 9803 5b3e 74ca b4bd
00000280: 4a2b 403e 4030 81bc 32fd 553f 7c13 a13d
00000290: df65 e2bd 113d e33e e958 0cbe eb1d 3a3e
000002a0: b972 943e d017 b23e 6d01 36be a1a2 bd3d
000002b0: 20b3 e4bc 31eb b9be 7053 8bbe 0817 103f
000002c0: 4aa1 60be 28ea bb3d 94b0 0f3e 10a4 da3e
000002d0: 6fee 2a3d db5c 023e f891 003d 77e4 bcbe
000002e0: 2264 5b3d 22dc 2b3d d2f1 8abe aa60 b23d
000002f0: 75db b9be b539 23bc aeac 73bd a03d fd3c
00000300: 325c ddbd 6381 2bbe a4b7 8ebe e849 753d
00000310: 84e6 033f 3c86 e0bc 0018 bfbd 1273 7abe
00000320: ea83 963b dd9e 5ebc 9bd2 c13e 409f 063d
00000330: 937a 3f3c d9da 253e f71d 2ebe e53b 283d
00000340: 92bb b6bb bdf0 2d3f 6e5d 563d c18f b3bd
00000350: eede e03e b1a5 2cbe 66c2 1bbe eb79 d6be
00000360: 73e4 b4bd 9ab0 fe3d dbe4 c23e 58a8 fa3c
00000370: 69a1 fabd 8ba6 87be bc14 973e 5199 3dbf
00000380: a12b af3e dc50 5d3d bcbc 003e 471c dfbe
00000390: 0f8e 5a3e 4822 213e 7f6b c1be 5602 1e3e
000003a0: 7293 d6be 9c68 b0be 0661 e43d ff1c 80bd
000003b0: 30f5 82be da64 2dbe bd91 753d 379e 89be
000003c0: be65 c23d 0ad5 9b3e c299 043b e6a0 883e
000003d0: 5c0d 01bd 734a a8be 2a0c 333e 9ec0 2a3d
000003e0: fe5a 4bbd 2df5 afbd cdc3 cb3d 69c7 d43d
000003f0: 5d2b 3d3e d24f 013f 6a2b 19bd 4f1d 923c

convs.1.nn.0.bias f4 [128]
0.52605736 0.47356775 0.068896756 -0.095768936 -0.11532785 -0.31293458 -0.2760292 -0.08223492
0.047829654 -0.09124302 -0.36143023 -0.17595084 0.66400087 0.4437763 0.027455201 -0.12762816
0.29425278 -0.093603335 0.58363837 0.18436132 -0.32252312 -0.1222596 -0.0048529943 -0.10315206
0.5226344 -0.10134484 -0.30089915 0.5046996 -0.30630833 -0.29321182 -0.11895115 -0.12173477
-0.13452974 -0.22736521 -0.3121892 -0.21944638 0.28424335 -0.09594886 -0.3325263 -0.3363562
0.060470007 0.3153786 -0.34580803 -0.21386482 -0.16363019 -0.10335031 -0.06350673 -0.29324183
0.44440606 -0.21947877 -0.1745093 -0.29611403 0.0850008 0.4908723 0.57947016 -0.06025511
-0.044371013 0.5654792 -0.6073064 -0.33471102 0.03403048 -0.29067487 0.27480486 -0.027163995
0.7178007 -0.029136756 -0.15082388 -0.29426894 -0.1128953 -0.03519696 -0.16170895 -0.18180564
-0.13915889 0.37195417 0.15395153 -0.2682772 -0.01715402 -0.22658983 -0.1657541 -0.039029878
0.68847376 0.21378127 -0.12381091 -0.24725994 0.3103602 -0.18190394 -0.05972572 0.40660462
0.42868432 0.517954 -0.30660075 -0.10282197 0.08220637 -0.42613095 -0.14376418 0.47924632
0.008108741 -0.16683437 0.40039796 -0.07438712 0.10582044 -0.010666983 -0.20796557 0.77418673
0.057350818 -0.26068798 -0.05955694 -0.32317686 -0.10114622 -0.26103827 -0.18191682 0.36720172
-0.1992497 -0.18610117 -0.33218434 -0.056669757 0.19320144 -0.26130825 0.016199242 0.31420946
-0.056144528 0.55244315 0.57197654 -0.22108608 -0.36179128 -0.27759764 0.13565257 0.42167798
00000000: b2ab 063f 7977 f23e be19 8d3d 8122 c4bd
00000010: 0231 ecbd f638 a0be b353 8dbe c86a a8bd
00000020: 07e9 433d 9fdd babd 620d b9be 752c 34be
00000030: f6fb 293f a636 e33e bbe9 e03c f5b0 02be
00000040: 4da8 963e 1bb3 bfbd 5369 153f 37c9 3c3e
00000050: c021 a5be 3e63 fabd de05 9fbb 6341 d3bd
00000060: 5ecb 053f e28d cfbd 740f 9abe fe33 013f
00000070: 72d4 9cbe dc1f 96be a99c f3bd 1450 f9bd
00000080: 2ac2 09be 6dd2 68be 43d7 9fbe 8db6 60be
00000090: 5888 913e d680 c4bd e340 aabe e136 acbe
000000a0: 66af 773d 4e79 a13e c00d b1be 61ff 5abe
000000b0: ac8e 27be 54a9 d3bd d10f 82bd cb23 96be
000000c0: 3189 e33e 0bbf 60be 91b2 32be 429c 97be
000000d0: e614 ae3d 9d53 fb3e 2858 143f 10ce 76bd
000000e0: 61be 35bd 3fc3 103f 6f78 1bbf 3e5f abbe
000000f0: 8b63 0b3d 56d3 94be 39b3 8c3e 0787 debc
00000100: c9c1 373f 35b0 eebc 9371 1abe 6baa 96be
00000110: a735 e7bd b02a 10bd 0897 25be 422b 3abe
00000120: ab7f 0ebe c770 be3e 78a5 1d3e a15b 89be
00000130: 9686 8cbc 2a07 68be 71bb 29be cbdd 1fbd
00000140: d13f 303f 7ae9 5a3e 9390 fdbd b631 7dbe
00000150: 88e7 9e3e 0745 3abe f5a2 74bd 7b2e d03e
00000160: 837c db3e a298 043f c6fa 9cbe 5394 d2bd
00000170: d05b a83d d62d dabe eb36 13be c65f f53e
00000180: 86da 043c a1d6 2abe f600 cd3e 4658 98bd
00000190: 63b8 d83d 92c4 2ebc edf4 54be 1a31 463f
000001a0: b1e8 6a3d e578 85be faf1 73bd 7077 a5be
000001b0: c025 cfbd cfa6 85be 6748 3abe dd01 bc3e
000001c0: 1d08 4cbe 4e91 3ebe 1114 aabe 8c1e 68bd
000001d0: 99d6 453e 32ca 85be 46b4 843c 10e0 a03e
000001e0: cef7 65bd ea6c 0d3f 0e6d 123f 6464 62be
000001f0: b53c b9be 4721 8ebe 82e8 0a3e 2de6 d73e

convs.1.nn.2.weight f4 [128]
0.7750231 0.7855869 0.79732466 0.34447655 0.45906135 0.12558658 1.5268954 0.8319926
1.0778242 0.66440433 0.8143334 0.5021075 0.5840723 0.8129898 0.12426949 0.93293446
0.90421766 0.50663716 0.6355011 0.83244634 0.57911336 0.9921254 0.6775988 0.028263357
0.94201034 0.668185 0.47495395 0.75652385 1.048782 0.5277666 1.0071832 0.39610153
0.37771577 0.7443094 0.39694017 1.114695 0.76276696 0.8219515 0.37684655 0.5011109
0.8736583 0.78400064 0.17875002 0.43460298 0.27198717 0.7923738 0.9601402 1.3859881
0.67941743 0.370203 0.57038426 0.97311914 0.974427 0.7884376 0.7128341 1.2256844
0.3788756 0.7052957 0.9406533 0.34220952 1.2609901 0.45123348 0.8206147 0.3016288
0.70043 0.9677327 0.31435376 1.0037552 0.38264728 1.3359535 0.21145403 0.8675913
0.2297323 0.60484445 0.98513824 0.4346736 0.63405645 0.91374105 0.7283418 0.38454252
0.871492 0.75480247 1.2196686 1.1220102 0.69865 0.68322283 0.9038925 0.973666
0.7282864 0.8991425 1.1068101 1.0589639 1.0730336 0.37786338 0.85401714 0.878058
0.57003576 1.0329989 0.7661191 1.2029326 0.86941355 0.7539011 0.33107328 0.5318235
0.48683235 0.30110076 1.0630038 1.0505457 0.9998032 0.70152277 0.650397 0.86962324
0.5739236 0.40178603 0.44874376 0.2760797 1.0065209 0.21516933 1.2842106 0.98929787
1.25699 1.0735507 0.5763873 0.98734796 0.60811985 0.7182676 1.0960804 0.96793795
00000000: ea67 463f 391c 493f 781d 4c3f 3b5f b03e
00000010: 170a eb3e c599 003e 4f71 c33f 78fd 543f
00000020: 25f6 893f 6716 2a3f 2778 503f 1e8a 003f
00000030: c385 153f 1920 503f 0181 fe3d cbd4 6e3f
00000040: cf7a 673f f9b2 013f 33b0 223f 341b 553f
00000050: c640 143f eefb 7d3f 1d77 2d3f 8e88 e73c
00000060: 9727 713f 2c0e 2b3f 2a2d f33e 8cab 413f
00000070: 7d3e 863f b61b 073f 61eb 803f d2cd ca3e
00000080: f663 c13e 108b 3e3f be3b cb3e 53ae 8e3f
00000090: b244 433f 6a6b 523f 08f2 c03e ce48 003f
000000a0: 12a8 5f3f 44b4 483f 3f0a 373e 4884 de3e
000000b0: e741 8b3e 02d9 4a3f c0cb 753f 0f68 b13f
000000c0: 4dee 2d3f 3f8b bd3e b404 123f 561e 793f
000000d0: 0c74 793f 0cd7 493f 4c7c 363f 3ae3 9c3f
000000e0: fcfb c13e 428e 343f a8ce 703f 1636 af3e
000000f0: 2068 a13f 1308 e73e ce13 523f 176f 9a3e
00000100: 614f 333f 55bd 773f faf2 a03e 0d7b 803f
00000110: 58ea c33e 8600 ab3f 6887 583e 771a 5e3f
00000120: f23e 6b3e 16d7 1a3f 0532 7c3f 8a8d de3e
00000130: 8651 223f efea 693f 9c74 3a3f c2e2 c43e
00000140: 1a1a 5f3f bc3a 413f 1a1e 9c3f 089e 8f3f
00000150: bada 323f b1e7 2e3f 8065 673f 2d42 793f
00000160: fa70 3a3f 342e 663f f4ab 8d3f 218c 873f
00000170: 2a59 893f 4f77 c13e dea0 5a3f 69c8 603f
00000180: dded 113f 4f39 843f 6220 443f b2f9 993f
00000190: e391 5e3f aaff 403f 7082 a93e 9625 083f
000001a0: 1742 f93e e129 9a3e 8210 883f 4878 863f
000001b0: 1af3 7f3f ff96 333f 6b80 263f a19f 5e3f
000001c0: a8ec 123f e6b6 cd3e bec1 e53e 525a 8d3e
000001d0: add5 803f 5955 5c3e 0361 a43f a042 7d3f
000001e0: 0ce5 a03f 1c6a 893f 1e8e 133f d6c2 7c3f
000001f0: bead 1b3f 63e0 373f 5d4c 8c3f c8ca 773f
